model1smartersimple.pt (torch, 21502 bytes, 5 tensors)

fc1.weight f4 [64, 8]
0.2883822 0.18510759 0.26729816 0.20245372 0.23913425 -0.15929571 0.12324616 0.35241225
-0.13979732 0.26678798 -0.016991626 -0.29999727 -0.29037136 -0.13531953 -0.12620252 -0.35352015
-0.1487137 0.28498408 0.23963517 -0.33544457 -0.19571048 0.16755655 0.28623083 -0.13157901
-0.12453622 -0.019120537 0.40406123 -0.46883312 0.2906708 -0.3608349 0.16165105 0.2690594
0.35990518 -0.086778335 0.22518642 -0.2617047 0.38427925 -0.311961 -0.0850944 -0.10450637
0.16944413 -0.049629174 0.32738462 -0.20111081 0.055886693 0.1621523 0.22197074 0.0011111179
-0.020131083 -0.06381924 -0.33269614 -0.06431883 0.28530577 0.27191713 0.09532145 0.20045161
0.2649008 0.27254143 0.06990303 -0.062478576 -0.25440112 0.1487276 0.17068496 -0.35482517
0.22786018 -0.2681971 -0.16483171 -0.109229915 -0.24153405 0.18414468 0.23990513 0.17864695
0.26878795 0.32477015 -0.14125922 0.15550895 0.20894249 -0.036762524 -0.14761372 -0.19083521
0.32078484 0.022640316 0.084896594 0.2398189 -0.30952114 -0.09779902 -0.020599352 -0.29307133
-0.22618926 -0.07996977 0.05117214 0.14485823 0.13494022 -0.33107483 -0.17468843 0.19379249
-0.022562323 0.24286963 -0.20595467 0.24401917 -0.015621396 0.22510889 0.27829304 -0.31904995
0.033476528 -0.21337797 0.028360512 -0.19327292 -0.18745853 0.31481624 0.24976441 0.26545307
-0.019089514 -0.0013313971 -0.023515828 -0.17821074 -0.32820347 0.19501956 -0.2651116 -0.31508902
0.08685459 -0.34336856 -0.19263153 -0.18670158 -0.08690567 -0.29931816 0.09626568 -0.15199554
-0.26919675 0.2024441 -0.34122726 -0.038581815 0.11938714 0.17669876 -0.09701316 -0.31371507
0.32950997 0.1679022 -0.21917194 0.20932691 0.075383775 0.12068889 -0.31885058 0.0002155227
-0.28257713 0.20507564 -0.2522357 -0.32573563 0.06583015 -0.1258289 0.29062316 -0.06938342
-0.2318228 0.23346835 0.045695588 -0.20979504 -0.14239699 -0.30576542 0.09934491 0.24608298
0.30725995 0.021611778 0.19627869 -0.16753586 0.11502428 0.31458104 -0.2872772 -0.2941172
-0.13704994 0.055182323 -0.19425555 0.030521354 -0.31430906 -0.29722393 0.078568816 0.053778876
0.111603945 -0.054517787 0.32506245 0.10667702 0.30712858 0.1777897 -0.2364075 -0.068921514
-0.3354885 -0.115551576 -0.37654006 -0.34291166 -0.27216235 -0.055761393 0.29543132 0.009314595
0.32413468 0.23322774 -0.12309195 -0.06743364 -0.06963312 0.29009897 -0.2176304 -0.26306635
0.016366772 0.15336092 0.35668376 -0.010606421 0.25886738 -0.32632595 -0.06402678 0.35126516
0.12740286 0.14289787 0.07500372 0.19151542 0.2603451 0.011711922 0.2141395 0.083202675
-0.17371185 0.29410446 -0.008011739 -0.18902741 0.028668443 0.13279651 -0.29989964 -0.013196146
-0.32035407 0.06397438 -0.12273 0.04066592 0.2438244 -0.2526386 -0.12089386 0.24948436
0.10194754 -0.3404384 -0.06981298 -0.10817476 -0.27570027 0.005602214 -0.13031799 -0.17969827
0.11950958 -0.14245482 0.19061922 -0.36878717 0.19353971 -0.2410732 0.097329475 0.2903182
-0.19491465 -0.23587497 0.2904884 0.16955626 0.25140163 0.0004436216 0.048142266 -0.37002173
00000000: d5a6 933e d88c 3d3e 4edb 883e 0750 4f3e
00000010: 9cdf 743e 6a1e 23be 7c68 fc3d 616f b43e
00000020: 0727 0fbe 6f98 883e 0632 8bbc 3e99 99be
00000030: 8eab 94be 3491 0abe 3c3b 01be 9800 b5be
00000040: 6748 18be 6fe9 913e ec62 753e 64bf abbe
00000050: 5468 48be f293 2b3e d98c 923e a6bc 06be
00000060: d90c ffbd aca2 9cbc 1de1 ce3e e50a f0be
00000070: ced2 943e 5abf b8be da87 253e 27c2 893e
00000080: 7e45 b83e d7b8 b1bd 4597 663e 29fe 85be
00000090: 40c0 c43e 5ab9 9fbe f945 aebd 7007 d6bd
000000a0: c382 2d3e f647 4bbd f59e a73e feef 4dbe
000000b0: 72e9 643d 410b 263e 4c4c 633e eea2 913a
000000c0: f1e9 a4bc a9b3 82bd 2657 aabe 97b9 83bd
000000d0: 9913 923e b938 8b3e e437 c33d 3043 4d3e
000000e0: 14a1 873e 8d8a 8b3e 5229 8f3d 89e9 7fbd
000000f0: dd40 82be 0c4c 183e 0ac8 2e3e a5ab b5be
00000100: 2e54 693e 2151 89be a5c9 28be efb3 dfbd
00000110: b454 77be 6c90 3c3e b1a9 753e 3aef 363e
00000120: 939e 893e 4648 a63e 42a6 10be bd3d 1f3e
00000130: 05f5 553e 4d94 16bd 0d28 17be 4e6a 43be
00000140: e93d a43e 2f78 b93c 44de ad3d 1693 753e
00000150: 8e79 9ebe da4a c8bd f9bf a8bc 720d 96be
00000160: 289e 67be 31c7 a3bd e199 513d b755 143e
00000170: c52d 0a3e a482 a9be 86e1 32be 8a71 463e
00000180: 9fd4 b8bc d1b2 783e c8e5 52be 29e0 793e
00000190: e2f0 7fbc f282 663e 6d7c 8e3e 845a a3be
000001a0: af1e 093d c17f 5abe 4e54 e83c 56e9 45be
000001b0: 21f5 3fbe 982f a13e 3ec2 7f3e 77e9 873e
000001c0: 9d61 9cbc 4682 aeba 44a4 c0bc e07c 36be
000001d0: 490a a8be 35b3 473e b5bc 87be 5953 a1be
000001e0: d2e0 b13d 01ce afbe 3341 45be b32e 3fbe
000001f0: 9afb b1bd 3b40 99be f126 c53d b8a4 1bbe
00000200: 28d4 89be 824d 4f3e 57b5 aebe f707 1ebd
00000210: 3f81 f43d 85f0 343e d6ae c6bd 439f a0be
00000220: 88b5 a83e 8eee 2b3e 9c6e 60be cb59 563e
00000230: cf62 9a3d bd2b f73d 6240 a3be effd 6139
00000240: f3ad 90be 59ff 513e 0a25 81be d2c6 a6be
00000250: f5d1 863d 4bd9 00be 8fcc 943e e518 8ebd
00000260: f562 6dbe 5412 6f3e 4c2b 3b3d 83d4 56be
00000270: 84d0 11be 498d 9cbe 5875 cb3d 2dfd 7b3e
00000280: 2d51 9d3e 2f0b b13c 48fd 483e 858e 2bbe
00000290: da91 eb3d c410 a13e ff15 93be 8896 96be
000002a0: d256 0cbe dc06 623d edea 46be eb07 fa3c
000002b0: 1eed a0be bc2d 98be b0e8 a03d 3d47 5c3d
000002c0: 9c90 e43d 0b4e 5fbd 966e a63e 7b79 da3d
000002d0: f53f 9d3e 810e 363e cf14 72be b926 8dbd
000002e0: 26c5 abbe 4ea6 ecbd dcc9 c0be 1e92 afbe
000002f0: dd58 8bbe 0f66 64bd c642 973e 3e9c 183c
00000300: fbf4 a53e 41d3 6e3e a217 fcbd a61a 8abd
00000310: cf9b 8ebd da87 943e 81da 5ebe a2b0 86be
00000320: 9c13 863c a50a 1d3e 419f b63e 8ec6 2dbc
00000330: 448a 843e 3214 a7be 7920 83bd 07d9 b33e
00000340: e575 023e d253 123e 8d9b 993d 9e1c 443e
00000350: f44b 853e 5ce3 3f3c 6347 5b3e 2a66 aa3d
00000360: 85e1 31be dc94 963e ab43 03bc 6790 41be
00000370: 15da ea3c cffb 073e 728c 99be a634 58bc
00000380: 7305 a4be 0005 833d de59 fbbd 4f91 263d
00000390: 1aad 793e d959 81be 3397 f7bd d478 7f3e
000003a0: dfc9 d03d f14d aebe 1cfa 8ebd bb8a ddbd
000003b0: 9628 8dbe c792 b73b 1472 05be d302 38be
000003c0: 70c1 f43d addf 11be af31 433e acd1 bcbe
000003d0: 462f 463e e5db 76be ad54 c73d 96a4 943e
000003e0: b597 47be 3589 71be e5ba 943e 28a0 2d3e
000003f0: b7b7 803e e295 e839 d330 453d 7d73 bdbe

fc1.bias f4 [64]
0.16266108 -0.19758166 -0.09870986 -0.07630372 -0.09519965 -0.039519798 -0.2588129 -0.26035875
0.26706502 -0.14549848 -0.2635771 -0.18775871 0.15941578 -0.34042305 -0.050385725 0.22567822
0.036162414 0.061854497 0.18377772 0.329204 -0.16499506 0.1506463 0.3304675 0.06850619
0.15920626 -0.25916153 0.2743212 0.34452915 -0.04079631 0.29762715 -0.3148361 -0.2655346
0.16506846 -0.2958652 0.33087188 0.230194 0.13920484 -0.24851231 -0.2560515 -0.2140777
0.120467275 -0.2565112 0.25716034 -0.24066073 0.053912614 0.049181215 -0.24273945 -0.2540339
0.28759745 0.22241761 0.2566238 -0.087888464 -0.14384781 -0.030949049 -0.31251281 0.23648103
0.1330582 0.14615507 -0.33578244 0.044800512 0.30618525 -0.005092593 0.27165437 -0.04173439
00000000: a090 263e d952 4abe 6528 cabd 2045 9cbd
00000010: 09f8 c2bd 83df 21bd 2083 84be be4d 85be
00000020: bfbc 883e 8efd 14be 94f3 86be d243 40be
00000030: e43d 233e ee4b aebe 4361 4ebd 3118 673e
00000040: 0a1f 143d 245b 7d3d 3a30 3c3e 6d8d a83e
00000050: 77f4 28be 0643 1a3e 0933 a93e f94c 8c3d
00000060: f706 233e d2b0 84be d473 8c3e 2066 b03e
00000070: 081a 27bd 9662 983e 3332 a1be 27f4 87be
00000080: b507 293e a57b 97be 0a68 a93e fab7 6b3e
00000090: b78b 0e3e 037a 7ebe 2f19 83be 2f37 5bbe
000000a0: 8cb7 f63d 7055 83be 85aa 833e c46f 76be
000000b0: 79d3 5c3d 3e72 493d b190 78be bb10 82be
000000c0: f93f 933e 71c1 633e 3264 833e defe b3bd
000000d0: d74c 13be dc88 fdbc ae01 a0be 1528 723e
000000e0: 6940 083e ada9 153e adeb abbe be80 373d
000000f0: 50c4 9c3e c4df a6bb 4816 8b3e aef1 2abd

fc2.weight f4 [64, 64]
0.09254192 0.089662775 0.0006937113 0.10150362 0.05864297 0.12987001 0.022939606 -0.006014854
-0.09612513 -0.07519022 -0.028240517 0.12267116 0.046350908 0.10173901 0.03733035 0.015105766
0.00888568 -0.015559631 -0.12648521 0.05909015 -0.08757568 -0.010203232 0.07424983 -0.018291537
0.035822578 0.09367914 -0.06544036 -0.07623658 -0.023367003 0.07465134 0.052369326 0.040459182
-0.0073409504 -0.10487869 0.077371135 0.060389295 -0.15704311 -0.085935816 0.036725584 0.10077217
-0.03179826 -0.071299806 0.034599163 0.08357066 -0.046878733 -0.054885972 0.082466215 -0.10417861
0.10858819 -0.1008057 -0.050694257 0.01408996 0.054562762 -0.09913935 -0.11065152 -0.11332779
0.07725836 -0.043138344 0.106039725 -0.0072589763 0.034352485 0.02425636 0.056224864 0.06481699
-0.08368803 -0.025670528 0.04494209 0.04579248 0.07764403 0.06750939 -0.039529003 0.089107245
-0.048590217 0.05173573 0.052236244 0.12132851 -0.11529098 -0.06502355 -0.09636319 -0.047652617
-0.016930016 0.06903321 0.06523914 -0.07677687 0.10898683 0.100686 0.030703794 0.0283086
0.06788451 -0.030059129 -0.099170074 -0.1129765 0.02289478 0.062907726 0.106959164 0.086201094
-0.045946658 0.059810534 -0.04304474 -0.10095151 0.00092734816 -0.09873319 -0.09934549 -0.095182665
-0.11282334 -0.00427378 -0.0022541683 -0.0478542 -0.0885135 -0.058680907 0.11074825 -0.076182365
-0.059568737 -0.01248623 -0.08039111 -0.07701655 -0.11976609 -0.039793268 -0.043410648 -0.0996731
0.11968621 -0.03399749 -0.0862908 -0.092952445 -0.014596269 0.11028116 0.027716063 -0.0576874
-0.06622278 0.012921378 0.11582796 -0.012653955 -0.03303324 0.11278029 -0.009466055 0.060145613
-0.039872505 0.06094485 -0.12017296 -0.08949112 5.213546e-05 -0.090864085 0.019839928 0.020145372
0.05302429 -0.08193895 -0.025450762 -0.034785368 0.07074666 -0.07157877 0.08113604 -0.090228744
0.089616284 0.108949125 -0.039721377 0.1041797 -0.08546339 0.08216536 -0.07731038 -0.0712433
0.09536642 -0.003472333 0.011098269 0.048104733 -0.12712622 -0.059244335 0.015479627 -0.054594558
-0.006701897 -0.078380704 0.09372143 0.12074691 -0.0871278 -0.032194417 0.06117516 -0.05585978
0.098838374 0.046994563 0.09851088 -0.11713087 -0.05854283 0.001556009 -0.0018183327 -0.10153604
0.0394864 0.07021306 -0.004595832 0.032600917 0.041759767 -0.11299007 0.015617302 0.023747219
-0.003991155 0.058503628 0.042603668 0.14733593 -0.06492869 0.12959008 -0.009558375 -0.009143764
0.021561213 0.052648704 -0.11786072 -0.08886022 -0.13283962 -0.03574402 0.12280871 0.09572964
0.070468344 -0.07364107 0.09462567 -0.053776454 -0.017534288 0.034148596 0.101296835 0.046513706
0.0494114 0.039111458 0.102910526 0.07189579 0.06764281 -0.018472798 0.097780354 -0.013685973
0.06717138 -0.12417143 -0.006577629 -0.103760675 -0.11692037 -0.00708583 -0.037107024 -0.06278467
0.07854022 0.0005903686 0.034073476 0.0058950335 -0.016895292 0.02583974 0.12737924 -0.09830548
0.109495066 -0.010107723 -0.103519335 0.08284209 -0.112905055 0.0120493015 -0.09773972 -0.021224309
-0.013900193 -0.06549922 0.08390419 -0.060561996 0.07604981 -0.074021675 -0.0088884905 -0.08942482
00000000: 9e86 bd3d 1ea1 b73d 2dda 353a 21e1 cf3d
00000010: 9c33 703d a5fc 043e d7eb bb3c 4118 c5bb
00000020: 41dd c4bd 54fd 99bd a858 e7bc 043b fb3d
00000030: 73da 3d3d 8b5c d03d b6e7 183d 2d7e 773c
00000040: 3e95 113c d3ed 7ebc 5785 01be 8308 723d
00000050: e15a b3bd 752b 27bc 4b10 983d 22d8 95bc
00000060: b2ba 123d d9da bf3d 9805 86bd ed21 9cbd
00000070: 286c bfbc cde2 983d 3881 563d 87b8 253d
00000080: 5b8c f0bb a3ca d6bd c274 9e3d c45a 773d
00000090: e9cf 20be 1eff afbd 916d 163d a461 ce3d
000000a0: e43e 02bd a205 92bd dab7 0d3d 1827 ab3d
000000b0: ea03 40bd 1dd0 60bd 0ce4 a83d 985b d5bd
000000c0: 7c63 de3d 3873 cebd c8a4 4fbd 93d9 663c
000000d0: 347d 5f3d 9209 cbbd 449d e2bd 6618 e8bd
000000e0: a239 9e3d d5b1 30bd 5b2b d93d b5dc edbb
000000f0: 31b5 0c3d 46b5 c63c 0b4c 663d c5be 843d
00000100: a164 abbd 004b d2bc 3215 383d e590 3b3d
00000110: d503 9f3d 5d42 8a3d 2ae9 21bd dc7d b63d
00000120: 8906 47bd d8e8 533d acf5 553d 157b f83d
00000130: ad1d ecbd 112b 85bd 105a c5bd 642f 43bd
00000140: d1b0 8abc 4961 8d3d 199c 853d 313d 9dbd
00000150: 7d34 df3d 7634 ce3d 8686 fb3c 70e7 e73c
00000160: 0907 8b3d 903e f6bc ae19 cbbd 3960 e7bd
00000170: d58d bb3c c4d5 803d 680d db3d 338a b03d
00000180: 9032 3cbd e4fb 743d ae4f 30bd aabf cebd
00000190: 4819 733a a034 cabd a675 cbbd 21ef c2bd
000001a0: ec0f e7bd 110b 8cbb abba 13bb c402 44bd
000001b0: 9146 b5bd 645b 70bd facf e23d 8005 9cbd
000001c0: 59fe 73bd 0b93 4cbc 18a4 a4bd daba 9dbd
000001d0: ec47 f5bd 44fe 22bd 5dcf 31bd 6921 ccbd
000001e0: 0b1e f53d f440 0bbd 3bb9 b0bd da5d bebd
000001f0: 3025 6fbc 17db e13d cc0c e33c a049 6cbd
00000200: cf9f 87bd 30b4 533c 3637 ed3d 8952 4fbc
00000210: dd4d 07bd 5af9 e63d 8317 1bbc 3f5b 763d
00000220: 5a51 23bd 4fa1 793d 3e1d f6bd 1f47 b7bd
00000230: 06ac 5a38 f316 babd 5887 a23c e807 a53c
00000240: ff2f 593d 9ccf a7bd 1e7e d0bc 1a7b 0ebd
00000250: a0e3 903d e497 92bd a72a a63d d9c9 b8bd
00000260: be88 b73d b820 df3d e2b2 22bd 2b5c d53d
00000270: 6e07 afbd 5046 a83d e854 9ebd 02e8 91bd
00000280: 784f c33d 1590 63bb 84d5 353c 7809 453d
00000290: 602d 02be 30aa 72bd 439e 7d3c 8b9e 5fbd
000002a0: 969b dbbb 1086 a0bd 05f1 bf3d 284a f73d
000002b0: 0f70 b2bd 4bde 03bd ce92 7a3d 3acd 64bd
000002c0: c66b ca3d 5f7d 403d 12c0 c93d 4fe2 efbd
000002d0: 9bca 6fbd 00f3 cb3a 1f55 eeba 21f2 cfbd
000002e0: 7ebc 213d ddcb 8f3d a298 96bb 8a88 053d
000002f0: 4a0c 2b3d 5667 e7bd b6df 7f3c 8789 c23c
00000300: 3cc8 82bb 80a1 6f3d 2f81 2e3d 3bdf 163e
00000310: 55f9 84bd 43b3 043e bb9a 1cbc bacf 15bc
00000320: 24a1 b03c 2ba6 573d f660 f1bd 59fc b5bd
00000330: 1c07 08be 5268 12bd 2283 fb3d e70d c43d
00000340: b551 903d 21d1 96bd 1acb c13d b344 5cbd
00000350: 11a4 8fbc 66df 0b3d b774 cf3d 2885 3e3d
00000360: 9c63 4a3d 5633 203d c1c2 d23d 1a3e 933d
00000370: 5088 8a3d 4454 97bc 1141 c83d 223b 60bc
00000380: 2691 893d 974d febd 2789 d7bb 7a80 d4bd
00000390: f273 efbd 4030 e8bb 89fd 17bd 4095 80bd
000003a0: b2d9 a03d f7c2 1a3a a190 0b3d 202b c13b
000003b0: ff67 8abc ddad d33c b46f 023e 6254 c9bd
000003c0: f33e e03d dd9a 25bc f201 d4bd 1da9 a93d
000003d0: c43a e7bd 6f6a 453c c32b c8bd 9ade adbc
000003e0: a3bd 63bc 7424 86bd f6d5 ab3d db0f 78bd
000003f0: 01c0 9b3d ad98 97bd 08a1 11bc 5c24 b7bd

fc2.bias f4 [64]
0.11192194 0.05283278 -0.124562666 0.066414304 -0.11959 -0.04423471 0.115928315 0.088237904
-0.012284723 -0.034118652 0.10523187 0.067247465 0.07092347 0.0050315266 -0.018863242 0.08480641
-0.11519918 -0.079575896 0.013771513 -0.090180926 0.106512554 -0.033902194 0.017823115 0.057287633
-0.07044725 -0.010717122 0.044758704 0.078889705 0.055675387 -0.012225994 0.06184724 -0.101761386
-0.07614165 0.044353016 -0.08696545 0.06894596 0.029152285 0.06480847 0.08892278 0.026903374
0.04227467 -0.075538844 0.04894918 0.12589204 -0.043090235 0.11371279 -0.05084699 0.07207963
0.01309027 -0.11410598 -0.053286213 0.12448321 0.04026073 0.10015749 -0.024216747 -0.062719785
-0.04407883 -0.11586424 0.0755646 0.045602106 -0.10538463 -0.0714957 0.027735103 -0.0387557
00000000: 5537 e53d 2f67 583d b61a ffbd 3904 883d
00000010: 9aeb f4bd 752f 35bd d36b ed3d 13b6 b43d
00000020: dd45 49bc 00c0 0bbd cf83 d73d 0ab9 893d
00000030: 5340 913d 81df a43b 1687 9abc fcae ad3d
00000040: 8ced ebbd b0f8 a2bd e9a1 613c c7b0 b8bd
00000050: 4123 da3d 07dd 0abd c801 923c 70a6 6a3d
00000060: a646 90bd de96 2fbc e754 373d ed90 a13d
00000070: e00b 643d 894f 48bc 8853 7d3d 4668 d0bd
00000080: 27f0 9bbd 82ab 353d f11a b2bd 8a33 8d3d
00000090: c6d0 ee3c 4eba 843d 251d b63d 7764 dc3c
000000a0: 3428 2d3d 1cb4 9abd ef7e 483d d8e9 003e
000000b0: 637f 30bd 40e2 e83d ef44 50bd 7c9e 933d
000000c0: 9278 563c 65b0 e9bd a542 5abd 0ef1 fe3d
000000d0: 6fe8 243d 5f1f cd3d 3362 c6bc 3b73 80bd
000000e0: 018c 34bd 3b4a edbd 9dc1 9a3d 46c9 3a3d
000000f0: e6d3 d7bd 566c 92bd ba34 e33c 4cbe 1ebd

fc3.weight f4 [1, 64]
-0.27768692 0.062935986 0.06990543 -0.21317166 -0.06283063 -0.38587767 -0.033757187 -0.14111644
-0.40290543 -0.13910356 -0.036883295 -0.05073652 -0.013236957 0.26062128 0.27488455 0.087511495
0.09054358 0.09204332 0.30336 0.029202418 0.41210327 -0.042988066 -0.1057135 0.17203642
0.04673055 0.024263399 -0.010294095 -0.12063412 -0.056171842 -0.15427107 0.03660406 0.032138254
-0.0573795 0.0702677 0.06634492 0.31799835 0.39833903 0.026608646 0.33618736 0.078273095
0.007663011 -0.11597041 0.14968674 0.0738718 -0.022931708 0.010967085 0.04525988 0.037261155
0.019624028 0.07713561 0.20895721 -0.077151805 -0.114037625 -0.007869337 -0.13930613 -0.019690104
-0.14812471 -0.07228535 -0.07740974 -0.074279346 0.10519089 0.095285244 -0.107166685 -0.09645841
00000000: fb2c 8ebe 95e4 803d 942a 8f3d ac49 5abe
00000010: 58ad 80bd c291 c5be fa44 0abd d480 10be
00000020: 9f49 cebe 2a71 0ebe f012 17bd 19d1 4fbd
00000030: d2df 58bc 2770 853e abbd 8c3e 3a39 b33d
00000040: ea6e b93d 3581 bc3d 0052 9b3e e939 ef3c
00000050: 33ff d23e 4114 30bd 5280 d8bd 512a 303e
00000060: 8868 3f3d 09c4 c63c 90a8 28bc 060f f7bd
00000070: 7214 66bd 3cf9 1dbe 24ee 153d 67a3 033d
00000080: c406 6bbd 83e8 8f3d d8df 873d aed0 a23e
00000090: 18f3 cb3e 60fa d93c c020 ac3e a54d a03d
000000a0: ff19 fb3b e581 edbd 7b47 193e 194a 973d
000000b0: 47db bbbc 4aaf 333c 6d62 393d 279f 183d
000000c0: 92c2 a03c 46f9 9d3d e1f8 553e c401 9ebd
000000d0: 8f8c e9bd 64ee 00bc 44a6 0ebe 244d a1bc
000000e0: 01ae 17be 570a 94bd ff88 9ebd c51f 98bd
000000f0: 526e d73d e924 c33d 357a dbbd fd8b c5bd
