model2simple.pt (torch, 21882 bytes, 5 tensors)

fc1.weight f4 [64, 8]
00000000: f484 743d 4b7d 8e3e 4edb 93bc c759 e5bd
00000010: f649 793e 7e15 b23e e438 05bd 1387 acbe
00000020: ab2b 003e e0a8 0e3e 6dde dabc cf44 28be
00000030: 7238 b3bd 148b 21be 34c7 9e3e 08c7 4a3d
00000040: 9c5c 13bd 12dd eebd e8c7 df3e 162d c23d
00000050: f3ca 713e 5f3b 24be 7be5 573d 7088 c8bd
00000060: 4dda 7b3e ce45 8ebe 3b79 84be 53d6 b0be
00000070: b0e2 323e b435 61be 8b1a 7cbe 433d 5e3e
00000080: 9fe1 8f3e 3156 2b3d 1aaa 5abb 84b0 c8bd
00000090: 4919 6ebe b9f9 8ebe fdbd 6b3c 22e4 2ebe
000000a0: 3cfb 4bbe 2981 3cbe 72fc 03be 6d2f 113f
000000b0: 9813 473d ee57 8cbe cbc6 da3c dcb2 cbbd
000000c0: 77ab 6bbe f66f 97be 4051 c63d 171f aebe
000000d0: 6344 6ebe 4a40 12be 7f3a 78be 6120 65be
000000e0: f8b4 893e 4527 c63d 80c8 963d 38ae adbe
000000f0: e192 453d c570 babe 2b7a 933e 7659 893c
00000100: 1301 fdbd 3e92 d23e eccc e53d c2f1 183e
00000110: 7a73 753e b60e d4be f63a 503e 3b5a 30be
00000120: 885e 093d 9e07 74bc 80fd 243d 35be 973e
00000130: 06b0 83bd 9a6a eebd 78e3 bcbd 21fa 3dbe
00000140: a72b 6abb e283 f4be 61d9 d23d d99f d93d
00000150: 031e 1d3d f088 a3be 37ba 913d dd97 8f3d
00000160: c452 823e 5383 283b f318 c8bd 1853 9cbe
00000170: 1b06 04be fc03 cdba 0920 f93d b2d5 aebe
00000180: de8e 73be 5ec9 073f 4636 d2be 4dd9 693e
00000190: c518 01bd 7604 ebbe 6ac6 113c 4af5 993b
000001a0: 3cb3 80bd 9c84 643e ead6 08bd d33c 1cbe
000001b0: a8d2 9f3e f232 44be 975a 8f3e a174 963e
000001c0: a2e2 c63e 8389 bb3e 6ba6 003f f59a fabd
000001d0: e669 6abe 52da debe a2d6 6ebd b710 133e
000001e0: 6cf8 323e 0b6e 8b3e 3818 5b3e ad8f 393e
000001f0: a873 5bbe 67fb 933f d61f 413d 7d29 99be
00000200: 6bfe 66be a540 573e f6f1 cf3d e73a b03e
00000210: 45f6 31bd dbfb 25be bce8 93be fcf4 a43e
00000220: eb8b 87be f04a 8abe 5d62 5abe fa91 a8be
00000230: 35cc 95be 4e05 04be 3fd9 67be 84bd eebd
00000240: 38ac 5cbe 46fe 863e e6fa e0bd 0428 b7bd
00000250: a2d2 a7be 747b 99be 2148 85bd d500 da3a
00000260: b78a 50be 5a53 a9bd bbda 2e3e f189 863e
00000270: c57e a8be 8280 8b3e ec64 8b3e 4b2c 99bd
00000280: a76c 6e3d 6948 c7be 6bf2 933e 5c66 333e
00000290: 8f63 9e3d 4196 a73b a9a2 73be 7fa7 263e
000002a0: 766a a73e 7fd9 233d 7e0c 70be b1c4 8c3e
000002b0: 5918 ce3c 55d2 ac3e da78 28be df87 8f3e
000002c0: 25b0 2e3e b731 f8bd 1c17 21bd 814d 01be
000002d0: 395e 7bbe 4a01 323e e59a bdbd dc49 53be
000002e0: 62f4 d6bd 7531 023f c4d3 a7bc 1ff0 b3bd
000002f0: e55a c9bc 2767 bbbe 99f4 92bb 5f97 93bd
00000300: ee06 3cbe 9e14 9cbe 59bb 1d3e 31cd bb3d
00000310: ac64 e1bd 21db b5be a108 f6bd 5763 ef3d
00000320: a463 833e 28b7 963e 99ea 773e 864c 8cbe
00000330: 3225 103e 4b4c 47be 86ee 39be 39da a1be
00000340: e1ee 80be cf97 a9bd 1f93 a2be 1d18 91bd
00000350: 04bc 923e 5df5 303e bfd4 b7be 6714 2cbe
00000360: aed3 203e 0839 2b3e 1bdb 92be 5086 723e
00000370: b41f a1bc 9990 7dbe edf1 ccbc 1fdf 73bd
00000380: e7f7 18bc e34d 34be 32f3 07be a4f9 ce3e
00000390: ccf7 783e 20ab 10bf d357 7c3e 06e3 8a3e
000003a0: e569 98be cb92 7a3e 44a9 a5be 9bc3 b6be
000003b0: 9c5d 97be 1e34 a4be b621 7fbe 6a43 8d3e
000003c0: 48b7 58bd 4953 8c3c 232d 173e 6059 18be
000003d0: 9d1f a83e b5e6 adbe 5ae7 27bd db80 39be
000003e0: e37b 183d 2233 8ebe 8596 85be 4ad1 50be
000003f0: 294e 463e 2787 f63e 4318 cdbd 5686 d93e
0.059697106 0.27829966 -0.018048909 -0.11198764 0.2434462 0.34782022 -0.03252496 -0.33696803
0.12516658 0.13931608 -0.026717389 -0.16432498 -0.087510005 -0.1577571 0.31011355 0.049506217
-0.03597699 -0.116632596 0.43707204 0.09481256 0.23612575 -0.16038273 0.052709084 -0.097916484
0.24594994 -0.27787632 -0.25873742 -0.34538516 0.17469287 -0.21993142 -0.246195 0.21703057
0.28101823 0.041830245 -0.0033365549 -0.09799293 -0.23251833 -0.27924898 0.014388558 -0.17079213
-0.19920057 -0.18408646 -0.12889269 0.5671299 0.04860267 -0.27410835 0.02670612 -0.09946224
-0.23014627 -0.29577607 0.09683466 -0.34008095 -0.23268275 -0.14282337 -0.24241064 -0.22375633
0.2689588 0.09675459 0.07362461 -0.3392198 0.048235778 -0.3641416 0.28804144 0.016766291
-0.123537205 0.411272 0.11220726 0.14935973 0.23969832 -0.41417474 0.20334992 -0.1722192
0.033537418 -0.014894394 0.04028082 0.29637304 -0.06430058 -0.116414264 -0.09223074 -0.18552448
-0.0035731585 -0.4775687 0.10295368 0.10626192 0.0383587 -0.31940413 0.07115596 0.070113875
0.2545377 0.002571304 -0.09770384 -0.30532146 -0.12892954 -0.0015641446 0.12164313 -0.34147412
-0.23784968 0.53041637 -0.41057032 0.228368 -0.031517763 -0.4590184 0.008897403 0.00469843
-0.06284186 0.22316211 -0.033408083 -0.15257578 0.31215405 -0.19160059 0.27998802 0.29385856
0.38844782 0.3662835 0.50253934 -0.12236587 -0.2289196 -0.4352594 -0.05831016 0.14361845
0.17477578 0.27232394 0.21395957 0.18121214 -0.21430838 1.1561097 0.0471495 -0.29914466
-0.2255799 0.21020754 0.10153572 0.3441994 -0.04344775 -0.16209356 -0.288885 0.32218158
-0.26473936 -0.27010298 -0.21326585 -0.3292387 -0.2925736 -0.12892649 -0.22641467 -0.11657241
-0.21550071 0.2636587 -0.10985355 -0.08943179 -0.32777888 -0.29977 -0.06507898 0.0016632328
-0.20365416 -0.08267851 0.17075627 0.26277116 -0.32909217 0.2724648 0.27225435 -0.07479151
0.058209088 -0.38922432 0.28895888 0.17519516 0.07733833 0.005114347 -0.23792519 0.16274832
0.3269841 0.040002342 -0.23442265 0.27493814 0.025158094 0.3375422 -0.16452351 0.2803335
0.17059381 -0.12118857 -0.03932868 -0.12627222 -0.24547662 0.17383304 -0.092580594 -0.20633644
-0.10495831 0.50856715 -0.02048672 -0.08786034 -0.024579475 -0.36602136 -0.0044847247 -0.07206606
-0.18362018 -0.3048448 0.15403499 0.091699965 -0.1100553 -0.35518745 -0.120133646 0.116888694
0.25661957 0.29436612 0.24210586 -0.27402133 0.14076689 -0.19462697 -0.18157396 -0.31611803
-0.2518225 -0.08280908 -0.3175287 -0.07084677 0.2865907 0.17281099 -0.359045 -0.16804658
0.1570575 0.16720974 -0.2868279 0.23684049 -0.019668438 -0.24762191 -0.025017703 -0.059538957
-0.009336448 -0.17607836 -0.13276365 0.40424836 0.24313277 -0.56511116 0.24642877 0.2712633
-0.2976829 0.2447006 -0.32355702 -0.3569611 -0.29563606 -0.32071012 -0.24915203 0.27590495
-0.052909166 0.017129557 0.14763312 -0.14877844 0.3283662 -0.33965078 -0.04099212 -0.1811556
0.037227523 -0.27773386 -0.260914 -0.20392337 0.19365753 0.48149988 -0.10014393 0.42485303

fc1.bias f4 [64]
00000000: 77bd 88bd 6085 253e 2eae 443e 9758 6fbe
00000010: d45a a6be 6685 a13e e242 a73e 02a3 833e
00000020: 57f6 e1bd 9d94 893e 22f2 f93d a947 753e
00000030: 1bea c13e 98b2 b13d 5206 5b3e 8429 58be
00000040: a67c 2fbe bb79 1bbe 558e 9f3e 5393 ed3d
00000050: b292 433e ca6d 973e 4cce 7cbe 5b4f ba3e
00000060: 8e0c 81be 6957 b9be 73fd 88be 3f25 c33e
00000070: 8dfb ba3e c16b 23be f2b2 e33d 9b3e fabe
00000080: 6d8e be3e bab8 493e f919 b03c 09f6 10be
00000090: 0736 88be 2f17 a63e d755 d2be ed48 95be
000000a0: 3bb4 d3be 1465 8a3d 382a 1e3e e10b 28be
000000b0: 320b 06be 1c9e 293e a653 9fbe 6dc2 b53e
000000c0: a46b b43d f5c0 55be 4212 973e ff4e 803d
000000d0: 2947 903e 3785 46be 15a6 953c a546 ae3d
000000e0: fe43 b9be 2c31 c83e 6f3f 09bf 00fb d6bd
000000f0: 831b 5d3e b211 a13c fb1e 343e 0d42 073e
-0.066767626 0.1616416 0.1920707 -0.23373638 -0.3249117 0.31547087 0.32668215 0.25710303
-0.11033314 0.26871195 0.12204386 0.23953117 0.3787392 0.08676642 0.2138913 -0.21109587
-0.17137393 -0.15183155 0.31163278 0.116003655 0.19098929 0.2957595 -0.24688071 0.36388668
-0.2520489 -0.361995 -0.26755866 0.38114354 0.36520043 -0.15959074 0.111181155 -0.4887589
0.37218037 0.19699374 0.02149676 -0.14156355 -0.2660372 0.32439563 -0.41081116 -0.291572
-0.41348442 0.0675756 0.15445793 -0.16410781 -0.13090208 0.1656422 -0.31118506 0.35499898
0.08809593 -0.20874389 0.29506117 0.06265067 0.2817929 -0.19386755 0.01826767 0.08509568
-0.36184686 0.39100015 -0.53612417 -0.10497093 0.21592526 0.019661758 0.17589943 0.1320879

fc2.weight f4 [64, 64]
00000000: 77cd c83d 5352 2cbc 4551 c03d 53b0 93ba
00000010: 12b4 b93d e810 123e 1156 d23d 0e3a 373d
00000020: 97e5 71bd 8560 973d b2ec 22bd c24f 023e
00000030: e9f6 713d aea2 c0bd 9b84 e83d 7a3b 09be
00000040: 25e4 7a3d 74a1 73bd 0885 9ebc de28 aebd
00000050: 9d64 74bd 6f84 bbbd d285 9a3d 9167 123e
00000060: 80a9 e23d ae4b 113d 8b3f a63d f22f a23c
00000070: fb2f 05bc 291c bdbc 9e4d ef3d 23dd 16be
00000080: b151 88bd 710b 093e 8ea3 923d 0cfd ba3d
00000090: 65df f6bb afda f83d 3c84 ebbd 67cd f8bc
000000a0: 9d1a 913d fc66 b7bd c0c2 f83d 98cd 013e
000000b0: 3f02 543a d635 c43d 2171 f73a 155d d5bd
000000c0: c63d a53d 20e1 08bd 4130 ed3d 7e39 833d
000000d0: a3a8 ee3c f893 89bc b6e1 c4bc acc5 75bc
000000e0: b7d2 e33d 8c3b 093d fd54 043d d0d6 8dbd
000000f0: 2c40 833d d855 8c3d 6c1e f43d 9aa0 923d
00000100: 4b50 c8bd 930e 98bd e856 033e 42c8 b9bd
00000110: e141 e53b 5757 0c3e b056 f03d 5cd5 803d
00000120: f0ed 32bc 633f bf3d 5d71 38bc 40c6 bf3c
00000130: b9b9 1e3e 7fa0 58bd 721c 903d e375 90bc
00000140: 6104 783d 20e7 5bbd 7e24 dabd 402e bebd
00000150: e66d ed3c c92f c63c 318c 36bd 4365 ed3d
00000160: 66d0 89bd fd9a 9bbc d0fd e6bd e01d 5b3d
00000170: 21f5 463e 0a15 e7bd 49d7 65bb 8309 6f3c
00000180: 0c5d 86bc 203e 91bb 2208 5cbd 4881 773d
00000190: 0fef 953d 3433 51bd ad7b 06be d485 05be
000001a0: 4a04 b63d 61ed dbbc b06e e8bd e372 aebd
000001b0: 9c15 153d eb17 aa3d 2b5f 82bc 69df 9a3d
000001c0: 0b13 a63d 8eb0 f6bc 366c 013e fdd6 adbd
000001d0: b0a1 c9bd 607b 0dbd c4ab ee3d e25e ed3d
000001e0: a32f 35bc 0b62 053e 9e81 e0bd ccc7 55bd
000001f0: 05d5 883d f31f e93c a890 923c 36bf 88bd
00000200: 500d d53d 3ff3 903d d948 30bd 351d 36bd
00000210: ea31 993b 1cbd ff3d d2b2 df3d 63e1 053e
00000220: 27fc 25bd 3646 a3bd 9944 b23d ae7e 133c
00000230: 3cb1 583e a203 0a3e bc91 d03d 4407 dabd
00000240: 0372 b13c 185e b13d 0ed4 63bd 01c8 b6bc
00000250: 8a92 4bbd d903 b73d 671f 8a3c a6a2 62bd
00000260: b157 f93c d660 a2bc 88ae aebd 2dee a53d
00000270: 9917 dc3d 77b8 003d 4de5 273c 0821 2dbe
00000280: df52 72bd 3b18 0c3e fd4e 933d 50b7 023d
00000290: 1da1 86bd f7fe f13c a915 143d 70b3 113b
000002a0: f50b c5bd 1aa5 07be 423f e83d 686a 05bd
000002b0: 03a6 0d3d a36e 7cbd 8041 883d 1069 a33c
000002c0: f9c8 9d3d 22eb f93b 14c4 e1bd e86e 683d
000002d0: 4953 70bd 9250 bfbd 3d10 fb3c 4c24 60bd
000002e0: e9f7 553d b2d7 463d 43d6 37bc 0cf8 bebd
000002f0: 2804 f1bd 3001 1e3d 7bc7 d13c caea d1bc
00000300: e93b 853d bc13 b3bd f916 193d f2a2 1ebd
00000310: b3df c13d 458a f1bd a5ce f13d c02d 0bbd
00000320: 1cc9 9fbd 4a6e 2d3d d80e 073c 7ad5 a23d
00000330: 1224 4cbe 48d6 d13d 538d d7bc a91b 913e
00000340: 4622 dbbd 0569 ccbd 9b7f 86bd c3e5 fa3d
00000350: b676 d73d 309c 2a3d 0164 cc3d 7e39 aebd
00000360: e338 0dbc 2f62 b33d 0f4b 75bd f877 5abd
00000370: c39f ff3c 2889 fe3d 1433 febd ca09 de3d
00000380: f627 25be d8d6 f4bd 9a25 fbbd 7848 eb3c
00000390: d5cd d1bd 820f 49bd 94d8 953d 2750 e0bc
000003a0: 9183 0d3e df4a 57bd 73bf 663d 6cd7 8d3c
000003b0: 38c0 c13c e919 663d ff71 b4bd 95a1 f1ba
000003c0: 099a 9ebd ac1a 053c 0a8a 14bd 285f 8a3c
000003d0: 4269 d7bc 1381 43bd 7532 113a 1809 383d
000003e0: 1b4d ff3d 725a a23d f96f 0f3e c2e4 96bd
000003f0: b6d6 e8bc 0eca 04be 2cd6 f0bc 3f61 5f3d
0.09804814 -0.0105176745 0.09390501 -0.0011267759 0.09067549 0.14264262 0.10270322 0.0447331
-0.059056845 0.073914565 -0.03977651 0.12725738 0.059073362 -0.09406029 0.113534175 -0.13401595
0.06125273 -0.059480146 -0.019350544 -0.085038885 -0.059666265 -0.09156119 0.075450554 0.1429732
0.11067486 0.035472564 0.081175886 0.019798253 -0.008129115 -0.023084717 0.11684726 -0.14732794
-0.066562064 0.13383271 0.07160102 0.09130296 -0.007533955 0.121510856 -0.11499831 -0.030371381
0.07085154 -0.089551896 0.121465206 0.12676084 0.0008087493 0.09580581 0.001887832 -0.104181446
0.08068423 -0.03341782 0.11581469 0.0640745 0.029133147 -0.01679419 -0.024033409 -0.015000742
0.11124175 0.033504054 0.032307614 -0.06925738 0.06408724 0.06852311 0.11919865 0.071595386
-0.0978094 -0.07424655 0.12826121 -0.09071399 0.006996379 0.13705193 0.11735284 0.06290695
-0.0109209865 0.09338262 -0.011257497 0.023409963 0.15500535 -0.052887436 0.070366755 -0.017634338
0.06055105 -0.053687215 -0.106514916 -0.09286165 0.028983068 0.024192708 -0.04456729 0.1159158
-0.06729202 -0.018994803 -0.1127888 0.053495288 0.19429447 -0.1128331 -0.0035070947 0.01458967
-0.01640179 -0.0044324547 -0.053718694 0.060426027 0.073209874 -0.05107422 -0.13133116 -0.13039333
0.08887537 -0.02684659 -0.11349237 -0.08518007 0.03639756 0.08305343 -0.01591452 0.07562143
0.08109101 -0.030113485 0.12638935 -0.084882714 -0.098452926 -0.034541488 0.116538554 0.11590363
-0.011058721 0.13025682 -0.109622225 -0.052192494 0.06681255 0.028457617 0.017891243 -0.066770956
0.1040293 0.070776455 -0.043038223 -0.044461448 0.0046751397 0.124872416 0.10922779 0.1307426
-0.040523674 -0.07972376 0.0870449 0.009002371 0.2116136 0.13477948 0.101840466 -0.10645917
0.02166081 0.08660525 -0.055622153 -0.022312166 -0.049700297 0.08936281 0.016860677 -0.055330895
0.030437322 -0.019821566 -0.08529383 0.08102069 0.107466884 0.03142592 0.010247541 -0.16907132
-0.059161063 0.13681118 0.071928 0.0319131 -0.06573699 0.029540522 0.03615347 0.0022232197
-0.09621421 -0.13246575 0.113401905 -0.03257218 0.03458215 -0.06162895 0.06653118 0.019947559
0.07704348 0.007626907 -0.11023727 0.056746393 -0.058673177 -0.093415394 0.030647391 -0.054722115
0.05223838 0.048545547 -0.011220518 -0.09324655 -0.11768371 0.03857535 0.025607815 -0.025624651
0.065055676 -0.087439984 0.037375424 -0.038729616 0.09466495 -0.11793951 0.118069924 -0.033979177
-0.078020304 0.042341508 0.008243285 0.07950874 -0.19935635 0.10245949 -0.026312506 0.28341416
-0.106998965 -0.099809684 -0.065673076 0.12250855 0.10520689 0.04165286 0.09980012 -0.085070595
-0.00861952 0.087589614 -0.059886035 -0.053337067 0.03120411 0.12428504 -0.12412086 0.10841711
-0.16128525 -0.11955041 -0.12263031 0.02872108 -0.102443375 -0.049087055 0.073166996 -0.02738197
0.1381972 -0.052561637 0.056334924 0.017314635 0.023651227 0.056177054 -0.088108055 -0.0018434996
-0.077442236 0.008124035 -0.036264457 0.016891077 -0.026295308 -0.047730517 0.000553883 0.044930547
0.124658786 0.07927407 0.14007558 -0.07367851 -0.028422695 -0.12967703 -0.029399 0.0545361

fc2.bias f4 [64]
00000000: 6f98 5abd 3d6e acbc 8915 acbc f347 1dbe
00000010: 8e10 253d f98a 95bd 5458 793d 6f8f c83c
00000020: 5cf0 bcbd 3f0d 8abd a167 99be 6637 a1bc
00000030: 556e 413d 082d da3d e4d8 54bd 5316 553e
00000040: 8835 03be 3000 163e 9145 f03c c879 e13c
00000050: 0ffb 97bd 03c9 913d b44b 9b3c d2b4 7cbd
00000060: 95bd 263e fc8f 9bbd ab66 a03b 870c 3cbd
00000070: 7059 363e 6508 af3c f891 27bd d175 aebd
00000080: 3754 643d 5d13 cfbd 275b 543d 504e 10be
00000090: 4425 213e 29f7 3b3d 3268 56be 9dee 81bd
000000a0: 2bab a93d 2790 833d ebc1 3abd 7e9f 1ebd
000000b0: 02f7 7bbd 3e9d e0bd b499 2ebe 9ad0 063e
000000c0: cf8d 6abd 414a 423d 8bc9 3a3d 4042 5fbb
000000d0: 0e32 9cba 332a 6dbd 7a9b aa3d e862 973c
000000e0: ffa3 323e 5e5c 2dbe 599e 90bd 4323 86bc
000000f0: 4990 f2bc 418e 09be 6d01 e6bd 2ac9 b53a
-0.05336803 -0.02104866 -0.021006363 -0.15359478 0.04029899 -0.073018976 0.060875252 0.024482457
-0.092255324 -0.06740808 -0.29961875 -0.019679736 0.04722436 0.1065312 -0.051964656 0.20809297
-0.1281339 0.14648509 0.029330047 0.02752389 -0.074209325 0.07118418 0.018956997 -0.06169588
0.16283257 -0.07595822 0.0048950515 -0.045910385 0.17807555 0.021366308 -0.04091069 -0.085185654
0.055744376 -0.10111115 0.051844742 -0.14092374 0.15736872 0.045890007 -0.20938185 -0.0634434
0.08284601 0.06423979 -0.04559509 -0.038726322 -0.061514862 -0.109674916 -0.1705082 0.13165513
-0.057264145 0.047434095 0.045602363 -0.0034066588 -0.0011916773 -0.057901572 0.08330436 0.01847978
0.17445372 -0.16929767 -0.070614524 -0.016374236 -0.029609816 -0.13433172 -0.11230741 0.0013869156

fc3.weight f4 [1, 64]
00000000: 02cf 473e 725a 953e d329 9c3e 9924 cebe
00000010: f235 b0bd 3691 d7be 1072 8e3c 7691 c23e
00000020: 3ecd 93bd badd 223d 9d58 69bf 0881 d33c
00000030: e347 aa3d 32ce 3a3c 08bc 473e 5ea4 0d3f
00000040: c23d 0bbf b80a 943e 9f02 be3d 091e 6bbd
00000050: c290 eabc ba2a 203e 3277 e3bd 0beb 45be
00000060: b459 153f 42e1 ea3d 8b82 02bf 4e71 6b3e
00000070: 0bf1 863e a3f7 843d fc06 eabd 7ae4 103e
00000080: 81eb ad3c 4813 dfbe da20 2d3e 1c3f 20bf
00000090: 4b6a 3d3f 0d9d 553e 3cff eebe ee74 163e
000000a0: 7838 f63e 2128 e4bd 6619 d9bc 9859 a6be
000000b0: a4b7 a2bd 2cf8 503d 22e6 59be f668 fb3e
000000c0: cc3c 13be 0502 abbd e247 413e 985f 4f3d
000000d0: 964d 36bd 5c53 b3be 9f3c c73d 203e 82bc
000000e0: 1ab2 c63e 6b11 9cbe 7792 c5bc aa8c d8be
000000f0: 269e 32be 8b71 51be 48fb f33d ab2f 59be
0.19512561 0.29170567 0.3050066 -0.40262297 -0.08604039 -0.42102975 0.017388374 0.38001603
-0.07216881 0.039762236 -0.9115084 0.025818363 0.083144926 0.0114017 0.19505322 0.5532893
-0.5439111 0.28914428 0.09277844 -0.05740169 -0.028633479 0.15641299 -0.11106719 -0.19327943
0.5834 0.11468746 -0.5098044 0.22992441 0.26355776 0.064925455 -0.114271134 0.14149657
0.021230461 -0.43569398 0.16907063 -0.625963 0.73990315 0.20860691 -0.46679103 0.14693043
0.48089957 -0.111404665 -0.026501369 -0.3249023 -0.07945183 0.051017925 -0.21279195 0.49103516
-0.14378661 -0.083499946 0.18875077 0.050628275 -0.044507585 -0.35024536 0.097283594 -0.015898764
0.38807756 -0.3048204 -0.024117691 -0.42294818 -0.17443141 -0.2045347 0.119131625 -0.2120959
