model3simple.pt (torch, 21882 bytes, 5 tensors)

fc1.weight f4 [64, 8]
-0.1836242 0.29411468 0.07974282 0.070437826 -0.043184314 -0.8727957 0.2878152 -0.084989876
-0.12269125 0.10772646 0.47165442 -0.3905506 0.053009037 -0.35851023 -0.17330496 0.1230345
-0.3375596 0.15799548 0.26160082 -0.34217745 0.04319201 0.5323267 0.00625196 0.3399019
0.24972206 0.13143207 -0.056581713 0.086367756 -0.0937639 0.30375317 0.18421641 0.14809975
0.18145764 0.39687666 0.06252575 0.44785866 0.05345989 -0.5255769 -0.17775081 -0.04962481
-0.08625058 -0.25818497 0.056748226 0.2800436 0.027835522 0.8166292 0.17009334 0.099327035
-0.048751425 0.105261385 0.23443863 -0.19284378 0.011658014 -0.3842674 -0.018265853 0.124203786
-0.30497646 -0.19004895 0.018006852 -0.031145139 -0.19869748 0.3489455 0.1332408 0.1288558
0.07480102 -0.1399248 0.14811331 0.19485481 0.23276949 0.014847057 -0.19010097 -0.11072278
0.20316413 0.077390045 -0.30197707 0.055626422 -0.04485932 -0.15907358 -0.2536265 -0.19987413
-0.11109227 0.35147658 0.23549154 -0.076444216 -0.07074987 -0.18406059 0.0015176372 0.009052962
0.26556033 -0.08250184 -0.36210337 0.38656124 -0.26657358 -0.4379035 -0.07459735 0.051353205
-0.0031378965 0.21730292 -0.031454 -0.0965812 0.12996721 -0.2411031 -0.25098136 0.19940074
0.22365412 -0.09377332 0.0658345 -0.20959352 0.053364057 1.0592042 0.036990274 0.17932786
-0.3301698 0.27327576 0.2897044 0.36292973 -0.17935306 0.04233459 -0.05562189 -0.28425828
-0.4717566 -0.3990454 0.053104427 0.39731443 -0.15149473 -0.20717433 -0.059388928 0.13921829
-0.2648444 -0.079241194 -0.12749879 -0.26235428 -0.0709589 0.18305752 0.3182769 -0.15036562
-0.26397422 -0.094465844 0.029632129 -0.3285122 -0.27230692 -0.029102966 -0.1756054 -0.16295485
0.39218676 -0.15060411 -0.22260511 0.19256903 0.10868409 -0.29644376 0.11879965 -0.031746756
-0.07169167 -0.21581216 -0.05227585 0.29400948 -0.045335602 0.25422558 -0.11911581 -0.061806936
0.08181344 0.3406992 0.15952937 0.040280916 -0.1596467 0.049648557 0.048463434 -0.012216717
-0.08578418 0.08759802 0.0857581 -0.3467797 -0.20587946 0.025818883 -0.2967722 -0.20312762
-0.61693746 0.3788576 0.40103024 0.1695763 0.018283153 -0.18334013 0.022855384 -0.0500046
0.03337657 0.20749159 0.060243275 0.44293296 -0.09792527 -0.30535996 -0.12416248 -0.14770897
-0.018831043 0.27957353 0.14214115 0.12865008 0.25006238 0.05499687 -0.30847812 0.13041073
0.11913073 0.04800576 -0.039444506 -0.27455565 -0.065604806 0.17481962 -0.2514624 -0.28026196
0.11795827 -0.09875991 0.17958975 -0.2194312 0.23635031 0.14324063 -0.27720413 -0.088912345
0.30744442 0.34032091 -0.060403626 -0.26248565 0.11035156 0.5925784 0.15152256 0.021021573
-0.34551167 -0.29662445 0.08468277 0.1893318 0.05315782 -0.31587633 -0.11845255 -0.30645463
0.16003498 0.34086862 0.312792 -0.16465878 0.0055087507 -0.15678596 0.07902967 -0.036534496
-0.06304676 0.296564 0.1860834 -0.28218812 -0.09863473 -0.23542887 0.26218176 0.023987815
-0.013558485 0.23134816 0.08105793 0.21731456 -0.1338523 0.8867512 0.06774512 -0.081754744
00000000: fb07 3cbe 3396 963e 3450 a33d b541 903d
00000010: 09e2 30bd 8a6f 5fbf 845c 933e 2c0f aebd
00000020: 8d45 fbbd b19f dc3d b07c f13e 40f6 c7be
00000030: 0120 593d a78e b7be db76 31be 83f9 fb3d
00000040: 9dd4 acbe 91c9 213e 8bf0 853e e231 afbe
00000050: 1bea 303d 9046 083f 3edd cc3b 9f07 ae3e
00000060: 24b7 7f3e 2196 063e 3ac2 67bd 94e1 b03d
00000070: 4a07 c0bd 8985 9b3e 3aa3 3c3e 76a7 173e
00000080: 08d0 393e 6b33 cb3e 800d 803d bb4d e53e
00000090: c2f8 5a3d 358c 06bf 4f04 36be 6343 4bbd
000000a0: 25a4 b0bd d230 84be d470 683d e061 8f3e
000000b0: 5207 e43c 9c0e 513f f32c 2e3e f96b cb3d
000000c0: 93af 47bd 4893 d73d ae10 703e d778 45be
000000d0: 4101 3f3c b2be c4be 45a2 95bc 8e5e fe3d
000000e0: e025 9cbe 319c 42be 1b83 933c 1724 ffbc
000000f0: 5a77 4bbe fca8 b23e 4770 083e c6f2 033e
00000100: 4731 993d 7248 0fbe 04ab 173e 0588 473e
00000110: 205b 6e3e 1241 733c d4a9 42be a0c2 e2bd
00000120: 420a 503e ac7e 9e3d bd9c 9abe 88d8 633d
00000130: 68be 37bd 2fe4 22be 55db 81be ceab 4cbe
00000140: 5884 e3bd bdf4 b33e b224 713e c98e 9cbd
00000150: 4fe5 90bd 617a 3cbe 74eb c63a e052 143c
00000160: 86f7 873e baf6 a8bd 9d65 b9be 5beb c53e
00000170: 557c 88be e334 e0be 7fc6 98bd bd57 523d
00000180: 2ba5 4dbb a884 5e3e e9d5 00bd 5dcc c5bd
00000190: 2016 053e bbe3 76be a180 80be b52f 4c3e
000001a0: 9605 653e 3a0c c0bd 3dd4 863d af9f 56be
000001b0: 4594 5a3d 0194 873f 1d83 173d b9a1 373e
000001c0: 040c a9be cdea 8b3e 2354 943e edd1 b93e
000001d0: 54a8 37be 0967 2d3d c7d3 63bd 4d8a 91be
000001e0: 158a f1be ae4f ccbe 0784 593d cc6c cb3e
000001f0: 6f21 1bbe 8225 54be ce41 73bd 3d8f 0e3e
00000200: af99 87be 3549 a2bd 0b8f 02be 4d53 86be
00000210: e652 91bd 6e73 3b3e 31f5 a23e 72f9 19be
00000220: a127 87be 4f77 c1bd 14bf f23c c032 a8be
00000230: d06b 8bbe 5869 eebc e7d1 33be a3dd 26be
00000240: b4cc c83e f737 1abe 98f2 63be d130 453e
00000250: c495 de3d 7ac7 97be 3b4d f33d e308 02bd
00000260: 15d3 92bd ddfd 5cbe 341f 56bd 6988 963e
00000270: d3b1 39bd db29 823e fdf2 f3bd 4529 7dbd
00000280: ce8d a73d 2070 ae3e ab5b 233e 9afd 243d
00000290: 6d7a 23be 495c 4b3d 9881 463d a028 48bc
000002a0: 9eaf afbd 9766 b33d f1a1 af3d 1c8d b1be
000002b0: 11d2 52be 1f82 d33c 87f2 97be b000 50be
000002c0: 9def 1dbf a0f9 c13e d653 cd3e 69a5 2d3e
000002d0: 8dc6 953c 84bd 3bbe 373b bb3c a0d1 4cbd
000002e0: dfb5 083d ad78 543e a7c1 763d 1cc8 e23e
000002f0: 0b8d c8bd 2458 9cbe e648 febd 0541 17be
00000300: 8f43 9abc 4324 8f3e 738d 113e d9bc 033e
00000310: 2d08 803e 6644 613d d8f0 9dbe 648a 053e
00000320: d0fa f33d b0a1 443d 9090 21bd 8f92 8cbe
00000330: d05b 86bd ea03 333e aebf 80be 7f7e 8fbe
00000340: 1b94 f13d a342 cabd 60e6 373e 93b2 60be
00000350: d105 723e acad 123e b3ed 8dbe ad17 b6bd
00000360: 5b69 9d3e 8b3e ae3e cb69 77bd 8564 86be
00000370: 0000 e23d 38b3 173f bb28 1b3e 6f35 ac3c
00000380: e8e6 b0be 29df 97be 296e ad3d 32e0 413e
00000390: 04bc 593d 8bba a1be 4097 f2bd 9fe7 9cbe
000003a0: 36e0 233e 5586 ae3e 4626 a03e 509c 28be
000003b0: c082 b43b 808c 20be 4fda a13d 32a5 15bd
000003c0: a91e 81bd 3dd7 973e a68c 3e3e f67a 90be
000003d0: 0101 cabd 4414 71be b03c 863e 1882 c43c
000003e0: 6824 5ebc 88e6 6c3e b301 a63d b587 5e3e
000003f0: 9410 09be 2002 633f f4bd 8a3d 086f a7bd

fc1.bias f4 [64]
0.8999704 0.53787184 -0.51032937 -0.28845492 0.6127592 -0.641505 0.49318692 -0.03863128
0.22967203 -0.13088973 -0.039754443 -0.38721216 0.009879178 -0.7057893 -0.19653644 -0.13246827
0.17689858 0.3430289 0.70027757 0.26956445 0.29025027 -0.26351708 0.20505662 -0.2887462
0.11849769 -0.28793788 -0.3121244 0.0043215696 -0.185733 0.20755595 0.2799495 -0.56261635
-0.07245299 0.013752565 0.3169597 0.35887286 -0.17087464 0.3825993 -0.110092625 0.20240048
0.15179054 0.34610516 -0.34677625 -0.015583372 0.19067788 -0.33283168 -0.45602748 0.7277886
0.014829634 0.32227325 0.022194298 0.057826713 0.44302866 -0.15801717 0.23979503 0.049474567
-0.7453612 -0.18435413 0.028338933 0.15544319 -0.38232458 -0.22282878 0.32065675 -0.38635018
00000000: 7664 663f f8b1 093f f2a4 02bf 5db0 93be
00000010: c9dd 1c3f ac39 24bf ff82 fc3e d53b 1ebd
00000020: 252f 6b3e f507 06be 8ed5 22bd ac40 c6be
00000030: 47dc 213c 9cae 34bf d940 49be c3a5 07be
00000040: e724 353e 7ca1 af3e 6445 333f 5a04 8a3e
00000050: af9b 943e b6eb 86be 5dfa 513e 8bd6 93be
00000060: ebae f23d 986c 93be c5ce 9fbe f49b 8d3b
00000070: cb30 3ebe 8c89 543e 8a55 8f3e a007 10bf
00000080: 3c62 94bd 7052 613c 8b48 a23e 2fbe b73e
00000090: c3f9 2ebe 0ee4 c33e 3e78 e1bd 1242 4f3e
000000a0: fb6e 1b3e b234 b13e a88c b1be 6651 7fbc
000000b0: 1041 433e ea68 aabe 6f7c e9be 5b50 3a3f
000000c0: fef7 723c 0001 a53e d1d0 b53c b4db 6c3d
000000d0: a7d4 e23e 41cf 21be d48c 753e d8a5 4a3d
000000e0: fecf 3ebf 54c7 3cbe 0d27 e83c 802c 1f3e
000000f0: 0cc0 c3be 3a2d 64be 1f2d a43e b1cf c5be

fc2.weight f4 [64, 64]
-0.002842627 0.10180509 0.015014353 0.08744069 -0.01392103 -0.054871947 -0.05885002 -0.04196892
0.11550522 -0.07123749 -0.10682738 0.052883886 0.046083555 -0.033719577 -0.11957356 -0.09700935
0.1162364 -0.004377355 -0.040539052 -0.0014446913 0.08588976 -0.012741969 0.083051145 0.0559925
-0.11685124 -0.04765384 0.08647313 0.08964135 -0.012890279 -0.012214799 0.021872992 -0.07797541
-0.051234722 0.016997691 0.069001265 -0.009972838 -0.06711898 -0.09994707 -0.018262997 -0.086342916
-0.11439441 -0.10250697 0.04541014 -0.10872401 0.009783973 -0.052371677 -0.10325355 0.077698424
-0.067139834 0.04616175 0.066372834 0.047474675 -0.06513051 0.054107394 0.107754044 -0.10266577
0.03276546 -0.051697504 0.09899887 0.005322697 0.0716664 0.040432982 0.030995833 0.10484661
-0.092502475 -0.027122684 0.11061051 -0.08138085 -0.050480366 0.06301051 0.10316331 0.09986635
-0.060365383 0.08392502 -0.06557165 0.0424229 0.04915318 0.0017781835 0.026808435 -0.073235445
0.042224895 0.112554856 -0.051635507 0.046180397 0.013028341 -0.046043772 0.09898487 0.044643745
-0.03073329 0.06793289 -0.07086965 -0.10790632 0.04617983 -0.020752646 0.06830062 -0.08546783
0.109378755 0.04271117 -0.10357507 0.057430673 0.116542086 0.11146481 0.030732244 -0.10254395
-0.08550728 -0.106416985 -0.03190548 0.12322712 -0.02996398 -0.054588035 0.10408052 -0.014403636
0.1147243 0.08224827 -0.07733573 -0.09592307 0.05964854 0.00028673233 -0.07032892 0.019010557
-0.018866625 -0.011062262 -0.03902686 -0.068881884 -0.12455492 -0.0715005 0.010655774 -0.068262935
0.107949495 -0.04194214 -0.11358045 0.031616017 0.044517547 -0.019194327 0.008785512 -0.00042666987
0.103617184 -0.006253049 0.1008214 -0.057636194 0.008363102 -0.03675134 -0.085954614 0.113762446
-0.016832644 -0.050839365 -0.06791301 -0.04752414 -0.004640506 -0.0014399947 -0.04985763 0.029708477
-0.038600903 0.11095835 -0.06404912 -0.092829496 -0.0018519867 0.09568573 -0.05001179 0.027128387
0.10195005 -0.08437904 -0.07166374 -0.0151048675 0.0076940306 0.06466173 -0.057901546 -0.011486459
-0.050542988 0.123381235 0.021983294 -0.02254306 -0.09028419 -0.009869471 0.03394305 0.09242029
0.08589875 0.032512575 0.04321477 -0.051364332 0.08857054 -0.0045553255 -0.0559645 -0.049155407
-0.066891074 -0.09863833 -0.07399562 0.028416198 0.092881866 -0.043797426 0.09473648 -0.038678132
-0.17698194 -0.041669887 -0.07102054 0.1241928 0.00990013 0.009529619 -0.09326046 0.09264037
0.059540022 -0.10478328 0.049678005 0.04677625 0.021684578 0.18392402 -0.10005449 -0.14902762
0.102479585 0.10966481 -0.16907445 -0.005469972 -0.014310851 -0.09585343 -0.14142756 0.08018354
0.040456213 -0.12402189 0.09453154 -0.026370589 0.049531594 0.053855836 -0.1586653 0.10837449
-0.07383187 0.04836755 0.0056013814 0.033626992 0.11760888 0.006958081 0.10016349 0.045701347
-0.12056963 0.053445414 0.011035769 -0.068868004 -0.018983386 0.018628726 0.015199334 -0.13087511
-0.07532395 0.0056780144 0.029628638 -0.023353914 -0.015500385 -0.04516691 -0.097826935 0.0328026
0.105202824 0.045524176 -0.11084817 -0.17751959 0.056754317 0.057054292 -0.08627295 -0.00024518766
00000000: 5e4b 3abb 307f d03d c3fe 753c 1b14 b33d
00000010: 0815 64bc 68c1 60bd b80c 71bd 9ae7 2bbd
00000020: 008e ec3d f6e4 91bd 50c8 dabd c69c 583d
00000030: 1cc2 3c3d 8a1d 0abd fce2 f4bd d7ac c6bd
00000040: 5a0d ee3d ea6f 8fbb 470c 26bd cc5b bdba
00000050: f8e6 af3d b1c3 50bc b816 aa3d 6458 653d
00000060: b44f efbd ac30 43bd d318 b13d e295 b73d
00000070: c031 53bc 9520 48bc fd2e b33c 92b1 9fbd
00000080: 80db 51bd be3e 8b3c 8950 8d3d 1d65 23bc
00000090: ad75 89bd 0db1 ccbd 489c 95bc 8ed4 b0bd
000000a0: 9e47 eabd 2def d1bd fcff 393d b2aa debd
000000b0: f54c 203c af83 56bd 9976 d3bd 5a20 9f3d
000000c0: 9c80 89bd 1a14 3d3d 7bee 873d ce74 423d
000000d0: 2563 85bd b79f 5d3d 27ae dc3d 6e42 d2bd
000000e0: 1335 063d c3c0 53bd ebbf ca3d 056a ae3b
000000f0: d5c5 923d 0e9d 253d f9ea fd3c d2b9 d63d
00000100: f071 bdbd 6430 debc c387 e23d 01ab a6bd
00000110: 80c4 4ebd a70b 813d 4947 d33d bb86 cc3d
00000120: b141 77bd e2e0 ab3d 6e4a 86bd a3c3 2d3d
00000130: d854 493d f011 e93a 5d9d db3c 77fc 95bd
00000140: 03f4 2c3d 2983 e63d c17f 53bd a827 3d3d
00000150: d374 553c 6598 3cbd 94b8 ca3d 5cdc 363d
00000160: 61c4 fbbc 6620 8b3d 1b24 91bd fdfd dcbd
00000170: 1027 3d3d 7401 aabc 32e1 8b3d c209 afbd
00000180: f801 e03d e8f1 2e3d 2b1f d4bd 6d3c 6b3d
00000190: 9ead ee3d aa47 e43d 30c2 fb3c 9002 d2bd
000001a0: 711e afbd 26f1 d9bd 52af 02bd 805e fc3d
000001b0: 0577 f5bc b497 5fbd 2b28 d53d 3afd 6bbc
000001c0: 93f4 ea3d c871 a83d 3262 9ebd 5173 c4bd
000001d0: 0752 743d 9054 9639 9c08 90bd 07bc 9b3c
000001e0: 2e8e 9abc 7d3e 35bc a1da 1fbd f211 8dbd
000001f0: a616 ffbd db6e 92bd 8e95 2e3c 70cd 8bbd
00000200: a014 dd3d 85cb 2bbd de9c e8bd cc7f 013d
00000210: 0858 363d 6c3d 9dbc 1cf1 0f3c a9b2 dfb9
00000220: 3f35 d43d 60e6 ccbb 737b ce3d ee13 6cbd
00000230: 6405 093c 9388 16bd f908 b0bd 49fc e83d
00000240: 9de4 89bc f03c 50bd fa15 8bbd aca8 42bd
00000250: 630f 98bb 34be bcba 8437 4cbd 315f f33c
00000260: fb1b 1ebd 223e e33d 2f2c 83bd 641d bebd
00000270: 5dbe f2ba e1f6 c33d 2ad9 4cbd 5a3c de3c
00000280: 30cb d03d ebce acbd 70c4 92bd 687a 77bc
00000290: 351e fc3b 5e6d 843d 2c2a 6dbd b331 3cbc
000002a0: 2a06 4fbd 4daf fc3d 4f16 b43c 39ac b8bc
000002b0: ebe6 b8bd 90b3 21bc de07 0b3d d946 bd3d
000002c0: afeb af3d e82b 053d f801 313d 6863 52bd
000002d0: 7964 b53d d744 95bb 083b 65bd 2e57 49bd
000002e0: 30fe 88bd e502 cabd 048b 97bd 16c9 e83c
000002f0: d938 be3d ee64 33bd 3305 c23d f66c 1ebd
00000300: c13a 35be 0bae 2abd 3873 91bd cb58 fe3d
00000310: 2834 223c 1e22 1c3c 57ff bebd 3cba bd3d
00000320: 3de0 733d 9e98 d6bd 2a7b 4b3d 7498 3f3d
00000330: dba3 b13c 9456 3c3e 5ee9 ccbd b29a 18be
00000340: d1e0 d13d f297 e03d da21 2dbe 733d b3bb
00000350: 0f78 6abc ce4e c4bd 63d2 10be 4537 a43d
00000360: 6ab5 253d 30ff fdbd c199 c13d 2207 d8bc
00000370: a4e1 4a3d f097 5c3d 2879 22be 72f3 dd3d
00000380: 2a35 97bd 0d1d 463d cb8b b73b 75bc 093d
00000390: eddc f03d 9d00 e43b 8422 cd3d 5631 3b3d
000003a0: 36ed f6bd 94e9 5a3d 5fcf 343c ab0a 8dbd
000003b0: 0c83 9bbc 459b 983c a106 793c 2004 06be
000003c0: 7143 9abd a30e ba3b c2b7 f23c b550 bfbc
000003d0: 54f5 7dbc f000 39bd 7d59 c8bd 055c 063d
000003e0: 9474 d73d 8f77 3a3d 5e04 e3bd b2c7 35be
000003f0: 3777 683d c3b1 693d dfaf b0bd 888c 80b9

fc2.bias f4 [64]
0.060689032 -0.0420414 0.0045683715 -0.008034165 0.14348656 0.22426853 -0.035812385 -0.07038939
-0.08940845 -0.11088508 0.04476625 0.19129498 -0.07396758 0.045529634 -0.11187272 0.051523216
-0.13781321 0.117129505 -0.32202655 0.13466257 -0.410194 -0.09259308 -0.14880893 -0.035766605
0.030261055 -0.027444353 -0.078836 0.09706894 0.04133162 0.12693222 -0.117118314 -0.24386135
-0.136515 -0.07426842 0.17503278 -0.3139984 -0.17997383 -0.06330567 0.18772928 -0.09167827
0.043303896 -0.041388504 0.0926442 0.20211114 -0.08804909 -0.15628004 -0.012430371 0.19817725
0.31041905 -0.28641737 -0.111864574 -0.108283676 0.16095144 -0.009426857 -0.06332847 0.16630426
-0.04441544 -0.1293188 0.20231928 -0.079137444 -0.0046908464 -0.06359619 -0.15763867 0.1385812
00000000: 1095 783d 9a33 2cbd 47b2 953b bba1 03bc
00000010: 24ee 123e a6a6 653e 02b0 12bd 5028 90bd
00000020: c71b b7bd b817 e3bd d15c 373d d5e2 433e
00000030: 517c 97bd 487d 3a3d 861d e5bd 020a 533d
00000040: e81e 0dbe 98e1 ef3d aae0 a4be fce4 093e
00000050: f304 d2be 71a1 bdbd 5e61 18be 0180 12bd
00000060: 08e6 f73c fbd2 e0bc c574 a1bd 15cc c63d
00000070: 584b 293d 85fa 013e badb efbd cab6 79be
00000080: 97ca 0bbe 0b1a 98bd cb3b 333e 66c4 a0be
00000090: 0f4b 38be 67a6 81bd 1b3c 403e d1c1 bbbd
000000a0: 6d5f 313d fe86 29bd 3ebc bd3d 39f6 4e3e
000000b0: 1553 b4bd e007 20be c1a8 4bbc faee 4a3e
000000c0: 3fef 9e3e 4ca5 92be 4119 e5bd d5c3 ddbd
000000d0: 74d0 243e 1b73 1abc 5bb2 81bd aa4b 2a3e
000000e0: f7ec 35bd 266c 04be c92c 4f3e d012 a2bd
000000f0: acb5 99bb b83e 82bd 086c 21be 3be8 0d3e

fc3.weight f4 [1, 64]
-0.0032816995 0.004684256 0.03319219 -0.29728955 0.26461405 0.3510858 -0.12404315 0.046803806
0.19622843 -0.05966864 -0.0973432 0.48012292 0.043758906 -0.16097385 -0.11284746 0.33628777
-0.2416783 0.12138258 -1.0359185 0.18389541 -0.79607475 -0.18803966 -0.25745955 0.021656238
0.4152756 -0.019995565 0.18592593 -0.12589277 0.0109341 0.33565834 -0.06828323 -0.44345415
-0.39523554 0.07002198 0.6239086 -0.5250738 -0.5609324 0.13257802 0.30686936 0.07658906
0.022658957 0.16856845 0.07740618 0.41112888 -0.11877585 -0.21440908 0.007113147 0.5017965
0.9901546 -0.47944742 -0.0719431 0.05476981 0.55801713 0.5160316 0.58165604 0.23968774
-0.06408668 -0.5878906 0.36981064 -0.07723133 -0.093841255 -0.17453861 -0.22642107 0.056064073
00000000: c811 57bb 637e 993b 89f4 073d 5636 98be
00000010: 7e7b 873e 85c1 b33e 560a febd 59b5 3f3d
00000020: 1bf0 483e 1b67 74bd df5b c7bd acd2 f53e
00000030: 8a3c 333d 54d6 24be 921c e7bd e92d ac3e
00000040: 847a 77be 6e97 f83d fa98 84bf 144f 3c3e
00000050: 8ecb 4bbf 788d 40be bdd1 83be 6c68 b13c
00000060: 019f d43e bdcd a3bc 5e63 3e3e 09ea 00be
00000070: f024 333c 69db ab3e 14d8 8bbd 6c0c e3be
00000080: 505c cabe af67 8f3d 79b8 1f3f 3d6b 06bf
00000090: 4499 0fbf 88c2 073e fb1d 9d3e bada 9c3d
000000a0: 479f b93c 359d 2c3e 2287 9e3d 7c7f d23e
000000b0: c140 f3bd 0e8e 5bbe 6715 e93b bc75 003f
000000c0: c67a 7d3f 227a f5be e756 93bd 4f56 603d
000000d0: 36da 0e3f a61a 043f 69e7 143f b470 753e
000000e0: e13f 83bd 0080 16bf d257 bd3e 762b 9ebd
000000f0: d82f c0bd 40ba 32be edda 67be 71a3 653d
