model_bs_trained.pt (torch, 139500 bytes, 7 tensors)

fc1.weight f4 [128, 6]
1.0126665 -0.501149 0.027756147 -1.1094965 -0.40930393 -0.20584579 3.2666621 -0.70194393
-0.18067251 -0.8861627 -0.106433436 -0.1564863 0.50858474 -1.3210548 -0.744151 -0.40898544
-0.49301708 0.8660593 -0.10189862 -0.09023659 0.015804555 0.0009908865 -0.15920167 -0.055582955
-0.35981646 -0.026693566 0.06492095 -0.49828732 -0.07824093 -0.48497435 -0.21088503 -0.19988404
-0.4198811 0.08759897 -0.10407975 0.06117246 -0.5647837 -0.37578517 -0.26543698 0.1481534
0.045577362 -0.34101057 -0.9581464 0.30413866 -0.049547333 -0.14484827 -0.049847633 -0.51732516
-0.10624373 -0.3633697 -0.41581914 -0.08380469 -0.54738116 0.04153711 -0.23341724 -0.19007811
-0.41141993 0.045245007 -0.24590223 0.06322489 -0.394801 -0.012698786 -0.0499877 -0.11607079
0.042222947 -0.2795803 -0.5735419 -0.42047513 -0.54423434 -0.30459496 -0.27161062 0.04693912
-0.65103024 0.6098782 -0.5927147 0.20695548 0.06506242 -0.47737494 -0.13181707 -0.2394362
-0.023059975 -0.14728038 -0.25036666 -0.10978307 4.83302 -0.094891 0.26469293 -1.3391644
0.092082925 0.5092568 -0.59350353 0.08410738 -0.24346164 -0.58738214 -0.094366826 -0.028302217
-0.63922143 -0.09763974 -0.42188352 -0.15565139 -0.014073013 0.048677523 1.2245655 -0.43925622
-0.6660386 -0.8017424 -0.36323395 -0.03184179 -0.096257135 -0.5536244 -0.07902518 -0.15600571
-0.006931644 -0.34183067 0.6495717 -0.7869054 0.018400911 -0.7920593 -0.13868916 -0.38540164
2.6619797 -1.3321489 -0.23088098 0.86883086 -0.050250262 -0.6706354 0.19168347 -0.019220263
-0.28623134 0.4011758 -0.37158436 -0.29063594 -0.020581774 -0.35023236 -0.19577836 -0.05138935
-0.00020634857 -0.24746446 0.052051593 0.3030346 -0.5289574 -0.22237813 0.015812395 -0.04857666
0.107161276 -0.0025915324 -0.5266964 0.093666136 -0.2836172 -0.6770567 1.0409784 0.5325251
-0.8278834 -0.94273514 -0.74433094 -0.19205771 -0.41958755 0.10592688 -0.14695083 0.25402957
-0.3209942 -0.45092615 -0.045970052 0.04859671 -0.07316601 0.29733324 -0.38688135 -0.34991765
4.7958426 0.004707718 0.110102475 -1.2223023 0.08261956 0.31345776 -0.20084114 -0.41536012
-0.078873985 -0.12765422 0.04140762 -0.33465073 -0.7941492 0.52832323 -0.30475354 0.600555
-0.3258896 -0.9107481 -0.833495 -0.46780434 -0.6346686 -0.3868314 -0.4839722 0.04167167
2.9066079 -1.3433628 0.008219582 0.3201572 -0.543764 -0.1794165 0.21808904 0.0566535
-0.053299516 -0.25654683 -0.05515197 -0.11455169 0.23888552 -0.10198489 -0.06639287 0.2432248
-0.34542838 -0.18199551 -0.15220203 -0.08762903 -0.02639742 -0.22056648 -0.3920079 -0.13300507
-1.3052515 0.6517519 -0.25935894 0.44953197 -0.005231216 -0.67943555 0.6629726 -1.4211736
0.28925815 -0.6040343 -1.417118 -1.8201582 -0.051028054 -0.40629855 -0.10005747 0.20322457
0.025424039 -0.39057714 1.6237983 -0.079759955 -0.7006377 -0.06846048 -0.56675404 -7.954215e-06
-0.42860729 -0.37764364 -0.2364418 0.25093552 -0.22452581 -0.078467704 -0.14531872 -0.38558543
-0.4196372 -0.390059 0.06898551 -0.375322 -0.15356953 -0.15843996 0.027442032 -0.5141664
00000000: 0e9f 813f 4d4b 00bf dc60 e33c fb03 8ebf
00000010: 4990 d1be 3dc9 52be fe10 5140 99b2 33bf
00000020: 3702 39be 8fdb 62bf c6f9 d9bd f23d 20be
00000030: 9c32 023f 5318 a9bf ae80 3ebf 8a66 d1be
00000040: bc6c fcbe 10b6 5d3f 39b0 d0bd f6cd b8bd
00000050: 8e78 813c a2e0 813a c305 23be f4aa 63bd
00000060: dd39 b8be 77ac dabc 46f5 843d 841f ffbe
00000070: c83c a0bd 8f4e f8be 3ff2 57be 67ae 4cbe
00000080: a8fa d6be 1767 b33d c427 d5bd f98f 7a3d
00000090: aa95 10bf ea66 c0be 5be7 87be 86b5 173e
000000a0: 54af 3a3d f098 aebe 1549 75bf 10b8 9b3e
000000b0: 25f2 4abd 1b53 14be 082d 4cbd 6c6f 04bf
000000c0: 5096 d9bd 980b babe 3fe6 d4be cba1 abbd
000000d0: 2c21 0cbf d122 2a3d ee04 6fbe d6a3 42be
000000e0: a2a5 d2be d452 393d cbcd 7bbe 0d7c 813d
000000f0: 5b23 cabe 920e 50bc e7bf 4cbd 86b6 edbd
00000100: f8f1 2c3d 2625 8fbe a4d3 12bf 8448 d7be
00000110: f152 0bbf dff3 9bbe 8c10 8bbe 3c43 403d
00000120: eba9 26bf fa20 1c3f 27bc 17bf 23ec 533e
00000130: 723f 853d 7d6a f4be 0efb 06be c32e 75be
00000140: 46e8 bcbc abd0 16be 0f30 80be f2d5 e0bd
00000150: 1aa8 9a40 3656 c2bd d585 873e bd69 abbf
00000160: f995 bc3d a75e 023f d9ef 17bf 7d40 ac3d
00000170: 024e 79be ad5e 16bf 6543 c1bd 0dda e7bc
00000180: 04a4 23bf 58f7 c7bd 1e01 d8be 1463 1fbe
00000190: 7f92 66bc 1562 473d 90be 9c3f 31e6 e0be
000001a0: 8181 2abf fd3e 4dbf cdf9 b9be 896c 02bd
000001b0: 7622 c5bd 54ba 0dbf f4d7 a1bd f6bf 1fbe
000001c0: d822 e3bb 6e04 afbe 554a 263f a272 49bf
000001d0: 82bd 963c 66c4 4abf 8804 0ebe 5d53 c5be
000001e0: e05d 2a40 db83 aabf 106c 6cbe b36b 5e3f
000001f0: 38d3 4dbd c3ae 2bbf ac48 443e d073 9dbc
00000200: ea8c 92be ea66 cd3e 4e40 bebe 3cce 94be
00000210: 1c9b a8bc a851 b3be 1f7a 48be a47d 52bd
00000220: 465f 58b9 5367 7dbe 0d34 553d 5a27 9b3e
00000230: c169 07bf 18b7 63be ff88 813c 52f8 46bd
00000240: 5f77 db3d b3d6 29bb 93d5 06bf 08d4 bf3d
00000250: 4636 91be 9753 2dbf c83e 853f 9153 083f
00000260: 2bf0 53bf 1757 71bf 798c 3ebf c7aa 44be
00000270: 2ed4 d6be 31f0 d83d 477a 16be 2a10 823e
00000280: 5a59 a4be cbdf e6be 184b 3cbd 580d 473d
00000290: 10d8 95bd 103c 983e 5015 c6be 6828 b3be
000002a0: 8b77 9940 3343 9a3b 687d e13d 6774 9cbf
000002b0: 7234 a93d 897d a03e 4da9 4dbe 15aa d4be
000002c0: af88 a1bd cab7 02be 099b 293d 5757 abbe
000002d0: 5d4d 4bbf 3140 073f a808 9cbe f9bd 193f
000002e0: 00db a6be ca26 69bf ee5f 55bf 0d84 efbe
000002f0: a479 22bf c40e c6be 34cb f7be eaaf 2a3d
00000300: dd05 3a40 50f3 abbf 6dab 063c a5eb a33e
00000310: 1e34 0bbf f5b8 37be bc52 5f3e 800d 683d
00000320: 9850 5abd 1b5a 83be 08e7 61bd 149a eabd
00000330: 689e 743e 74dd d0bd fcf8 87bd ec0f 793e
00000340: fddb b0be 085d 3abe d9da 1bbe d976 b3bd
00000350: 673f d8bc 2edc 61be 42b5 c8be 7b32 08be
00000360: 7b12 a7bf 36d9 263f b2ca 84be 0e29 e63e
00000370: 9f6a abbb 7def 2dbf 93b8 293f 04e9 b5bf
00000380: a519 943e fea1 1abf 1f64 b5bf f2fa e8bf
00000390: cb02 51bd 5d06 d0be eeea ccbd 1a1a 503e
000003a0: 1346 d03c baf9 c7be 9fd8 cf3f 3059 a3bd
000003b0: fe5c 33bf 0235 8cbd cb16 11bf 1873 05b7
000003c0: 6a72 dbbe 825a c1be cd1d 72be 9f7a 803e
000003d0: 18ea 65be adb3 a0bd 6ece 14be 746b c5be
000003e0: b0da d6be d0b5 c7be 4648 8d3d 352a c0be
000003f0: 5541 1dbe 163e 22be 1dce e03c 69a0 03bf

fc1.bias f4 [128]
-0.5926619 -0.38410166 -2.6235857 -0.07617845 -0.35073772 -0.5051803 -0.07043353 -0.5284425
-0.5958478 -0.27489522 0.14333053 -0.31540912 -0.4738139 -0.732035 0.15426539 -0.19556515
-0.11573217 -1.1145493 -0.27684397 -0.22829887 -1.3398461 -0.008580327 0.037830956 -0.5921692
0.040207684 -0.6256308 0.070618585 0.14524657 0.2779664 -0.47098967 -0.1772597 -0.5558405
-2.402875 -0.07959151 0.2518701 -0.23893909 -0.058381613 0.62651426 0.13088764 -0.6101234
0.32230476 0.06449619 -0.47721037 0.38972998 -0.6388346 -2.203276 -0.17550212 -0.4892715
-0.3654171 -0.65645266 0.21136189 -0.52862936 0.031063285 -0.38800514 0.12499889 -0.2662243
-0.5343791 -0.39757842 -0.11957441 0.28993285 0.024433613 0.0029332638 -0.15810236 -0.2703326
-3.7989132 -0.1950969 0.0888592 -0.3458585 -1.6622037 0.9716337 0.2252864 -0.3806645
-0.61734384 -0.0338708 0.129172 -0.23797853 0.25209504 -0.31402433 -0.26714244 -0.32107198
-0.24296296 -2.8927917 0.058743685 -0.33616558 0.33447844 -0.1616836 -0.5129472 -0.48879123
-0.2859536 -0.35522684 -0.54140264 -0.5064611 -0.27195892 0.20714897 -0.25177383 0.0035553775
-1.6641995 -0.5435777 -0.3102271 -0.20393117 -1.2061374 0.087940425 -0.14339003 -0.47480175
-0.6169679 -0.11855689 -0.6946803 -0.101636134 -1.0051521 -0.50002027 0.3221966 -0.7648303
-0.3776603 -0.37696013 -1.6159176 -0.5019508 -0.6285566 -0.32393673 0.094291486 -0.22945666
-0.41405043 -0.1882447 -0.4388032 -0.20059861 -0.33591786 0.105031855 0.50646293 -0.36585465
00000000: b1b8 17bf f9a8 c4be d4e8 27c0 7203 9cbd
00000010: e593 b3be 7f53 01bf 743f 90bd 0248 07bf
00000020: 7b89 18bf 11bf 8cbe 3dc5 123e 4e7d a1be
00000030: bc97 f2be a566 3bbf bff7 1d3e 3b42 48be
00000040: fd04 edbd 8da9 8ebf 7ebe 8dbe 2ec7 69be
00000050: 1480 abbf 8094 0cbc a2f4 1a3d 6798 17bf
00000060: d0b0 243d 5729 20bf 7aa0 903d 84bb 143e
00000070: 9d51 8e3e 8f25 f1be 9183 35be 904b 0ebf
00000080: b4c8 19c0 e000 a3bd 1ef5 803e 73ac 74be
00000090: 8f21 6fbd 3d63 203f 6907 063e 0c31 1cbf
000000a0: 2105 a53e 9416 843d eb54 f4be b08a c73e
000000b0: aa8a 23bf 7902 0dc0 d4b6 33be cb81 fabe
000000c0: f317 bbbe 480d 28bf 406f 583e 4154 07bf
000000d0: 6e78 fe3c 9ca8 c6be 6bff ff3d 8d4e 88be
000000e0: 12cd 08bf 668f cbbe 6ee3 f4bd 1472 943e
000000f0: 0029 c83c 003c 403b 96e5 21be 0969 8abe
00000100: 6521 73c0 7bc7 47be d0fb b53d 5e14 b1be
00000110: 17c3 d4bf fcbc 783f 7ab1 663e 75e6 c2be
00000120: 3f0a 1ebf 1cbc 0abd aa45 043e a5b0 73be
00000130: 9a12 813e ccc7 a0be e5c6 88be 8c63 a4be
00000140: 48cb 78be 8023 39c0 389d 703d e51d acbe
00000150: c240 ab3e 6390 25be 8250 03bf d842 fabe
00000160: 8368 92be 4be0 b5be 5d99 0abf 6fa7 01bf
00000170: 333e 8bbe dc1e 543e 80e8 80be 5601 693b
00000180: 7d04 d5bf e827 0bbf 16d6 9ebe 55d3 50be
00000190: b662 9abf 1c1a b43d d6d4 12be 3719 f3be
000001a0: 9cf1 1dbf f4cd f2bd 91d6 31bf 9b26 d0bd
000001b0: d3a8 80bf 5401 00bf f4f6 a43e ebcb 43bf
000001c0: b15c c1be eb00 c1be 63d6 cebf d97f 00bf
000001d0: 16e9 20bf 09db a5be e51b c13d b0f6 6abe
000001e0: 6bfe d3be 38c3 40be d0aa e0be b969 4dbe
000001f0: 6dfd abbe f11a d73d 8ea7 013f 4d51 bbbe

fc2.weight f4 [128, 128]
-0.46114835 -0.45980924 0.038862668 -0.021545488 -0.11274699 -0.036639087 -0.029147726 -0.15047824
-0.041335933 -0.057973284 -0.048636172 -0.03355243 0.06902384 -0.014488817 -0.22726415 0.29156765
0.23418178 -0.5326542 -0.10992398 0.0511773 -0.5482488 -0.019656807 -0.025327444 -0.08554698
-0.015156731 0.07776544 -0.14112 -0.048938487 -0.5527459 0.0046321824 -0.13075393 0.0021659136
-0.2225388 -0.067742154 -0.026226383 0.06948347 -0.15607615 -0.04396891 0.05008378 -0.39331323
0.025274307 -0.07169646 -0.09022774 0.050856166 -0.058467012 -0.24374649 -0.0520031 -0.039340165
0.08432085 0.006473828 0.021432266 0.0399838 0.021569587 -0.08050423 -0.22079046 -0.03901264
0.01050254 -0.034783605 0.0005456656 0.04472702 0.008959085 0.07580898 -0.07532356 -0.113753684
-0.083634906 0.020981953 -0.1040084 0.00040056556 -0.31151313 -0.3621321 0.05965022 -0.17000069
-0.05038567 0.038752906 -0.21806023 -0.1245125 -0.043725923 -0.035201594 -0.10306975 -0.08552554
-0.069658384 -0.33246398 0.05797524 -0.0594749 0.046272196 -0.08258265 -0.02280099 -0.5109851
-0.15291996 -0.07625301 0.010388308 0.0034732595 -0.09317713 -0.020402603 0.065337084 -0.42161828
0.011017837 0.06993773 0.00090530515 -0.0073687932 0.35253978 0.012502231 0.010107659 0.028060474
-0.042570055 -0.027448282 -0.06148059 -0.05952791 -0.44615212 -0.065171845 0.023647249 -0.12337001
-0.4300762 0.011101962 -0.35780957 0.022489242 -0.023198659 -0.029195843 -0.07704905 -0.12499559
-0.012851626 -0.0062890127 -0.06289998 0.05632203 -0.07729107 -0.050979488 -0.39132962 0.07196798
-0.07521044 -0.39119884 -0.1375819 0.055064045 -0.22848603 -0.016237192 -0.043099344 -0.37214464
-0.01583518 -0.06822266 -0.056668796 -0.116907574 -0.038763627 -0.16858165 -0.3193112 -0.13404132
-0.056739993 -0.26235452 0.01494849 -0.066645145 0.008429188 0.037814103 -0.01955494 -0.09797773
-0.03616761 0.12417391 0.07582746 0.017879061 -0.26477593 -0.017728977 -0.2522906 -0.07782595
-0.09625823 0.04934036 -0.069778085 -0.042619787 -0.23132484 0.0055684596 -0.043287553 -0.2853437
-0.07786067 -0.0037566945 -0.043937277 -0.06678226 -0.0773652 -0.23086195 -0.002067104 -0.17435208
-0.1045662 -0.3069617 0.034372844 -0.03958277 0.016831515 0.085927 -0.3251541 -0.07774115
0.081480265 0.018199429 -0.06485622 -0.0772187 -0.048011288 -0.06897733 -0.03158123 -0.13767509
0.182563 -0.004069753 0.056913275 0.079645775 -0.11255648 -0.4884008 -0.0798747 -0.049863778
-0.12425177 -0.03205409 -0.21792746 -0.09049667 -0.08642936 -0.047818244 -0.2853413 -0.00084875524
-0.03751695 -0.042293813 0.06322742 0.04943516 0.055607967 -0.04098596 -0.078334175 -0.09657274
-0.270762 0.048006825 0.0555109 -0.037444577 -0.034433268 0.05521045 0.023664981 -0.28041527
-0.03338764 -0.07725981 -0.011731356 0.12443876 -0.17173338 0.018953301 0.044487648 -0.065465905
-0.14462854 -0.116870545 -0.023775373 -0.033726323 -0.19394873 -0.2948213 0.05295012 0.0796927
-0.112511225 -0.17506546 -0.1423342 -0.03283651 -0.2797008 0.08217562 -0.15474321 0.01746554
-0.031565215 -0.039554004 -0.097777806 0.037499674 -0.07177819 -0.07011655 -0.2650939 -0.051588047
00000000: a31b ecbe 1e6c ebbe 762e 1f3d 2a80 b0bc
00000010: e5e7 e6bd de12 16bd 36c7 eebc f816 1abe
00000020: de4f 29bd 6575 6dbd b936 47bd 466e 09bd
00000030: 5f5c 8d3d 8162 6dbc efb7 68be 5b48 953e
00000040: 59cd 6f3e 075c 08bf d31f e1bd 4a9f 513d
00000050: 095a 0cbf 5007 a1bc 807b cfbc 4133 afbd
00000060: f053 78bc 7d43 9f3d c381 10be b973 48bd
00000070: c180 0dbf 90c9 973b 5ce4 05be 00f2 0d3b
00000080: 36e1 63be 66bc 8abd b6d8 d6bc 594d 8e3d
00000090: 6dd2 1fbe be18 34bd a624 4d3d 5a60 c9be
000000a0: 100c cf3c 98d5 92bd 52c9 b8bd 8e4e 503d
000000b0: 1b7b 6fbd ae98 79be 3401 55bd 2723 21bd
000000c0: 69b0 ac3d 6822 d43b b892 af3c 0ec6 233d
000000d0: b4b2 b03c 67df a4bd e516 62be b8cb 1fbd
000000e0: d812 2c3c 4179 0ebd 000b 0f3a ae33 373d
000000f0: 20c9 123c bd41 9b3d 3d43 9abd b1f7 e8bd
00000100: c748 abbd 58e2 ab3c 5b02 d5bd 0003 d239
00000110: a67e 9fbe 6169 b9be ca53 743d a914 2ebe
00000120: 3461 4ebd 5ebb 1e3d 2e4b 5fbe 6900 ffbd
00000130: f419 33bd 8c2f 10bd 3c16 d3bd 0428 afbd
00000140: 0ea9 8ebd b838 aabe 7277 6d3d f49b 73bd
00000150: ea87 3d3d 1821 a9bd 24c9 babc ebcf 02bf
00000160: 0d97 1cbe 8a2a 9cbd b933 2a3c a09f 633b
00000170: a7d3 bebd 5c23 a7bc 73cf 853d 5ade d7be
00000180: 2884 343c 833b 8f3d 0052 6d3a eb75 f1bb
00000190: 1880 b43e 28d6 4c3c 989a 253c 14df e53c
000001a0: f05d 2ebd 38db e0bc 12d3 7bbd 8ad3 73bd
000001b0: 0d6e e4be d178 85bd e0b7 c13c 6aa9 fcbd
000001c0: f332 dcbe 01e5 353c d132 b7be 5c3b b83c
000001d0: 1d0b bebc 1f2c efbc e4cb 9dbd b0fd ffbd
000001e0: a08f 52bc 1014 cebb b4d1 80bd eeb1 663d
000001f0: c84a 9ebd decf 50bd 5b5c c8be f363 933d
00000200: ee07 9abd 374b c8be 45e2 0cbe d68a 613d
00000210: 3ef8 69be dc03 85bc f088 30bd be89 bebe
00000220: c8b8 81bc 52b8 8bbd 8a1d 68bd 3d6d efbd
00000230: 9cc6 1ebd aba0 2cbe c27c a3be 2142 09be
00000240: 3268 68bd 5553 86be 83ea 743c 407d 88bd
00000250: 941a 0a3c f6e2 1a3d ae31 a0bc 8ca8 c8bd
00000260: 7d24 14bd e44e fe3d 6d4b 9b3d 1c77 923c
00000270: b690 87be 5c3c 91bc 3c2c 81be 3663 9fbd
00000280: 0923 c5bd 1e19 4a3d d0e7 8ebd 1692 2ebd
00000290: 6be0 6cbe a077 b63b 4a4e 31bd 9218 92be
000002a0: 6a75 9fbd e032 76bb 93f7 33bd 23c5 88bd
000002b0: a571 9ebd 1367 6cbe 4078 07bb 5a89 32be
000002c0: ce26 d6bd 152a 9dbe 8aca 0c3d 8b21 22bd
000002d0: 3fe2 893c 7ffa af3d 997a a6be c136 9fbd
000002e0: 20df a63d f816 953c 56d3 84bd d624 9ebd
000002f0: 7ca7 44bd fd43 8dbd 525b 01bd b3fa 0cbe
00000300: ccf1 3a3e 905b 85bb e51d 693d 531d a33d
00000310: 0384 e6bd ab0f fabe 5995 a3bd f63d 4cbd
00000320: b677 febd 264b 03bd 6028 5fbe 5156 b9bd
00000330: e001 b1bd 10dd 43bd 4118 92be 007f 5eba
00000340: 60ab 19bd 473c 2dbd 617d 813d 867c 4a3d
00000350: 2ec5 633d e5e0 27bd ab6d a0bd eec7 c5bd
00000360: 51a1 8abe cea2 443d 665f 633d 7c5f 19bd
00000370: e609 0dbd 5a24 623d 10dd c13c 9792 8fbe
00000380: 7ac1 08bd 643a 9ebd e034 40bc c0d9 fe3d
00000390: e0da 2fbe f443 9b3c ae38 363d fd12 86bd
000003a0: 8119 14be d359 efbd 92c4 c2bc 9d24 0abd
000003b0: 7f9a 46be d1f2 96be 3ae2 583d ed35 a33d
000003c0: 496c e6bd 5c44 33be 0ec0 11be 947f 06bd
000003d0: f134 8fbe b14b a83d 0175 1ebe e413 8f3c
000003e0: 874a 01bd 6103 22bd bb3f c8bd 4299 193d
000003f0: 7200 93bd 4499 8fbd 63ba 87be fd4d 53bd

fc2.bias f4 [128]
-0.16670929 -0.42803547 -0.53740686 -0.1504243 -0.6932395 -0.32421494 -0.50735414 -0.18055287
-0.047365077 -0.4574994 0.40531754 -0.46043554 -0.16606385 -0.48923486 -0.31209314 -0.6758725
-0.13648814 -0.37771848 -0.10967684 -0.2671972 -1.9263153 -0.4273806 -0.36847016 -0.098090336
-0.090024605 -0.0620289 -0.282582 -0.118934855 -0.683579 -0.5304742 -0.090370454 -0.060287107
-0.20524874 -0.13485454 -0.32961142 -0.25623047 -0.7287817 -0.029774735 -0.34287745 -0.41568348
-0.33162397 -0.11845885 -0.7692949 -0.007299201 -0.13473281 -0.4578927 -0.09711661 -0.27853376
-0.30771255 -0.2697318 -0.40328813 -0.17959145 -1.3339741 -0.79270875 -0.031092163 -0.40129405
-0.04273867 -0.06251886 -0.1330664 -0.46784702 -0.15280876 -0.050224733 -0.15790617 -0.08038224
-0.10821236 -0.13443835 -0.5041515 -0.16597866 -0.02460818 -0.0074282815 -0.1443368 -0.363663
-0.6789033 -0.32608846 1.041871 -0.37822264 -0.58251375 -0.6099394 -0.10622175 0.00031568742
-0.21883178 -0.38909608 -0.16696784 -0.162441 -0.121327855 -0.41328984 -0.24052212 -0.29723316
-0.2057141 -0.37882534 -0.16904967 -0.40222162 -0.25669113 -0.22089072 -0.255316 -0.62723756
-0.4086511 -0.64411753 -0.21583986 -0.45572436 -0.120578185 -0.0072333002 0.8645723 -0.28560734
-0.3231522 -0.34506527 -0.27243763 -0.47205392 -0.30759186 -0.23649368 -0.23135455 -0.12196198
-0.15556696 -0.12552746 -0.30234104 -0.4134289 -0.4531103 -0.062332477 -0.0959822 -0.19585639
-0.39075634 -0.04132476 -0.14377278 -0.75320977 -0.24019141 -0.44644266 -0.31511965 -0.19766991
00000000: d7b5 2abe 7727 dbbe 7f93 09bf d408 1abe
00000010: 2578 31bf 80ff a5be f6e1 01bf dae2 38be
00000020: e201 42bd 5d3d eabe c885 cf3e 35be ebbe
00000030: a40c 2abe fe7c fabe acca 9fbe fb05 2dbf
00000040: 8cc3 0bbe 5164 c1be 409e e0bd 12ce 88be
00000050: 8091 f6bf a1d1 dabe 1fa8 bcbe 96e3 c8bd
00000060: d25e b8bd 0412 7ebd 97ae 90be 1e94 f3bd
00000070: 09ff 2ebf 28cd 07bf 2514 b9bd 9def 76bd
00000080: ba2c 52be 4f17 0abe d4c2 a8be a430 83be
00000090: 7091 3abf 25ea f3bc a28d afbe 77d4 d4be
000000a0: 9eca a9be 8e9a f2bd 83f0 44bf 232e efbb
000000b0: 66f7 09be e970 eabe 13e5 c6bd fa9b 8ebe
000000c0: 808c 9dbe 491a 8abe c87b cebe d2e6 37be
000000d0: aabf aabf f6ee 4abf feb4 febc 6a76 cdbe
000000e0: be0e 2fbd e309 80bd 8f42 08be a589 efbe
000000f0: e679 1cbe 73b8 4dbd 28b2 21be 729f a4bd
00000100: 719e ddbd 35aa 09be 1310 01bf 4ff6 29be
00000110: 1897 c9bc f168 f3bb 07cd 13be 0932 babe
00000120: 9bcc 2dbf 11f5 a6be 075c 853f 66a6 c1be
00000130: 9f1f 15bf fd24 1cbf ca8a d9bd d982 a539
00000140: 7015 60be 9a37 c7be 9ef9 2abe ef56 26be
00000150: bd7a f8bd ba9a d3be 6e4b 76be f22e 98be
00000160: b8a6 52be 65f5 c1be 5b1b 2dbe feef cdbe
00000170: 056d 83be 2d31 62be c7b8 82be a492 20bf
00000180: b83a d1be e3e4 24bf 2005 5dbe b454 e9be
00000190: b2f1 f6bd 5205 edbb 9c54 5d3f 203b 92be
000001a0: 3574 a5be 65ac b0be f27c 8bbe 0db1 f1be
000001b0: ae7c 9dbe 662b 72be 35e8 6cbe 34c7 f9bd
000001c0: f24c 1fbe 458a 00be 72cc 9abe f4ac d3be
000001d0: 13fe e7be 5750 7fbd 5192 c4bd 948e 48be
000001e0: 3711 c8be 2744 29bd 2c39 13be 5bd2 40bf
000001f0: bdf4 75be 2294 e4be 5d57 a1be fb69 4abe

fc3.weight f4 [128, 128]
-0.015831545 0.14403982 -0.06165368 -0.31917438 -0.08032299 0.004666681 0.07552324 -0.27611738
-0.00037774444 -0.03187178 0.77354085 0.08104361 -0.205657 0.34800592 -0.057540208 -0.2537921
0.30186483 0.2947255 -0.079165235 -0.26629415 0.2872939 0.12957309 -0.20709398 -0.07648432
-0.23599853 0.06450314 0.35039815 0.0002643466 -0.10399751 0.2842029 -0.32382634 -0.05083547
0.12807845 -0.01330778 -0.23650378 -0.11436728 -0.17874806 -0.054552972 0.49538243 -0.13028428
0.07032517 0.00679639 -0.40765128 -0.06567319 0.0051900204 -0.071211524 0.00839293 -0.09052792
0.082068115 0.10680774 -0.01553511 -0.076256245 -0.022519868 0.022025479 -0.30246958 -0.22496061
-0.041925628 0.049829952 0.07164457 0.020054225 -0.11730517 -0.08198882 0.10421085 -0.0800126
0.026965983 0.020842297 -0.027136246 0.26528338 0.012219749 0.18330868 0.0871456 0.25326577
0.05881055 0.23131548 0.7582113 -0.115026176 -0.29675674 0.06540796 0.017766833 -0.27282876
-0.16415058 -0.3169524 -0.21064818 -0.056174003 -0.0034616785 0.21574058 -0.0596599 0.16695392
-0.116881125 0.2403887 0.07884064 -0.010390046 0.2137772 -0.01268847 -0.2045381 0.32185882
-0.046837214 0.16126987 -1.1388079 0.032200012 0.06363123 -0.1858528 -0.0048357905 0.25394994
0.11288516 0.009617397 0.13110614 0.013697602 0.07249161 -0.54647285 0.119995266 0.25311106
0.23715979 0.0668279 -0.0458173 0.15244964 -0.23389482 0.05651217 -0.08819581 0.13387038
0.038676478 -0.24468201 0.03123159 -0.31653044 0.52934456 -0.2593537 0.10301015 -0.22660919
0.062160067 -0.1830191 -0.12552327 -0.13953464 0.06318606 -0.05932451 0.06443053 -0.01817032
-0.012003273 -0.06271703 0.45496488 -0.03320085 -0.10833153 -0.4047032 -0.047872573 -0.036087006
0.08666856 -0.196164 -0.15064257 -0.05833858 -0.31382647 -0.1426007 0.046871856 -0.04665021
0.030365067 0.059110887 0.0812483 0.0808051 1.3992913 -0.08920239 -0.0435852 -0.115495525
-0.021928223 0.15899108 -0.10639248 0.024373114 -0.0190838 -0.12476127 0.03460467 -0.07809345
-0.12539689 0.09928282 0.26786655 -0.101055786 0.03754898 -0.25653288 0.008680979 -0.024052352
-0.018933646 -0.04826208 0.04907499 -0.039067484 0.0006789615 0.35410148 0.0020938194 -0.14068215
-0.079295225 -0.035571128 0.07580536 0.015992878 -0.008489702 0.084649615 -0.004082346 -0.038308367
-0.04840664 0.033474166 0.029548084 -0.12922662 -0.035316046 -0.028366078 -0.10314151 0.12884909
-0.079309635 -0.061080713 1.4758593 -0.0655172 -0.029749239 -0.07100561 0.017507097 0.45062
-0.028318867 -0.056252643 -0.057960704 -0.067255855 0.006725164 -0.12226125 -0.07088944 -0.054823443
0.054151036 -0.0024749923 -0.09528239 -0.014857425 -0.29659894 -0.13278139 -0.053336956 -0.08697287
0.04015532 0.46006963 0.12058346 -0.00070489704 0.04170375 0.036760747 0.22960351 0.01012156
0.085884385 0.01491488 -0.14055355 -0.10932217 0.04199463 -0.018958723 -0.05661888 0.011185632
-0.124317914 -0.01146386 -0.10752007 -0.1424972 -0.062034838 0.11282392 -0.032907557 -0.07510973
-0.07892189 -0.12350323 -0.044520423 1.1648932 0.30315694 -0.07833974 -0.12130583 -0.081626505
00000000: 28b1 81bc 2d7f 133e 9288 7cbd d36a a3be
00000010: 6180 a4bd f5ea 983b eeab 9a3d 425f 8dbe
00000020: 000c c6b9 fc8b 02bd c606 463f 31fa a53d
00000030: c097 52be d52d b23e 48af 6bbd 0af1 81be
00000040: 078e 9a3e 43e6 963e 6221 a2bd b557 88be
00000050: 3018 933e cfae 043e 7210 54be d0a3 9cbd
00000060: 99a9 71be 391a 843d 6367 b33e 0098 8a39
00000070: a6fc d4bd 0b83 913e 91cc a5be db38 50bd
00000080: ff26 033e e008 5abc 0c2e 72be 6439 eabd
00000090: bb09 37be f072 5fbd c4a2 fd3e 3e69 05be
000000a0: a506 903d 40b4 de3b abb7 d0be aa7f 86bd
000000b0: 0c11 aa3b 59d7 91bd 8082 093c b466 b9bd
000000c0: 5413 a83d 04be da3d f986 7ebc 3c2c 9cbd
000000d0: 967b b8bc c76e b43c 4bdd 9abe 135c 66be
000000e0: 35ba 2bbd 7e1a 4c3d 63ba 923d c248 a43c
000000f0: b13d f0bd c1e9 a7bd 806c d53d a5dd a3bd
00000100: c4e7 dc3c 77bd aa3c d54c debc 39d3 873e
00000110: 5835 483c 45b5 3b3e 6479 b23d 0dac 813e
00000120: 55e3 703d f7dd 6c3e 231a 423f d892 ebbd
00000130: 80f0 97be 9cf4 853d c08b 913c 36b0 8bbe
00000140: 1717 28be 9647 a2be 28b4 57be b616 66bd
00000150: 54dd 62bb 19eb 5c3e f05d 74bd f8f5 2a3e
00000160: 5f5f efbd 7528 763e 3477 a13d 033b 2abc
00000170: 69e8 5a3e 4de3 4fbc 7072 51be aeca a43e
00000180: 61d8 3fbd ee23 253e 75c4 91bf 29e4 033d
00000190: 1751 823d 3250 3ebe 8d75 9ebb ba05 823e
000001a0: 5630 e73d 4992 1d3c b040 063e e86b 603c
000001b0: 7b76 943d a5e5 0bbf 14c0 f53d c697 813e
000001c0: 04da 723e 11dd 883d ecaa 3bbd c21b 1c3e
000001d0: 2082 6fbe 4e79 673d 01a0 b4bd 5115 093e
000001e0: 3a6b 1e3d ec8d 7abe 64d9 ff3c 4710 a2be
000001f0: 2083 073f 02ca 84be fcf6 d23d 3d0c 68be
00000200: 8e9b 7e3d 5c69 3bbe 2c89 00be 2be2 0ebe
00000210: b167 813d 42fe 72bd 27f4 833d ecd9 94bc
00000220: 60a9 44bc c971 80bd 28f1 e83e 9dfd 07bd
00000230: ecdc ddbd 4235 cfbe 0816 44bd f8cf 13bd
00000240: 497f b13d 37df 48be 0c42 1abe 6ff4 6ebd
00000250: ddad a0be eb05 12be b4fc 3f3d 4a14 3fbd
00000260: 29c0 f83c 421e 723d 8265 a63d 257d a53d
00000270: fa1b b33f beaf b6bd 6586 32bd eb88 ecbd
00000280: d1a2 b3bc 8fce 223e 4de4 d9bd 20aa c73c
00000290: a155 9cbc d682 ffbd a0bd 0d3d 75ef 9fbd
000002a0: 0b68 00be cb54 cb3d ce25 893e 56f6 cebd
000002b0: f6cc 193d 4758 83be aa3a 0e3c 7009 c5bc
000002c0: bc1a 9bbc 75ae 45bd db02 493d 3a05 20bd
000002d0: 56fc 313a ca4c b53e 7638 093b fb0e 10be
000002e0: 8965 a2bd 08b3 11bd d73f 9b3d 7f03 833c
000002f0: 6418 0bbc c75c ad3d 33c5 85bb 3ce9 1cbd
00000300: 0a46 46bd 351c 093d d30e f23c fc53 04be
00000310: 8fa7 10bd fa5f e8bc db3b d3bd 04f1 033e
00000320: 176d a2bd c52f 7abd f5e8 bc3f e22d 86bd
00000330: adb4 f3bc 646b 91bd 0b6b 8f3c aab7 e63e
00000340: f8fc e7bc 2c69 66bd 3468 6dbd 70bd 89bd
00000350: c45e dc3b 1b64 fabd 7c2e 91bd 8c8e 60bd
00000360: 7acd 5d3d 7b33 22bb 6a23 c3bd 8f6c 73bc
00000370: d1db 97be d8f7 07be da77 5abd d51e b2bd
00000380: e879 243d 3f8e eb3e 76f4 f63d d7c8 38ba
00000390: 8dd1 2a3d 7092 163d 2f1d 6b3e e6d4 253c
000003a0: 27e4 af3d 8a5d 743c 45ed 0fbe 4de4 dfbd
000003b0: 9002 2c3d 534f 9bbc 33e9 67bd f143 373c
000003c0: 649a febd ead2 3bbc 7c33 dcbd c9ea 11be
000003d0: 3e18 7ebd 3a10 e73d 13ca 06bd 21d3 99bd
000003e0: cda1 a1bd 43ef fcbd 0c5b 36bd 381b 953f
000003f0: 6337 9b3e 9670 a0bd 316f f8bd cc2b a7bd

fc3.bias f4 [128]
-1.0560677 -0.29454708 -0.3487534 -0.5832418 -1.431791 -0.1022283 -0.1382984 -0.45163873
-0.5355179 -0.62525594 -0.41551116 -0.2783685 -0.15660341 -0.65964735 -1.6215507 -0.9225323
-0.6712355 -0.7894177 -0.24336128 -0.35680032 -0.43987438 -0.3536369 -0.38374183 -1.0319811
-0.610902 -0.5768336 2.0290945 -0.56998545 -0.71076584 -0.7433147 -0.5753632 -0.41370314
-0.46065348 -0.9550987 -0.3404155 -0.33522758 -0.90061057 -0.42684162 -0.31234163 -0.5374581
-0.50236505 -0.7265554 -0.32835332 -0.4354508 -0.20021868 -0.38054514 -0.44563955 -0.36749735
-0.20173685 -0.54751146 -0.4810069 -0.08938374 0.30781433 -0.72342914 -0.48385793 -0.4130036
-1.2515786 -0.22524798 -0.46307862 -0.23327947 -0.39648283 -0.29604593 -0.6531575 -0.38750762
-0.43861264 -0.22419122 -0.9572569 -0.2623198 -0.23571423 -0.519306 -1.4996793 -0.53460884
-0.58377665 -0.5558418 -0.33023587 -0.1749755 -0.695594 -0.5420068 -0.33097002 -1.4997901
-0.44729736 -0.29916206 -0.5772333 -0.17202605 -1.1414067 -0.47719383 -0.28343818 -0.3627847
-0.57609683 -0.81381947 -0.44087136 -0.50218534 -0.7047138 -0.5308286 -0.39156494 -0.093102336
-0.46356535 -0.49403608 -1.7630339 -0.42328528 -0.250331 -0.7597321 -0.36862585 -0.79064816
-0.33461657 -0.376938 -0.26345062 -0.71917063 -0.34419248 -0.3859537 -0.24095 -0.15402198
-0.2548701 -1.5270227 -0.6501222 -0.6634042 -0.41570938 -0.010881298 -0.49846643 -0.47965837
-0.36517665 -0.34835315 -0.32559413 -0.4965411 -0.51325786 -0.4341345 -0.47136262 -0.4974882
00000000: 3a2d 87bf e0ce 96be ce8f b2be 564f 15bf
00000010: ed44 b7bf 125d d1bd 199e 0dbe 313d e7be
00000020: b317 09bf c610 20bf e1bd d4be 5186 8ebe
00000030: a55c 20be a6de 28bf f98e cfbf 142b 6cbf
00000040: 17d6 2bbf 4717 4abf b333 79be 88ae b6be
00000050: 3737 e1be e50f b5be cf79 c4be f517 84bf
00000060: 1364 1cbf 5eab 13bf afdc 0140 91ea 11bf
00000070: c0f4 35bf df49 3ebf 014b 13bf e6d0 d3be
00000080: c6da ebbe 5981 74bf f14a aebe f3a2 abbe
00000090: 6a8e 66bf fc8a dabe 3eeb 9fbe db96 09bf
000000a0: ff9a 00bf 89ff 39bf ed1d a8be 68f3 debe
000000b0: 2006 4dbe d0d6 c2be de2a e4be 9d28 bcbe
000000c0: 1b94 4ebe b629 0cbf 8946 f6be d30e b7bd
000000d0: d799 9d3e a732 39bf 3abc f7be 3575 d3be
000000e0: ba33 a0bf 68a7 66be a418 edbe d0e0 6ebe
000000f0: ccff cabe 5593 97be 5435 27bf 6667 c6be
00000100: d691 e0be 6292 65be ca0e 75bf c84e 86be
00000110: 125f 71be 3df1 04bf 7ef5 bfbf 20dc 08bf
00000120: 6372 15bf a64b 0ebf ad14 a9be c72c 33be
00000130: 7312 32bf f5c0 0abf e774 a9be 1ff9 bfbf
00000140: 2904 e5be c52b 99be 90c5 13bf 9927 30be
00000150: 9d19 92bf c052 f4be cf1e 91be ebbe b9be
00000160: 157b 13bf 7956 50bf e4b9 e1be 388f 00bf
00000170: 2068 34bf 62e4 07bf 337b c8be 70ac bebd
00000180: 7058 edbe 4cf2 fcbe 18ab e1bf d9b8 d8be
00000190: 632b 80be ce7d 42bf 87bc bcbe eb67 4abf
000001a0: dd52 abbe 04fe c0be 00e3 86be 911b 38bf
000001b0: ff39 b0be b99b c5be 99bb 76be f0b7 1dbe
000001c0: 557e 82be 7b75 c3bf 696e 26bf dcd4 29bf
000001d0: dcd7 d4be 7947 32bc fe36 ffbe c895 f5be
000001e0: 6ff8 babe 585b b2be 46b4 a6be a33a febe
000001f0: de64 03bf e146 debe 7156 f1be c6b6 febe

fc4.weight f4 [1, 128]
-0.24706185 0.33926326 -0.027946744 0.27431655 -0.03638096 -0.006785224 -0.012553444 -0.3092148
-0.16015795 0.07923924 -0.19052804 0.07254504 -0.025432816 -0.11283028 0.08919787 -0.019678017
-0.013727686 0.1022111 -0.12807126 -0.1892344 -0.18453386 -0.06332941 -0.2359491 -0.13105701
-0.23890333 0.124267936 0.32822758 -0.00671594 0.30526766 -0.08782886 -0.19732206 -0.039802518
-0.04065479 -0.08978477 -0.2721743 0.0088953795 0.1366117 -0.105404995 0.20138326 -0.16479942
0.33985436 -0.13696888 -0.21732606 0.07688705 0.15003502 -0.23236153 -0.29614383 -0.0515568
0.052016523 -0.11275793 -0.03541699 -0.20232385 -0.022798399 -0.15697744 0.06342606 -0.2845975
0.09557543 -0.0061862837 -0.033853285 -0.019980371 -0.018286048 0.04639647 -0.218907 -0.0073715225
-0.16927418 -0.030214723 -0.083810896 0.05362518 -9.5600844e-05 0.22110237 0.120722346 -0.18888079
0.19985096 0.2068485 -0.027598448 -0.12357471 0.16716805 0.08047064 -0.03678187 -0.21659935
-0.020665701 0.279361 0.07167302 -0.05988665 0.3269086 -0.053060297 -0.0018616702 -0.003391091
0.25952154 0.0138251 -0.089084886 -0.054861274 -0.03529527 0.09140423 -0.10355212 0.08040513
0.17165239 -0.010316945 0.037410725 -0.009931527 -0.116298445 -0.13584305 -0.018103702 0.018357111
0.21276447 -0.13862047 -0.056944117 -0.04547857 -0.12842716 -0.31570062 -0.027690336 0.1938045
-0.12070169 -0.13336532 -0.04344616 -0.07379411 -0.21018879 -0.02589944 -0.36429465 -0.06447309
0.07907198 -0.13350114 -0.037714276 -0.2626539 0.1592759 0.002499905 0.08233847 0.11584007
00000000: c8fd 7cbe eab3 ad3e 92f0 e4bc 3873 8c3e
00000010: 3404 15bd 9656 debb f6ac 4dbc 6751 9ebe
00000020: 7200 24be 2f48 a23d c819 43be 7e92 943d
00000030: 7b58 d0bc 9013 e7bd 5fad b63d cb33 a1bc
00000040: 17ea 60bc 0e54 d13d 1d25 03be aac6 41be
00000050: 72f6 3cbe dab2 81bd a49c 71be cf33 06be
00000060: 13a3 74be 3080 fe3d 720d a83e 6311 dcbb
00000070: 0b4c 9c3e 9edf b3bd cb0e 4abe f707 23bd
00000080: a385 26bd 14e1 b7bd 6e5a 8bbe edbd 113c
00000090: f0e3 0b3e 93de d7bd 6a37 4e3e 2ec1 28be
000000a0: 6401 ae3e 9241 0cbe b98a 5ebe f576 9d3d
000000b0: c8a2 193e 2ef0 6dbe 2aa0 97be 392d 53bd
000000c0: 470f 553d a1ed e6bd 6811 11bd fc2d 4fbe
000000d0: b5c3 babc b2be 20be 86e5 813d c3b6 91be
000000e0: 0dbd c33d 4fb6 cabb bea9 0abd e0ad a3bc
000000f0: 9fcc 95bc 3a0a 3e3d 2829 60be d08c f1bb
00000100: 3656 2dbe de84 f7bc 0ca5 abbd 14a6 5b3d
00000110: 507d c8b8 a968 623e 473d f73d f769 41be
00000120: bba5 4c3e 18d0 533e 2416 e2bc bd14 fdbd
00000130: 1a2e 2b3e cacd a43d 96a8 16bd 38cc 5dbe
00000140: 1e4b a9bc 6808 8f3e 4ec9 923d b44b 75bd
00000150: 9060 a73e c155 59bd 4903 f4ba 113d 5ebb
00000160: 02e0 843e ac82 623c 2372 b6bd 37b6 60bd
00000170: c691 10bd 2432 bb3d 2213 d4bd 72ab a43d
00000180: a5c5 2f3e 6708 29bc fd3b 193d d8b7 22bc
00000190: e12d eebd 711a 0bbe 374e 94bc a761 963c
000001a0: eede 593e 86f2 0dbe 3c3e 69bd bd47 3abd
000001b0: 6982 03be 83a3 a1be d8d6 e2bc b074 463e
000001c0: 7332 f7bd eb90 08be 9af4 31bd 5e21 97bd
000001d0: bb3b 57be 102b d4bc d484 babe 780a 84bd
000001e0: 7ef0 a13d 86b4 08be 497a 1abd 927a 86be
000001f0: 3919 233e 72d5 233b 12a1 a83d 8f3d ed3d
