model1simple.pt (torch, 21882 bytes, 5 tensors)

fc1.weight f4 [64, 8]
000000 52 64 9f 3e 24 ec 1a be 04 b6 64 be 2b a3 76 3e
       0.31131226 -0.15129143 -0.22335058 0.24085681
000010 b4 d5 97 be ab ca 06 be 9e 83 be bd 14 6e aa 3e
       -0.2965523 -0.13163249 -0.09302448 0.33287108
000020 00 bf 86 3e 27 6b 08 be 87 cf 03 bc 62 2b 39 3e
       0.26317596 -0.13322125 -0.008045084 0.18082955
000030 32 86 db bd 84 7f b1 be c0 05 79 3e 3e 89 62 3e
       -0.10718955 -0.346676 0.243186 0.22122666
000040 27 09 11 be 0c 61 97 3e 32 1a 48 3e 3b 90 98 bc
       -0.14163648 0.29566228 0.19541243 -0.018623462
000050 2c ce b9 3d 88 16 dd 3e 8f 5e 1b be b4 99 9a 3d
       0.09072527 0.43181252 -0.1517279 0.07548848
000060 73 6d 5f 3e d8 35 4d bc 3d 44 79 3d 22 79 93 be
       0.21819095 -0.012525044 0.060856093 -0.28803355
000070 dc 3c 15 be 36 0c a7 ba 5c 0e 29 be 23 3a 96 3e
       -0.14573997 -0.0012744728 -0.16509384 0.2934123
000080 ef 18 b6 3e 91 f4 1a 3e 77 7a 3b be 7d 6f 33 bd
       0.35565898 0.15132357 -0.18308435 -0.043807495
000090 d0 0f 2c be 7e 4d a7 3d 78 5f ea 3c ad 1f 2a be
       -0.16802907 0.08169077 0.028609976 -0.16613646
0000a0 d6 98 dd bd 36 7f b5 be 36 9b b2 be 0c 97 81 3e
       -0.10820167 -0.35448617 -0.34884042 0.25310552
0000b0 05 48 a0 3e f7 a1 ff be db 27 2e 3e 92 86 16 3e
       0.31304947 -0.49928257 0.17007391 0.14699772
0000c0 57 6c 9f be 4a 87 8b 3e f8 b7 13 bd 87 9d 5e 3e
       -0.31137344 0.27251655 -0.03606412 0.2173978
0000d0 d6 9e 64 be 36 db 16 be 3c 17 7f 3e 86 91 33 bd
       -0.22326216 -0.1473206 0.24911207 -0.043839954
0000e0 2e cb 81 3e 82 ba 9f be e3 f4 62 be 86 58 39 be
       0.25350326 -0.31196982 -0.2216373 -0.18100175
0000f0 69 6a f6 3d 50 b3 05 3e cc 60 9c be 33 5c ac be
       0.12032015 0.13056684 -0.305426 -0.33664092
000100 5c 95 b2 be f4 63 cd 3d 6a 60 8a be 10 21 4b bd
       -0.34879577 0.1002883 -0.27026683 -0.049592078
000110 b0 cb a8 bd a8 b4 38 bd 18 3b d9 bd 91 7d a3 be
       -0.08241975 -0.045094162 -0.10606974 -0.31931737
000120 d0 f7 d8 3d 9e 4c 35 38 f3 19 c9 bd c4 09 f0 3d
       0.105941415 4.3225118e-05 -0.098194025 0.11720613
000130 11 26 cb bd 16 87 a0 be c6 da 18 3d 7e cf 8e bd
       -0.0991937 -0.31353062 0.037318014 -0.0697317
000140 da f6 8c 3e 71 a8 04 3e 70 3f a1 3e 14 cd 4b 3e
       0.27532083 0.1295488 0.3149371 0.1990245
000150 79 97 8b be 8a c3 88 be 8f 6f 2c be c5 6d 5f 3e
       -0.27264002 -0.26711684 -0.16839431 0.21819218
000160 cd 08 f9 bd 78 31 73 3e 69 fd f1 3c da cd 19 3e
       -0.12159882 0.2374934 0.02953978 0.15019932
000170 b5 5c 8b 3e 38 01 a9 3e be f7 32 3e cd 4c 16 be
       0.27219167 0.33008742 0.17477319 -0.14677735
000180 d7 98 61 be c6 59 ac 3c 0c 3f cb bc 2c 40 9d 3e
       -0.2203096 0.021038901 -0.024810337 0.30713022
000190 53 d6 aa be e5 ee 9a 3e 66 c0 f2 3d ef 4d ca 3e
       -0.3336664 0.30260387 0.11853103 0.39512584
0001a0 3a 82 d8 bd 3e 56 99 3e 11 3b e6 bc ca a1 cf 3e
       -0.10571714 0.2994861 -0.028104337 0.40553123
0001b0 b4 97 6b be ad aa da be 4c de 9f 3e 93 d1 1e 3e
       -0.23007089 -0.4270834 0.31224287 0.15509634
0001c0 7c a6 a2 be 7d 14 9f bd ff 91 4b bc 63 2c c2 3c
       -0.31767642 -0.0776758 -0.012424945 0.023702806
0001d0 78 2f 24 be c3 5b 4f 3e 56 0e 46 3e e9 3d 45 3e
       -0.16033733 0.20249848 0.19341406 0.19261898
0001e0 af 6d 19 3e 16 25 23 be 34 c8 8e 3e 9b d8 df 3d
       0.14983247 -0.15932116 0.27887118 0.10929986
0001f0 95 7c 07 bd 2b 2f da 3e a0 04 e3 3d fc 8a 31 bd
       -0.033077795 0.4261411 0.110848665 -0.043345436
000200 bb f6 e8 bd 85 8d 14 be 63 7c 88 bd 77 d2 77 be
       -0.11375185 -0.1450711 -0.0666435 -0.2420138
000210 46 2a 1e be ac a4 4d be c0 96 7d bd 78 d2 12 3e
       -0.15445814 -0.20082349 -0.061911345 0.143381
000220 e6 cd b2 bc ca a7 94 3e 88 2d a7 be 14 b4 67 bd
       -0.021826696 0.29034263 -0.32651925 -0.05656822
000230 99 e0 d8 3d 10 e2 9c 3e 40 de 35 be a4 45 26 be
       0.105897136 0.30641222 -0.17760563 -0.16237503
000240 9a 5d 7c be 81 74 80 be 7f 21 c6 3d 24 4a 75 be
       -0.24645081 -0.25088885 0.096743576 -0.23954064
000250 a6 c9 8e 3e 5d 2a 81 3c 03 24 63 bd 24 8d 4d 3e
       0.2788822 0.01576727 -0.055454265 0.20073372
000260 02 9d 93 be 7b a8 b2 3e b6 81 b2 3e 59 17 3d be
       -0.28830725 0.34894165 0.34864587 -0.18465938
000270 30 93 8c 3e ca d2 4d 3e 5a 42 c4 39 32 34 43 3e
       0.27456045 0.20099941 0.0003743347 0.1906288
000280 93 d7 ab 3e 32 a5 45 3d 39 86 a6 be bd c4 9c 3e
       0.33562908 0.048253246 -0.3252428 0.3061885
000290 df 76 b7 bd 8d 1d 6a 3e ec 28 94 be 24 82 93 be
       -0.0895822 0.22862835 -0.2893747 -0.28810227
0002a0 cd 81 9f be 3f 61 77 be f1 49 20 be 27 08 0e 3e
       -0.31153718 -0.2415819 -0.15653206 0.13870297
0002b0 06 1c 8c 3d a0 cf 12 be 5e 09 ef 3c 40 80 3b 3e
       0.068412825 -0.14337015 0.029179271 0.18310642
0002c0 f2 24 17 3d 7b fe 12 3e 43 f2 7c 3e 20 d1 f1 bc
       0.03690047 0.14354889 0.2470179 -0.029518664
0002d0 09 85 77 3e 07 a3 b6 3e 33 b7 c7 3d 84 af b4 be
       0.24171843 0.35671255 0.09751739 -0.35290158
0002e0 e9 e5 89 3e 29 9c c1 bd 71 ee 3f be 5f 13 a0 be
       0.2693322 -0.09453613 -0.18743302 -0.3126478
0002f0 95 49 95 be 78 2c de bd b1 87 1a 3e 85 be 62 be
       -0.291577 -0.108483255 0.15090825 -0.2214299
000300 b9 72 a5 be a5 b0 34 be fc 24 21 3e bc f5 95 3e
       -0.3231409 -0.1764551 0.15736765 0.29289043
000310 53 3f 09 3e 17 60 06 be d2 f7 93 be f5 f1 f1 3c
       0.13403063 -0.13122593 -0.2890001 0.02953432
000320 8f de 4b 3e 08 fe 22 3e 7c 34 3e bd 36 fc 97 3e
       0.19909118 0.15917218 -0.04643677 0.2968461
000330 19 b2 62 3e b4 88 ac be 71 43 77 3e db f9 af bd
       0.22138251 -0.33698046 0.2414682 -0.08592578
000340 8e 92 74 be 67 b3 12 be 22 a8 b6 be 67 0f 74 3d
       -0.23884031 -0.14326249 -0.3567515 0.059585
000350 54 28 82 be a2 33 81 be 06 02 96 3c 6d 20 4d 3b
       -0.25421393 -0.25234705 0.018311512 0.0031299845
000360 f6 0d 57 bd b9 5b 3e be bd 53 ac 3e 01 d5 a1 be
       -0.05250355 -0.18589677 0.33657637 -0.31607822
000370 30 d4 88 3e 31 92 09 bf 14 58 53 3e 9c 8d 93 3e
       0.26724386 -0.53738695 0.20639068 0.28818977
000380 a8 b7 ab bc f4 5d 18 3e e9 72 5d 3d 6b 63 46 be
       -0.020961598 0.1487959 0.054064665 -0.19373862
000390 49 a6 8d bd 1b 44 c1 3d 39 cb 25 bc 21 a4 f6 3d
       -0.06916482 0.09436818 -0.010119253 0.12043024
0003a0 92 97 a3 3e 3a 65 12 bc e6 a9 bf be 77 9e d7 3e
       0.31951576 -0.008935267 -0.3743431 0.42113087
0003b0 f7 98 8f 3e f2 f9 bb bd 06 cb 77 bd 58 48 bf bd
       0.2804639 -0.09178533 -0.060496353 -0.0933997
0003c0 a2 cf 63 3e 07 b3 97 bd 41 0f 0b 38 a3 7c b5 3d
       0.22247174 -0.07407194 3.315439e-05 0.08861663
0003d0 93 7c 03 3e 4d 2e c3 3d 02 39 cf bd f2 3b 02 be
       0.1284049 0.095303155 -0.10118295 -0.1271818
0003e0 00 25 8f 3e d2 6b ae 3d 44 b6 91 be 4b 8b ed bd
       0.27957916 0.08516659 -0.2845937 -0.11598834
0003f0 16 63 3a 3e cd 55 86 3e 42 3b 6d 3e dc eb e5 bc
       0.18201861 0.26237336 0.23167136 -0.028066568

fc1.bias f4 [64]
000000 03 51 f1 bd e3 b6 e1 3e 50 f4 17 3d d6 ed ce ba
       -0.1178303 0.44084844 0.03709823 -0.0015787433
000010 c8 3f a7 be ae 16 d2 3a 5b cc 7d be e8 6e ae 3e
       -0.3266585 0.0016028488 -0.24784987 0.3406899
000020 de 3e 4e be 1d 1f 2b be a9 35 6f be 4a 82 bd bd
       -0.2014117 -0.16711088 -0.23360313 -0.09253366
000030 e4 15 8a be 95 ea 4d 3d ac 46 1d be 53 61 4f be
       -0.26969826 0.050272543 -0.1535899 -0.2025197
000040 6b 98 97 3d 55 1f 89 bc d8 e5 a6 be 7b b8 78 be
       0.07402118 -0.016738573 -0.32597232 -0.24289124
000050 df 4a 6c 3e 9f a1 44 be 7c c4 11 be b7 71 95 3e
       0.23075436 -0.19202279 -0.14235109 0.2918832
000060 70 f6 b2 3d 57 e4 aa 3d 9c 1d 97 3e d5 86 fc 3e
       0.087384105 0.083443336 0.29514778 0.4932162
000070 ae 97 4d 3e 1d 35 b4 3c 6e 91 97 be 3d c9 cc bd
       0.20077392 0.021997983 -0.29603142 -0.09999321
000080 80 f2 57 3e 6e c9 31 3e f6 62 e1 bd 5f db 92 3e
       0.210886 0.17361996 -0.110052034 0.28682992
000090 b9 78 39 3e de bc 72 3e ec 10 b1 be 29 a6 67 3e
       0.18112458 0.2370486 -0.34583223 0.22621979
0000a0 1a 91 3e 3e d6 62 1b be f0 f8 ab 3e c8 11 ab be
       0.1861004 -0.15174422 0.33588362 -0.33412004
0000b0 56 fc 5d 3d 7c 02 5d 3e 1c 52 01 3e 53 f8 ff be
       0.054195724 0.21582979 0.12628978 -0.49994144
0000c0 61 d9 d4 3d 0c 42 ca 3e 6b 88 27 bd c4 5a 58 3e
       0.10393024 0.39503515 -0.040901583 0.21128374
0000d0 73 bc b7 bc 73 c5 b0 3d 06 19 2f 3d cf 97 d6 be
       -0.022428727 0.086314104 0.042748474 -0.41912696
0000e0 fe 57 4d be b2 f6 da bd ed 81 c7 3e ff 71 4f 3e
       -0.20053098 -0.10691585 0.38966313 0.2025833
0000f0 26 05 55 be 3e a6 83 3e 4a 69 bc be ab 1c 7f 3e
       -0.20802745 0.2571277 -0.3679908 0.2491328

fc2.weight f4 [64, 64]
000000 f1 ef 71 3d 8a 0a dd bc 4b 27 0c 3d 6c a0 96 3c
       0.059066717 -0.026982564 0.03421716 0.018387042
000010 c0 44 a7 bd 92 04 d5 bd 73 62 f8 bc 4c 06 83 bd
       -0.0816741 -0.10401262 -0.030320382 -0.063976854
000020 60 fa 9e 3b 9a 6a 7b 3d e9 b7 6d 3d c5 10 3f bb
       0.0048516244 0.06138096 0.05803672 -0.0029154283
000030 18 43 d2 bc 62 c8 d8 bd 3a 43 e3 3d 00 56 f7 3d
       -0.025666758 -0.10585095 0.11096807 0.1207695
000040 01 33 d5 bd f2 89 35 3d e9 86 dd 3c 01 3b 38 bb
       -0.10410119 0.044321008 0.02704187 -0.002811134
000050 09 e3 db 3d c2 9e cd 3d 83 fd 34 bd 1e ad 6e bd
       0.10736663 0.10040046 -0.04418708 -0.058270566
000060 41 63 8f 3d 51 24 d8 bd 72 c9 08 bd 8a 31 8f bc
       0.07001353 -0.10553802 -0.03339524 -0.017479677
000070 92 20 dd 3d 4b 30 98 3d 0f 61 df 3c a7 61 80 bd
       0.10797228 0.07431086 0.02726796 -0.06268626
000080 0a 35 e9 bd 52 a8 e6 3c 05 1c b5 3d 51 74 7b bd
       -0.113870695 0.028156433 0.08843235 -0.061390225
000090 3f 63 d3 bd d5 dc a8 bd d0 d5 5c 3d 02 53 84 3d
       -0.10321664 -0.08245245 0.053914845 0.06461145
0000a0 f7 e9 7f 3d cb 5a 91 bd ce f6 6a 3d 8e b4 bc bd
       0.062478986 -0.070973955 0.057364278 -0.092141256
0000b0 0a ba 94 bd a3 79 a5 3c 9b ce 6a bd 19 a2 8c bd
       -0.07262047 0.020199602 -0.05732594 -0.06866855
0000c0 e3 95 39 3d 4b e6 dd 3d 7d e1 fc 3d a0 62 11 bd
       0.04530896 0.108349405 0.12347696 -0.035494447
0000d0 48 1e aa bd 75 05 f0 bd 34 6e d1 3d ce 5f 86 bd
       -0.08306557 -0.11719791 0.10226098 -0.06561242
0000e0 c2 78 0a bc 7a 0e c5 bd 96 d5 ce 3d 8e aa 51 bd
       -0.0084516425 -0.09621902 0.10099332 -0.051188044
0000f0 ff 5d b8 bd ad bf cb bd 24 99 47 bc 24 9d f7 bd
       -0.09002303 -0.09948669 -0.012182508 -0.12090519
000100 54 d5 89 bd 1d f4 09 3d 1f 9c 53 3d be d2 75 3c
       -0.06730142 0.03368007 0.05166256 0.015003858
000110 4e 5c 9f bd 6a 71 be bd 17 b8 10 bd da 7c ed 3d
       -0.077812776 -0.09298976 -0.03533181 0.11596079
000120 c8 0a 3f 3d 90 c1 c9 bd dc 29 d0 bc 36 cc 86 bd
       0.04664114 -0.09851372 -0.025410585 -0.06581919
000130 87 55 89 bb 7c 3d 96 3d 75 e3 5d bc 9b 56 a0 3d
       -0.004191104 0.07335946 -0.0135429995 0.07829019
000140 41 d3 a3 bd 5e bc 86 3d 5a 21 c3 3d cc e1 f6 bc
       -0.07999278 0.06578897 0.09527846 -0.030136965
000150 d0 58 f4 bc 31 1f 08 bc 96 c6 e2 3c e4 f1 7f 3d
       -0.029827505 -0.008308218 0.027682584 0.062486544
000160 96 1c 5d bd 6d 52 8e 3c fb 84 ac bd e7 2d 94 3d
       -0.05398234 0.017373288 -0.084238015 0.07235318
000170 a5 22 dd 3d ae 49 7c 3b 15 0f bb 3d 7c 14 be 3c
       0.107976235 0.0038496065 0.09133736 0.023203127
000180 e1 e5 da bd ed 22 f5 3c 0d b8 d4 bd fd 3f e9 bc
       -0.10688377 0.02992388 -0.103866674 -0.028472895
000190 ab 18 c4 3d 40 d3 41 3d e8 53 54 bd 3b 31 d4 3d
       0.095750175 0.047320604 -0.05183783 0.103609525
0001a0 42 ae e7 bd fd ad 84 bd 52 9e 93 bd c6 58 95 bd
       -0.11312534 -0.06478498 -0.072079316 -0.07292323
0001b0 c8 84 aa bd 64 87 b4 3d 5e c6 84 3d ad b5 1b bc
       -0.08326107 0.08814886 0.06483148 -0.009503764
0001c0 de c2 8b bd a8 66 02 bd a3 2d 58 3c b1 e0 b8 bd
       -0.06824277 -0.031836182 0.013194474 -0.090272315
0001d0 d0 d3 4a 3c 14 3e 37 3d 36 58 54 bd 3e 99 c8 bd
       0.012379602 0.044736937 -0.051841937 -0.09794854
0001e0 40 b7 4e bd 4a de c3 bd 1c bf 9b bd 98 4f d8 3d
       -0.05046773 -0.09563883 -0.076048106 0.10562056
0001f0 34 14 8e bc 36 3b 39 3d fa 36 8b bd aa b0 b8 bd
       -0.017343618 0.045222484 -0.06797595 -0.09018071
000200 54 0a eb 3d b9 3b 41 bd 99 e8 9e bc a7 7e a8 bd
       0.11476579 -0.047176097 -0.01939802 -0.08227282
000210 6a c5 ad 3c d7 42 74 3c 0b fa 8f bd ec 7e f3 bb
       0.021212298 0.014908514 -0.07030114 -0.0074309018
000220 94 31 f9 3d 14 6d e0 bb 52 52 c9 bd 11 b0 1e bb
       0.121676594 -0.0068489406 -0.098301545 -0.002421383
000230 a1 f9 f6 3d 79 6d 99 3d d5 0f 6a 3d 73 38 9f 3a
       0.12059332 0.074915834 0.057144005 0.001214756
000240 b0 e4 93 3c ef 05 6e 3d 5f 20 81 bd e3 6c 86 bd
       0.018053383 0.058111127 -0.063050024 -0.06563737
000250 87 91 b0 bd b0 bb ee bd 50 fe be bd 8c 18 a2 ba
       -0.08621507 -0.11656892 -0.0932585 -0.0012366935
000260 f2 f8 86 3d 8c 36 57 bc 7d 7e 90 3c c5 78 ec bd
       0.06590451 -0.013135564 0.01763844 -0.115464725
000270 13 63 6e 3d 62 98 1c bd f9 7c 8c bb 44 59 97 bb
       0.058199953 -0.03823126 -0.004287359 -0.0046187956
000280 2c 42 10 3e 7d 7d a5 bd 93 09 2c 3d 03 6a 58 bd
       0.14087743 -0.080805756 0.04200132 -0.052835476
000290 1b 9b 23 bd 91 b1 14 3d 9b bd 91 3c 3d e7 e8 3d
       -0.039942842 0.036302153 0.017790606 0.1137223
0002a0 2d 51 f2 3d 3a 01 14 bd 15 e4 f5 3c 14 fd f3 bd
       0.11831889 -0.036133982 0.030015985 -0.11913505
0002b0 a2 d2 1b 3d d5 21 e2 bd 06 36 92 3d cd b9 21 3d
       0.038042672 -0.11041609 0.071392104 0.039483834
0002c0 27 ed e8 bd 80 ee 03 be 8a 87 de bc 49 3f 8b 3d
       -0.11373358 -0.1288395 -0.02716424 0.0679918
0002d0 2b b1 b4 bc cc bc e1 bd d4 aa b3 3d b1 33 28 3d
       -0.022057137 -0.11022338 0.08772817 0.04106492
0002e0 76 f0 aa bc b0 a6 58 3c 97 00 b1 3d 54 9f 84 3d
       -0.020866614 0.013223335 0.08642691 0.06475702
0002f0 a7 ca 3c 3c b6 52 b7 3d 34 81 96 bc b3 64 b2 3b
       0.011522925 0.08951323 -0.018372156 0.005444133
000300 d8 4f c8 3d 2a a8 de 3d 4d e4 fd 3d c0 c4 e9 bd
       0.09780854 0.108719185 0.123970605 -0.1141448
000310 c7 09 38 bc 09 d3 b5 bd 2b 8a 7a 3d 09 39 9b bd
       -0.0112328 -0.088781424 0.061166923 -0.07579238
000320 84 a5 2b 3d 2f 38 d7 3d 85 c6 b5 3d 12 4c 45 3d
       0.041905895 0.10508763 0.08875755 0.04816825
000330 d8 40 00 bd 68 b8 f8 bd b9 bf 11 b9 d7 7a a9 bd
       -0.03131184 -0.12144548 -0.000138997 -0.08275383
000340 af 5b 3f bd 31 f9 02 3d 59 62 66 bd e7 b6 b1 3d
       -0.046718296 0.03197593 -0.056246135 0.08677464
000350 63 f0 cd bd 58 50 d9 3c 2f 9d 09 3e ba d8 e5 bd
       -0.10055616 0.026527569 0.13438867 -0.11222978
000360 00 94 de 3c 51 c6 a8 bc 8c 73 69 bd e0 46 c0 bd
       0.027170181 -0.020602377 -0.05699496 -0.09388518
000370 06 65 99 3d f6 f1 83 bd ed f4 37 bd c2 b0 a6 bd
       0.07489972 -0.06442635 -0.044911314 -0.081391826
000380 62 da 5b 3c 24 f1 a8 bb ef 52 63 3d 05 e8 f4 bd
       0.013418766 -0.0051556993 0.055499014 -0.11958317
000390 89 ff ab 3d 9e 1c 06 bd 92 3b 9b 3d 24 45 86 bd
       0.08398349 -0.032742135 0.075797215 -0.06556156
0003a0 7c ee 26 3a 97 fb e9 bd 27 4a 24 bd 3e 9c 86 3d
       0.00063679344 -0.1142494 -0.04010978 0.065727696
0003b0 18 fb 43 bd 37 3b 28 3d d1 33 14 bc ad 7d 9e 3d
       -0.047846884 0.041072097 -0.009045557 0.077388145
0003c0 f0 b5 91 bd 20 44 c3 bd cf 39 80 3d ea 48 a5 bd
       -0.0711478 -0.09534478 0.06261026 -0.08070548
0003d0 41 07 71 3d 4d 74 84 bd 3e a4 90 bd c8 6c 5b bd
       0.05884481 -0.06467495 -0.07062577 -0.05357054
0003e0 d8 26 b9 bd 84 d6 52 3d 14 ed b6 3d 75 ea 43 bc
       -0.09040612 0.05147411 0.08931938 -0.011957754
0003f0 7f 0d 2f 3b 97 89 b4 3d de 6a d4 3c ed dc e6 bd
       0.0026710925 0.08815306 0.025929864 -0.11272607

fc2.bias f4 [64]
000000 99 e5 53 bd d3 17 f5 3d 02 23 1f bd 2f 22 50 3d
       -0.051732633 0.11967435 -0.038851745 0.05081385
000010 44 f4 a2 bd 06 2a ef 3d d7 d7 03 be 33 8c 4e bc
       -0.07956746 0.11677937 -0.12875305 -0.012606668
000020 01 40 9d bd 62 7f 07 bd f3 eb 06 3d 7b aa f3 bd
       -0.076782234 -0.033080466 0.032939862 -0.11897751
000030 83 a6 c4 bd dd 95 df bd 88 ad 18 bd 27 47 ff 38
       -0.09602072 -0.10917256 -0.037274867 0.00012172601
000040 89 1f dd 3d 70 a1 be bd b8 8b 8e bd f0 8e de 3c
       0.107970305 -0.093081355 -0.06960243 0.027167767
000050 ad 3f d9 3d 24 86 e0 3d 49 86 51 3e 63 32 79 bd
       0.10607848 0.10963085 0.20461382 -0.06083907
000060 5f 13 84 ba e0 ab 9a 3c 1b 4d 6d 3d e7 9b a9 bc
       -0.0010076574 0.018880785 0.05793486 -0.020704223
000070 26 26 22 3d 0e f9 b9 3d ad cf 9e 3d b4 d4 e4 3d
       0.039587162 0.090807065 0.07754455 0.111733824
000080 d2 21 a6 bd 0a 24 86 3c 5f 45 34 3e 34 35 51 bd
       -0.081119195 0.016374607 0.17604588 -0.05107613
000090 7a 06 ea 3d 12 3c 0f be 14 40 19 3b 11 81 05 bd
       0.114270166 -0.13987759 0.002338414 -0.03259379
0000a0 4b bd ea 3c 52 db 1f bd a3 a5 98 3d 32 d7 be bd
       0.028654715 -0.03902752 0.07453468 -0.09318389
0000b0 4a 03 7d 3d ca c4 4b bd e0 9f 8e 3c 49 72 ce 3c
       0.061770715 -0.04974822 0.017410219 0.02520098
0000c0 cd 80 bd bd b2 c4 01 3d bc c5 87 3c 1c 2f 11 be
       -0.092530824 0.031681724 0.01657378 -0.14178127
0000d0 e0 f0 74 bc 17 33 ba bd 78 b2 ac bd d9 90 d1 3d
       -0.014950007 -0.09091776 -0.08432478 0.102327056
0000e0 76 29 29 bd 07 c5 de 3d 99 31 29 be 8e cf 19 3d
       -0.041299306 0.10877424 -0.16522826 0.037551455
0000f0 f0 bd 0d 3d 56 44 ca bc 32 fe c8 3d c5 1c 7f 3d
       0.034604967 -0.024690788 0.09814109 0.062283296

fc3.weight f4 [1, 64]
000000 41 c3 db bd 5e 32 cc bc 67 34 e5 bd 57 f5 82 bd
       -0.10730601 -0.02492636 -0.111916356 -0.06394451
000010 8d 73 c4 bd d2 75 84 3e 1e 80 90 be 98 10 81 be
       -0.09592352 0.2587114 -0.28222746 -0.25207973
000020 b3 08 15 be 60 e6 fd be a7 b4 b5 3d e6 b0 b4 be
       -0.145541 -0.49589825 0.08872347 -0.35291213
000030 fd bd cf 3d d3 bb 1a be bc 43 98 be 95 04 23 3d
       0.10143659 -0.15110712 -0.29739177 0.03979929
000040 3b 8d 8e 3e 5a 93 ed 3d c5 84 da 3c 0f 7c b4 bd
       0.27842125 0.11600371 0.026674638 -0.08812725
000050 ba e1 8f 3e 66 af e0 bd 6d df cf 3e b7 33 a1 be
       0.28101903 -0.109709546 0.40600148 -0.31484768
000060 dc f2 da 3e 00 49 cb ba 22 20 03 3e 0f e9 21 bf
       0.42763412 -0.0015509427 0.12805226 -0.63246244
000070 13 bb 16 3f 37 d3 19 3f 3c 2a bf bd 28 ee ea 3e
       0.588792 0.60087913 -0.093342274 0.45884824
000080 d5 1f bd bd 5c 34 c3 bd a6 b4 fe 3e 9d 84 3c be
       -0.09234587 -0.09531471 0.497472 -0.18409963
000090 0c 27 49 3d 70 91 79 be 4a 1f 90 3e 5f 64 1f bd
       0.049109504 -0.24371886 0.28148872 -0.03891408
0000a0 f0 da 94 be 5e 30 11 bb 87 f5 d0 3d 7f 5f 42 be
       -0.29073286 -0.0022154073 0.102030806 -0.18981741
0000b0 d5 19 e8 bd ed 00 f9 3c 10 9d d6 3c 2e 5f 3c 3c
       -0.11333052 0.03039595 0.02619794 0.011497302
0000c0 65 b0 d8 be db ba 7e 3d 22 6c f3 be b9 47 05 bf
       -0.42322078 0.062189918 -0.47543436 -0.52062565
0000d0 a0 aa 22 3c 14 42 73 3d 00 88 bb ba cb 7b 9c 3e
       0.0099283755 0.05938919 -0.0014307499 0.30563197
0000e0 0a 7f 18 3e 4c 13 7f 3d 9b 2e 8d be b5 7d 87 3d
       0.14892212 0.062274262 -0.2757462 0.066157736
0000f0 61 a6 ce bd 79 cf 6e 3d 4b 47 1d 3e 15 28 b6 3e
       -0.10090328 0.05830333 0.15359227 0.35577455
