model550000.pt (torch, 125938 bytes, 11 tensors)

l1.weight f4 [128, 18]
00000000: cd3f bf3d 8e02 4a3e e9e8 01be b38f 52bc
00000010: 4bd4 f2bc 67e7 34be 8db6 f1bb d1e2 80bc
00000020: 6929 163e 708c be3c a11d 333d 0941 01bd
00000030: bfce 1fbe 5616 7b3d d3f1 8e3c 87ac 45be
00000040: 7da9 05be 1b45 d13d 6f43 5db9 255c 563e
00000050: 001f 03bd e4fc afbd bc5c 85be dd84 3c3d
00000060: 620e c13d 4db8 563e 108e 0f3c 6374 fb3d
00000070: 6730 09be 2498 66bd 2cf5 b83d 20d7 47ba
00000080: aa28 87bd 1958 bf3d 7135 ae3d 7d60 30be
00000090: bde4 34be 1af9 323d b64e cebc 3d6f bf3d
000000a0: cc0f 293d 8eeb c53d bcb9 5bbe 025b 5fbd
000000b0: ca19 5ebe 885f e73c 1bea f53d 151a aebd
000000c0: b19f 2ebe b83a b03d 3047 37be 1105 0ebe
000000d0: a7c3 5b3d 8bb6 953c 6b31 fbbd cdcf 813d
000000e0: 1213 443e 47a5 a73d 5321 4cbe 5bf0 753d
000000f0: ec96 7abd 6980 603e 1639 093e fdab 40be
00000100: d987 bd3d 6ca0 173e f00a 343d e6d5 4dbe
00000110: 3696 cb3d eb0d e4bd 5071 023b 62f2 c63d
00000120: 97d5 14bd 9af6 eb3d f7e1 2abe 7488 e03d
00000130: 62b1 27be 5cba 6abe e1f6 9bbd 7a57 2d3e
00000140: e059 fc3d a4da b4bb b4b9 26bd 750d 4e3d
00000150: 81a3 0fbe a0d2 abbd 68ff 623e fbf2 e3bd
00000160: 8d81 48be 34fa b73d 33bc d23d 6130 2a3e
00000170: e891 94bd a3c6 5b3e f7ec 573d 5837 113e
00000180: 259d 58bd 8410 483e 3d74 3cbe 13aa 61be
00000190: c1e3 febd f388 a23d 6702 1a3e 0ab1 11bc
000001a0: 6870 abbd 1352 22be 856b 0a3d e55e 053e
000001b0: 1284 463e 1994 3fbe cd3b 1a3e 19d7 56bd
000001c0: bc01 f5bd cdc8 7c3d 98fc 85bc 7fb7 6abc
000001d0: 5409 6bbd 1664 6d3e 44e5 14be 7917 b7bc
000001e0: 7e13 0f3e 38e6 4cbc bae6 babc 2c7a 8d3d
000001f0: 589f edbd d39b 9e3d 9587 673d 1437 d1bd
00000200: 1302 3c3a 1780 ee3d 8a1f 43be 43f1 a4bd
00000210: 14c5 c83c 7fab b1bd ead7 1dbd ab1c 0abe
00000220: 1c0e 2fbc 8efb b7bd d8bc 463c af8e 413d
00000230: e11a 0dbe 900f 043d 4b36 4c3e 43a1 11bd
00000240: 2585 07be e87b 2c3e 0e41 ae3d 3332 e6bd
00000250: e057 cdbd 9211 1dbe cfde 3d3e b6e6 0f3d
00000260: 2c3b 62be b683 223e df31 e73d 1e6d 953d
00000270: 11a1 00bd 13e6 8dbd daf2 36bd f7a8 7ebd
00000280: f81f c93d 6a02 68be 2886 953d 9ec1 81bc
00000290: 417e 5e39 8c52 f73d 0d85 83bc 05bd 18be
000002a0: cb07 2fbe 0fa6 c43d 924f 0abd 9720 d4bd
000002b0: 58fe 6dbe 7dd9 19be 150b f5bc 41ab ed3c
000002c0: 1da7 64be 3bb6 78ba 77d4 1e3e 39ee 13bd
000002d0: a944 7ebe 02fe eabd f890 ca3b 3baa 4c3e
000002e0: 5a6f ecbd a42d 27be b055 df3d 0ca9 063e
000002f0: 0d4e 2cbe 6329 4c3e 4206 b8bd 9095 f5bb
00000300: 3013 49be 0033 233d e87d 9dbd 99d0 393d
00000310: f292 b4bd 86cb 47be ffdc f73d d58a 76bd
00000320: 284f 5cbd c3b1 1d3e 3390 333e 2050 39be
00000330: 7a4f b73d 0404 f3bd ba7a a13c 9515 83bd
00000340: f549 87bd 895c 3d3e 0e0e 413d 00dd 6ebe
00000350: 0a3f a23d 41c0 d2bc 60c8 99bc c30f 7a3d
00000360: 6ee6 4e3e b9d1 0c3e a7e6 68be bbf0 b5bd
00000370: 05f9 15bd d402 4abe 7702 1ebe 3fdc 82bd
00000380: 4bd6 c4bd f261 01be 0463 11be 0cbf 0cbe
00000390: 6426 1e3d da30 adbb a876 63be 3e85 913d
000003a0: 54f4 f93d 7873 4f3e a601 83bd 2545 39be
000003b0: 1168 223e b79d edbd 612a 303e 8e01 f7bc
000003c0: 18fd 513e e7e5 e1bd 0824 2dbe 8087 b53d
000003d0: 8d38 253e e4e9 47be e800 46be 5640 d2bd
000003e0: 3b5a 243e 3bde 66be e0f3 48be 4ee2 9abc
000003f0: 08a7 533e 7d66 33be b755 aa3d 6829 713e
0.09338341 0.19727537 -0.12686504 -0.012851643 -0.029642245 -0.17666398 -0.007376498 -0.015733154
0.14664234 0.023260325 0.04372943 -0.031556163 -0.15606211 0.061300598 0.017449295 -0.19304095
-0.13052936 0.10218259 -0.00021101323 0.20933588 -0.032011986 -0.08593157 -0.26047313 0.046025146
0.094265714 0.20968743 0.008761898 0.122780584 -0.1339737 -0.056297436 0.09031138 -0.00076233037
-0.06599553 0.09342975 0.08506287 -0.17224307 -0.17665382 0.043694593 -0.025184017 0.09347389
0.04127483 0.09664069 -0.21457571 -0.05453015 -0.21689525 0.028243795 0.12007543 -0.085010685
-0.17053105 0.0860495 -0.1789825 -0.1386912 0.053653385 0.01827552 -0.12265285 0.06338463
0.191479 0.08185821 -0.19934587 0.060043674 -0.061179087 0.21923985 0.13400683 -0.18815608
0.092544265 0.1480729 0.043955743 -0.20101127 0.0994076 -0.11135467 0.0019903965 0.097141996
-0.036336508 0.11521645 -0.16687761 0.10963526 -0.1637626 -0.22922653 -0.07615448 0.16927901
0.1232183 -0.005519228 -0.040704444 0.050305802 -0.14027216 -0.08389783 0.22167742 -0.11130329
-0.1958067 0.08983269 0.102898024 0.16620018 -0.07254392 0.21462493 0.05271622 0.14181268
-0.05288424 0.1953755 -0.18403716 -0.22037534 -0.12445784 0.07936277 0.15039979 -0.008892307
-0.08371049 -0.15851621 0.033793945 0.1302448 0.19386318 -0.18708839 0.15061875 -0.052451227
-0.119632214 0.061714936 -0.016355798 -0.014325975 -0.057381943 0.23182711 -0.14540583 -0.02235006
0.1397228 -0.01250606 -0.022815097 0.06908068 -0.11602658 0.07744565 0.056525785 -0.102155834
0.000717194 0.11645525 -0.19055 -0.080538295 0.024508037 -0.086752884 -0.03853599 -0.13487498
-0.010684516 -0.08983527 0.012129985 0.047255214 -0.13779785 0.032241404 0.19942586 -0.03555418
-0.13234384 0.16844141 0.08508502 -0.112400435 -0.100265265 -0.15338734 0.18542026 0.035132132
-0.22092885 0.15870556 0.11288809 0.07296203 -0.031403605 -0.06928649 -0.044665195 -0.062172856
0.09820551 -0.22657171 0.07300979 -0.015839394 0.00021218603 0.120762914 -0.016054654 -0.14915855
-0.17092817 0.09601986 -0.03376729 -0.103577785 -0.23241556 -0.15024371 -0.02991251 0.029012324
-0.22329374 -0.00094876037 0.15510736 -0.03611586 -0.2483088 -0.114742294 0.0061818324 0.19986813
-0.11544676 -0.16326004 0.109050155 0.13150424 -0.16826649 0.19937663 -0.089855686 -0.007494636
-0.19636226 0.03984356 -0.0769003 0.04536495 -0.0881709 -0.19511232 0.121026985 -0.060190994
-0.053786427 0.15399842 0.17535476 -0.18096972 0.08950706 -0.11866 0.01971184 -0.06400601
-0.06605903 0.1849233 0.047132544 -0.23326492 0.0792218 -0.02572644 -0.018772304 0.061050188
0.2020509 0.13751878 -0.22744237 -0.08883806 -0.036614437 -0.19727641 -0.15430628 -0.06389665
-0.09611186 -0.1263502 -0.14197928 -0.13744754 0.03861083 -0.0052853646 -0.22213233 0.07105492
0.12204805 0.20258892 -0.06396799 -0.18092783 0.1586001 -0.11602347 0.17203666 -0.030152109
0.20506704 -0.110301785 -0.16908276 0.08863735 0.16134854 -0.19522816 -0.19336283 -0.10266177
0.16050045 -0.22545712 -0.19624281 -0.018906739 0.20669186 -0.17519565 0.0831713 0.23550951

l1.bias f4 [128]
00000000: e2ad e43d 7511 e93e e87c 18be ba4c a43d
00000010: 2dc7 eebd eae4 04bc 1dc1 ecbc 7247 a63e
00000020: ac39 eb3d 23ad 47be a737 febb 6544 c4bc
00000030: 2169 2bbe f7d5 8e3c 466b b53d 64ed da3d
00000040: d6ef 5bbe 4781 5f3e 1c6e 2b3c 3658 183d
00000050: 022f ddbb 24ce 833d 0260 a13c 7e07 37be
00000060: a7a3 03be d87c 56be 9e51 a3bc a901 1bbe
00000070: 1f33 2e3e 2d68 143e 77d7 8cbd c529 f7bd
00000080: 2668 fbbd db1a debd 24ea d6bc d1d1 523d
00000090: 94dc 0a3e cce4 72be fdcf f2bd 37f7 65be
000000a0: 4315 b73e 66e1 61be b0e5 f0bd b4a7 35be
000000b0: 0288 e43d 514e fc3e 6af4 023f 855b fa3d
000000c0: ce17 443e 831f 12bd 9b86 59bd 176a c6bd
000000d0: bc18 e5bc 92e5 3d3f 2c38 c1bb a12a 28be
000000e0: 6a07 1b3e b47a 0ebe 1c21 233e 7c29 49be
000000f0: 9e9e a13e 28d3 04be ae1b a9bc b0b0 763c
00000100: e935 dbbd 1232 413e 45ed 033d 09cf a5bc
00000110: 0d04 323e c400 34be 5d91 5f3e 73b3 343e
00000120: 2d1a a03e 6750 a03d 5a78 1a3f e665 8a3e
00000130: 57df 57be 01d9 b93e b65c e43d 15c2 803e
00000140: 778a 30be 2d72 553d fda7 e73d 3b0e a1bd
00000150: 7682 9f3d 8416 653e d833 e2bd 8ccf df3d
00000160: d39c 0f3d 6d71 933e 0bf1 36bd 3f6f 8d3e
00000170: ac1e 8cbd 22e6 3cbe 037b e4bd 3380 d3bd
00000180: ad91 3abd 5ff7 b53d d8eb 253e d930 ad3d
00000190: d5e9 bcbd 3c66 b43d 7d94 44be dff7 1dbe
000001a0: 8ed2 cc3e 6c0a 8fbd d67b 33be 7b1a 0c3e
000001b0: 8e0a 823d 5c32 ed3d 97b9 eebd 9f3f 083e
000001c0: e6ef e5bd b69e 0fbe a311 3b3e ca81 613e
000001d0: 6276 4e3e 43a0 693e 038d 6fbd dec5 ef3d
000001e0: 5be1 8dbd 1ac0 323e 6211 af3e fc1d ddbc
000001f0: 2060 4a3e c091 ecbc f57e 67be 31f0 aebd
0.11165978 0.4552113 -0.14891398 0.08022447 -0.116590835 -0.008111218 -0.028900677 0.32476383
0.114856094 -0.1949964 -0.007758099 -0.023958394 -0.16739322 0.01743601 0.088583514 0.1068981
-0.21478209 0.21826659 0.010463264 0.0371935 -0.0067499885 0.064358026 0.0196991 -0.17873952
-0.12855397 -0.20946062 -0.019936379 -0.15137352 0.17011689 0.14492865 -0.06877034 -0.12068514
-0.12275724 -0.10844966 -0.026234694 0.051469628 0.13560706 -0.23720092 -0.11856077 -0.22457586
0.3575841 -0.22058639 -0.117625594 -0.17739755 0.11158754 0.492785 0.51154196 0.12224487
0.19149706 -0.035674583 -0.053106885 -0.09688204 -0.027965896 0.7417842 -0.005896589 -0.16422512
0.15139547 -0.13913995 0.15930599 -0.19644731 0.31566328 -0.12971175 -0.020643082 0.015056774
-0.10703642 0.18866757 0.0322087 -0.020240324 0.17384358 -0.17578417 0.21832795 0.1764658
0.3126997 0.078278355 0.6033989 0.27030867 -0.21081291 0.36298373 0.11150496 0.25148073
-0.1724032 0.05211084 0.11311338 -0.07864042 0.07788555 0.2237187 -0.11045045 0.10928258
0.03506167 0.28797475 -0.04466347 0.27623937 -0.06841788 -0.18447164 -0.11156275 -0.103271864
-0.045549084 0.08885073 0.16203249 0.084565826 -0.092242874 0.08808562 -0.19197269 -0.15426587
0.4000439 -0.0698441 -0.17527708 0.13681976 0.063496694 0.11581871 -0.11656492 0.1330552
-0.112273976 -0.14025387 0.18268447 0.22022167 0.20162347 0.22815041 -0.05848409 0.11707662
-0.06927749 0.17456093 0.3419295 -0.026991837 0.19763231 -0.028878093 -0.22607024 -0.085419066

l2.weight f4 [128, 128]
00000000: 5a69 47bd 99af a73b eedf 0d3d 4b5c a43d
00000010: 6070 67bd 7feb 2fbd 9a23 533d b1d9 e6ba
00000020: 4792 733d 97d3 db3c 3909 8cbd 76fb 2539
00000030: 5001 84bc 94e2 25bc fcfd f4bc 9703 f2bc
00000040: 0556 55bd d929 903d a92a 2e3d c063 8abd
00000050: bcf5 4a3d 9263 363d d22f 53bd d15e 5b3d
00000060: e373 b8bc 6179 db3b 8c3e 233d 49e1 2fbd
00000070: 1bd1 703d 3faf a4bd 08e4 adbd 83d0 2abd
00000080: 2a8c 2dbd ce78 a1bd 109a 9bbd 906b a8bd
00000090: e1b7 ad3d 204f b4bd 6bc9 56bd 231d 863d
000000a0: 7645 973c 2a22 a6bd be5c bf3b 328d 2bbd
000000b0: 9eb6 ea3c 89d7 6a3d 5658 a43d 7426 2c3c
000000c0: 0e6f 85bd df7e 83bd db27 083c ab79 1bbd
000000d0: 4981 533d 29dc eebb 0213 b03d efbd 98bd
000000e0: 18e7 8abd b539 81bd 40d4 acbd 04d2 8c3d
000000f0: 21da a1bd 3b51 abbd 2ad5 88bc b583 453d
00000100: 1ccb edbc e3d8 a7bd 3e6e 83bd 4596 343c
00000110: 73e1 693d a772 b33a e6e1 4e3c 587a 0ebd
00000120: db02 79bc 2c36 803c 2305 1f3d 9628 98bd
00000130: e700 9fbd b07d 513d e70e ca3c b1a1 9d3b
00000140: e6d5 dfbc 2704 0dbd 4bd4 713d 282e 8cbc
00000150: eeef 8dbd 1ca5 59bd 04c5 6cbb 14a4 7bbc
00000160: 605c 24bd 50f6 3dbc 4f2e 9d3d e732 af3d
00000170: 5782 653d f2a0 a83c 898e 953d 1c45 76bd
00000180: 60d7 0ebd bd6c 313c 4202 9f3c 1a0a 56bd
00000190: ed97 a83d 3472 883d 17d3 81bd bea1 52bd
000001a0: 0b93 02bd 4530 6b3d d38c 13bd 87ae 063b
000001b0: f783 d83c 0040 acbc 688b 94bc b2e3 88bd
000001c0: 1a85 313d 1049 afbd 4abf 5ebc 65a0 5cbd
000001d0: acb7 9f3d 2c9e 10bd f4d5 8c3d bdf2 59bd
000001e0: 8a4f a2bd d37c 143c a9cf 20bd 8398 aa3d
000001f0: 1ff3 1abd b412 96bd 490f 573d d069 bbbb
00000200: c2e8 c73a 2709 b33c 91bb 443d 1960 c33d
00000210: ca02 3fbd de1d 8e3c a567 7b3d 504e 293d
00000220: 9ec6 523d 9259 c93c d494 4cbd ed73 323c
00000230: f0f4 8fbc a0a9 903d 6d53 0bbd 2a3c 8fbc
00000240: 8641 b03d 32f0 9e3d ceb1 aa3d b8e9 e3ba
00000250: 7c51 8e3d 20b9 dfbb 373a 2fbd 59a2 93bc
00000260: 9b29 3dbc 8dda acbd a8e8 9b3d 65df 8cbb
00000270: 2459 9c3b 592f a3bd fc7d ed3c 0b05 a83c
00000280: 4fa2 8abd ca2d 5a3c f183 72ba 1728 93bd
00000290: dc5d 0fbd a1a4 3c3d 9d5e 9cbd 0182 983b
000002a0: ef33 e3ba acc5 7bbd 5cb2 cebc 4caa 343d
000002b0: 5b76 5c3d b9ee aabc 20c6 7a3d 9ec8 a13c
000002c0: b027 aabb 150c 49bd 5b66 433d 6bd7 293d
000002d0: 6259 78bb 054f 0e3d 9f5b 23bd c52e 593d
000002e0: 3d81 963d 0ec4 14bd 34bb abbd f719 0cbc
000002f0: dd7c 7b3d fbf7 b1bd 0143 843d fe3c ad3c
00000300: c59b 733d 8bd4 05bd 54fe 8abd 7e13 0ebc
00000310: 4aea a1bd 2179 acbd 8bef a2bd 97f9 eb3c
00000320: 6102 afbd 2518 9bbd 8e10 2e3d 0051 a1bb
00000330: cf85 dbbb 920a c03c d455 cdbc b593 82bd
00000340: 67df 82bc 8660 19bd bf97 2d3d 3b4c 2e3d
00000350: e3c2 2ebd 4b7a f73a 646b e4bc 9275 753d
00000360: e722 9c3c d7c3 38bc bcc8 7d3d 0e2b 443d
00000370: dcdb b2bd e507 7c3d 195c f8bc b74b 073d
00000380: f936 93bd 6749 d73b 07b3 1a3d adb6 743d
00000390: 1792 733d e80a 193d 3bbd aa3d 87cf 553d
000003a0: 2158 76bb 5a64 82bd 0064 88bd bbbe 483d
000003b0: 8245 9cbc 4f1d 753d f563 ccbb 1857 6cbd
000003c0: 69e3 99bd 4efa 783d b82d 0b3c 85a1 093d
000003d0: 685b 51bd f9e3 e0bc 386c febc 2dc2 16bd
000003e0: 780b 1cbd e8c4 2e3c 64b6 903d addc 033d
000003f0: df3e 0d3d 2828 46bd b86a 0ebd 234f 063d
-0.048684455 0.0051173684 0.034637384 0.08025416 -0.056503654 -0.042949196 0.051547624 -0.0017612485
0.059465673 0.026834292 -0.068376966 0.00015829303 -0.016113907 -0.010124821 -0.029906265 -0.029542727
-0.052083988 0.07039232 0.042521153 -0.06757307 0.049550757 0.04452855 -0.051559277 0.05355722
-0.022516197 0.006697819 0.03985457 -0.042939458 0.05879317 -0.08041238 -0.08490759 -0.04170276
-0.04237 -0.0788437 -0.075977445 -0.08223641 0.08482338 -0.088041544 -0.05243818 0.06548526
0.018465739 -0.08111985 0.005839913 -0.0418827 0.028651532 0.057334457 0.08024661 0.010507215
-0.065153226 -0.06420683 0.0083102835 -0.03795783 0.051636968 -0.0072894287 0.085973755 -0.07458102
-0.06782359 -0.06309835 -0.08438921 0.06875995 -0.07902933 -0.08365103 -0.016703207 0.04822131
-0.029027514 -0.08195665 -0.064175114 0.011022155 0.05709977 0.0013690785 0.012627101 -0.034784645
-0.015198435 0.015650831 0.038823258 -0.07429616 -0.07763844 0.051145256 0.02466531 0.004810535
-0.027323674 -0.034427788 0.05904035 -0.017111853 -0.069305286 -0.053135976 -0.0036128173 -0.0153589435
-0.04012716 -0.01159437 0.07674848 0.08554631 0.056032505 0.020584557 0.07302577 -0.0601245
-0.034873366 0.010829148 0.019410256 -0.052255727 0.082321025 0.066624075 -0.0633909 -0.05142378
-0.031878512 0.05741908 -0.036022972 0.0020550804 0.026430113 -0.021026611 -0.01813288 -0.066840544
0.043339826 -0.085588574 -0.013595412 -0.0538639 0.077987045 -0.035307094 0.06876746 -0.05321001
-0.07925327 0.009062964 -0.03926054 0.083298706 -0.037829515 -0.07327786 0.05250481 -0.005719401
0.0015251862 0.02185495 0.04803044 0.095398135 -0.04663352 0.017348226 0.06137814 0.04133445
0.051458947 0.024578843 -0.04994662 0.010891897 -0.01757285 0.070636034 -0.034015108 -0.017484743
0.086062476 0.07760657 0.08334695 -0.0017388379 0.06949136 -0.0068274885 -0.042780127 -0.01802175
-0.011545564 -0.08440123 0.07612735 -0.0042990916 0.0047713686 -0.07968015 0.028990738 0.020510217
-0.06769239 0.013316581 -0.0009251228 -0.07185381 -0.03500162 0.04605544 -0.076352336 0.0046541695
-0.0017334203 -0.06146781 -0.025231533 0.04410772 0.05382381 -0.020865785 0.061224103 0.019748982
-0.0051927194 -0.049083788 0.047705036 0.041465204 -0.0037895073 0.034743328 -0.0398823 0.05302312
0.07348869 -0.036319785 -0.083853155 -0.008551112 0.061398376 -0.08689877 0.064580925 0.021147247
0.059474725 -0.0326734 -0.067867905 -0.0086716395 -0.07906015 -0.08421541 -0.079558454 0.028805537
-0.085453756 -0.075729646 0.042496257 -0.004922986 -0.006699301 0.02344254 -0.02506534 -0.06375829
-0.015975667 -0.037445568 0.042381044 0.042553168 -0.042666327 0.0018881051 -0.02788324 0.059926577
0.019059611 -0.011277161 0.061959013 0.047892623 -0.08733341 0.061530966 -0.030317353 0.03303119
-0.071882196 0.0065700295 0.03776839 0.059744526 0.059465494 0.037363917 0.08336874 0.052199867
-0.003758915 -0.06366797 -0.066596985 0.04901002 -0.019076113 0.059842404 -0.0062375017 -0.057700247
-0.07514078 0.060785584 0.008494787 0.033601303 -0.051112562 -0.027452456 -0.031057462 -0.036806274
-0.038096875 0.010667063 0.07066038 0.032192875 0.034483787 -0.04837814 -0.034769744 0.032790314

l2.bias f4 [128]
00000000: f1d6 aabd b357 bb40 e18d d03f 75fa 383d
00000010: ea16 4b3c 03e2 943c 4624 5640 fcad 923d
00000020: bd4c 373c 2870 8c3d 1c8c 7a40 aa30 7d40
00000030: fb44 ae40 d94f 8c40 af7f 1640 3cf7 7abc
00000040: 03b5 c040 612d a3bd 93b1 f73c ec89 133d
00000050: 93f8 b0bd 0d31 a53d 755d a83e f1e1 723d
00000060: ba15 20bd 33e5 973d b749 11bc 8716 6cbd
00000070: f099 983f d0d9 3abd 0bc9 163d 3fb4 86bd
00000080: 7763 0cbd b7f4 cbbb 4fc6 92bc 8b82 3140
00000090: 618b febb 456f 18bd 371f 7a3d 9873 083d
000000a0: 4de2 0e3d 31e3 0240 bbb8 263d 5200 2ebd
000000b0: 0537 8d3d 70c1 ecbc d783 1bbd 5b91 97bd
000000c0: c9b4 63bd 2c3c 183d 8b07 b4bd a223 b53f
000000d0: 8d9f 32bd e8d2 523d 2b05 a940 2b4b b6bc
000000e0: 441b 26bd 4a5b fd40 b53a 2340 dc0a 99bd
000000f0: e9dd 57bd 8aea edbb 8596 b23d 9867 6f40
00000100: 1860 923d 4062 a9bb ddde 603c 6cfe bfbc
00000110: 7248 a73c 6578 58bc 6846 c93f d3e2 ae40
00000120: 1f27 033d 2e4a 89bd 022c 0f40 e2ef 283d
00000130: 4b62 b73f 57d2 a93a 9bdb 4c3d 257a db3d
00000140: 2f67 7340 b243 523f bd39 2cbd d37b 3cbd
00000150: 4dca a93d b7a2 8c3d 84c5 0d41 db2a 8e3d
00000160: 7a5a 8140 2a36 b63b 6138 403f cacc 6bbc
00000170: 2819 fcbc 021b 82bd 8996 46bd d84d 523d
00000180: 4384 8c3f f05c 4440 9cf7 793d a1c0 c8bc
00000190: 4e06 383d ae6a 3b3d 338b 47bd 201e f83f
000001a0: 36bc 3c40 06e2 1e40 2e58 94bd c13c f4bc
000001b0: 130a 603c 6665 1240 dde1 81bd ea9f d340
000001c0: 3434 cc3c 2261 373d 587b 163d 3647 c840
000001d0: 65e5 ad3d 3415 6f3e 5d1c 7340 b6a6 19bc
000001e0: 974c 3b3c cc4d 8040 c2b4 d33f bd6d 593d
000001f0: 441b c33d c7d8 713d 61e8 573d e283 983a
-0.08341778 5.8544555 1.6293298 0.04516073 0.0123956 0.018174177 3.345964 0.07162091
0.011187729 0.068573296 3.9148016 3.9560952 5.4459205 4.384747 2.3515432 -0.015317734
6.022096 -0.0796764 0.030236041 0.036020204 -0.08641162 0.08065996 0.32883802 0.059297506
-0.03908322 0.07416763 -0.008867673 -0.05763867 1.1921978 -0.04561788 0.036812823 -0.06577348
-0.034274545 -0.0062242406 -0.017916827 2.7735927 -0.00776808 -0.03721549 0.061064925 0.033313364
0.034883786 2.0451167 0.040703516 -0.042480774 0.0689526 -0.028900832 -0.03796753 -0.07400771
-0.055592332 0.03716676 -0.08790501 1.4151499 -0.04360919 0.051470667 5.281881 -0.02225264
-0.040553346 7.9173937 2.5504582 -0.074727744 -0.052701864 -0.0072606253 0.087201156 3.7406979
0.07147235 -0.005169183 0.01372501 -0.023436747 0.020420287 -0.013212298 1.5724611 5.4651885
0.03201973 -0.06703602 2.237061 0.041244395 1.4326872 0.0012956363 0.05001412 0.107166566
3.8031728 0.82134545 -0.04204725 -0.046016525 0.08290539 0.06866973 8.860722 0.06941768
4.0422945 0.005560656 0.7508603 -0.014392087 -0.030773714 -0.063528076 -0.048483405 0.05134377
1.0977863 3.0681725 0.061027154 -0.024505915 0.044927888 0.045756035 -0.048716735 1.9384193
2.9489875 2.4825454 -0.072433814 -0.029814126 0.013674277 2.2874389 -0.06341908 6.6132708
0.024927236 0.044770367 0.036738724 6.2586927 0.08491019 0.23347932 3.7986062 -0.009378126
0.011431835 4.0094967 1.6539538 0.05308317 0.09526685 0.059044626 0.05271185 0.0011635984

l3.weight f4 [52, 128]
00000000: a49b 46bd 8869 a33e 8753 c63d 9219 393d
00000010: 4a5d 243d 55e8 033c a992 3e3e a9fb 6ebd
00000020: 94d4 e6bc 972a 56bd f749 5e3e a9b8 623e
00000030: 51ea 8d3e d4a2 573e ebd2 d03d ff4d ae3c
00000040: 3322 9c3e 9963 17bd c2fa 7339 701e 5a3c
00000050: 5fad 94bd 3b9f 893d 87d6 b93c 0798 98bc
00000060: 0b78 f1bc 11a6 a8bd 03e0 98bd 732a 8dbb
00000070: 0380 9e3d f4ca 99bd 1ead 9cbd d214 1ebc
00000080: 7dc3 a4bd a36a 19bd f1a3 093d 7463 1c3e
00000090: 0505 0dbc 78dc 3c3d 5a39 40bc bdd2 1a3d
000000a0: e545 bfbb 0c24 d13d 8519 aa3b e922 febb
000000b0: 35fe ecbc a069 e3bc 6aee cebb 092c b3bd
000000c0: a6d0 393d f9cd 26bc 0d89 44bd 7ac3 a23d
000000d0: fb31 5fbc 6103 8b3d 5625 833e 7ee6 163d
000000e0: 1d44 c13c 8c4b dc3e ef62 153e 2a23 bf3c
000000f0: 61bf 95bc e10e 0d3d fc53 8dbc aacd 3f3e
00000100: 9fe2 17bc bc1b cc3c d42e 52bd 1ad4 623d
00000110: 3d4a c33c 5ac4 5cbc 2b81 7e3d 00c5 8c3e
00000120: 5ca1 163b 2d83 1bbd b959 fc3d 549c 7fbc
00000130: 3773 8f3d 19b5 35bd 4d2e 1bbd df0b cabb
00000140: 4210 523e 7ce9 db3c 6241 3f3d 849f aebd
00000150: 9815 84bd 0414 913c 67fd ea3e 45f6 43bd
00000160: 0f54 463e aa0e 793d 7a13 073d 5948 a43d
00000170: e484 663d 4916 3d3d eca4 eabb ce31 81bd
00000180: a520 763d 79e5 323e 8142 a3bb ab53 20bc
00000190: 6f4c 53bd 6e4c 28bc 3c22 1fbc bd74 d63d
000001a0: 8046 1f3e f741 113e d8da 80bd 5c0b da3c
000001b0: fa50 253c 0869 063e 3204 573a f219 b13e
000001c0: 8520 88bd 5cf0 8dbd 85fb 073d 31a7 a43e
000001d0: e2c1 c7bb 0971 593c e720 513e ba2d 49bd
000001e0: 0432 063a c28f 5e3e b61d b83d 0d89 11bc
000001f0: 43d7 aebc 1618 90bd 41a7 8cbd 7fd8 6abd
00000200: e929 f6bc 3f0f a73e aba3 b03d 475e 9a3d
00000210: 20d9 d03c 2333 123d 0f1b 443e 9014 07bd
00000220: 7967 8d3b d606 9e3d 4c4a 573e f249 583e
00000230: bf58 963e 79eb 773e d160 fe3d 511b 25bd
00000240: 9af7 a53e b26e 79bd 59e6 18bd 34a0 69bd
00000250: 4a04 28bd f4d1 9c38 28d2 033a 0181 e6ba
00000260: 0124 e2bb cf2c e2bc 9b05 b7bc ab10 27bc
00000270: 212b 983d f924 b63d fde6 a0bc 08ee ab3c
00000280: 59ff 2b3d 5820 aa3d 9a2f 89bd 4a4e 133e
00000290: 590f b33c 91fe 22bc e7b6 9ebd ec5f 963d
000002a0: 6445 9cbd d99e ee3d e525 37bc 2463 58bd
000002b0: 13a5 e9bc fdd0 6d3d 333f 94bc 93c0 913d
000002c0: 2d73 92bd bc8c ecbc d386 8cbd 0013 c13d
000002d0: 8180 27bd 97b0 153d 8d71 933e a2eb 76bd
000002e0: 8205 5d3d c9de e03e dd83 113e 117e 8ebd
000002f0: 8a21 85bc 43bb 073d 5bf0 49bd 75f6 473e
00000300: 38cc 823d 5620 87bd 8408 1b3d ac4e 31bd
00000310: 86ba a5bd 1bf0 5ebd 836c a83d 81f2 9b3e
00000320: c4f1 39bd 2695 943d ffe6 023e 8b46 90bd
00000330: 6d36 953d 6f8d fa3c 6698 64bd ae1c 2c3d
00000340: 333d 4d3e fdf4 133d e6b5 f3bc 1f98 e93b
00000350: 2884 3fbd 9a6e 863c c4be f53e 519e 6a3d
00000360: e5d3 643e 84c4 673c e36f 213d 30f8 8f3d
00000370: 9dd6 a73d f104 9abd eceb 0f3d 181f 773d
00000380: 3da4 6c3d a128 323e 22c8 6a3d b62e 083c
00000390: 773a 993d bcb2 e23c e123 2e3b 4e08 e43d
000003a0: 7bc9 293e 6f37 153e 744f 28bd d68d b7bc
000003b0: 3bee c3bb 6f52 003e dc58 debc 5b38 b53e
000003c0: 7228 87bd c421 34bc 71d6 81bd d901 b43e
000003d0: d61f 153b 413d e4bb c8b0 553e 88e7 ab3c
000003e0: 4e27 d33b 7642 693e 815d c73d 370e bc3b
000003f0: 8108 cebb 10e2 a53d cdf2 b83c da63 1a3d
-0.048488274 0.3191645 0.096839 0.0451904 0.04012803 0.008050998 0.18610634 -0.05834547
-0.028177537 -0.05228671 0.21707903 0.22140755 0.27717832 0.21058208 0.101964794 0.021277426
0.30494842 -0.036960218 0.000232677 0.013312921 -0.072596304 0.06719824 0.022685302 -0.01862718
-0.029476186 -0.082348 -0.07464602 -0.004308039 0.0773926 -0.07509413 -0.07650207 -0.009648519
-0.08045099 -0.037455212 0.033603612 0.15272313 -0.008607154 0.046108693 -0.011732424 0.037798632
-0.0058371895 0.102119535 0.0051910304 -0.0077556265 -0.02892981 -0.027760327 -0.0063150423 -0.087486334
0.045365 -0.010180944 -0.047982264 0.079474404 -0.013622756 0.06787754 0.25614423 0.03684091
0.02359205 0.43026388 0.14588521 0.023332197 -0.018279733 0.034438018 -0.017251961 0.18730798
-0.009270339 0.024915569 -0.05131419 0.055378057 0.02383911 -0.013474548 0.062134903 0.2749405
0.0022984361 -0.037966896 0.12321801 -0.015601236 0.07004397 -0.04436216 -0.037885953 -0.006165966
0.20514014 0.026844732 0.046693213 -0.08526519 -0.06449431 0.01770974 0.45896456 -0.047842283
0.19368003 0.060805 0.03297756 0.08021612 0.056279078 0.04616383 -0.0071607735 -0.063083276
0.060089726 0.1747035 -0.004982293 -0.009785573 -0.051586565 -0.0102721285 -0.009712752 0.10471485
0.15554237 0.1418532 -0.06291741 0.026616745 0.010090107 0.13126004 0.0008202224 0.34590107
-0.066468276 -0.069306105 0.033198852 0.32158807 -0.0060961107 0.013271579 0.20422707 -0.049115874
0.0005119147 0.21734527 0.08990042 -0.008882773 -0.02134288 -0.07035844 -0.06867839 -0.057335373
-0.030049281 0.3262882 0.08624967 0.07537513 0.025494158 0.0356933 0.19150947 -0.032978594
0.0043153134 0.077161476 0.21024436 0.21121958 0.29364583 0.2421092 0.1242081 -0.040309254
0.32415468 -0.060896583 -0.03732905 -0.057037547 -0.041019715 7.4777665e-05 0.0005028569 -0.0017586054
-0.0069012647 -0.027609257 -0.02234154 -0.010196845 0.07430101 0.08893771 -0.019641394 0.020987526
0.041991565 0.0830695 -0.066985324 0.14385334 0.021857904 -0.009948389 -0.077497296 0.073425144
-0.07630423 0.116513915 -0.011178468 -0.052828923 -0.028521096 0.058060635 -0.018096542 0.07116809
-0.07150874 -0.028875701 -0.06861653 0.09427452 -0.040894035 0.036545362 0.2879757 -0.06028331
0.05396033 0.43919972 0.14210458 -0.06957639 -0.016251344 0.03313757 -0.049301486 0.1952761
0.06386608 -0.065979645 0.037849918 -0.043287918 -0.08092217 -0.0544282 0.08223822 0.30458453
-0.04539658 0.0725501 0.1278343 -0.07044705 0.072857715 0.030585019 -0.0558094 0.04201954
0.20042877 0.03612231 -0.029749822 0.00712873 -0.046756893 0.01641016 0.47997105 0.05727989
0.22346456 0.014145974 0.039413344 0.0702976 0.08195231 -0.07520474 0.035137102 0.060332388
0.057773817 0.17398311 0.057319768 0.008311918 0.074818544 0.027673118 0.0026571678 0.111343965
0.16580765 0.14571927 -0.041091397 -0.0224065 -0.005979327 0.12531446 -0.02714198 0.35394558
-0.06599511 -0.0109943785 -0.063397296 0.3515766 0.0022754571 -0.00696531 0.20868218 0.020984426
0.0064438945 0.22779259 0.09734631 0.005738999 -0.006287635 0.080997586 0.022576714 0.037692882

l3.bias f4 [52]
00000000: 7309 6f40 2f71 cd3f ea85 0e3f f53f 913c
00000010: a708 6e40 a450 df3f 30dd be3e 3f42 e33c
00000020: b8ab 6e40 1772 d93f e537 e93e 9042 f23d
00000030: 1956 7740 0ca1 cf3f 74bb 093f e239 203e
00000040: 0bef 6e40 aec1 d73f 04f8 da3e a8ef d83c
00000050: 0af7 6b40 198e d03f 076d f43e be00 783d
00000060: b521 7340 65cd dd3f 5193 c43e 3632 043e
00000070: 160c 7340 3e4e e43f 8749 053f bd3b 673d
00000080: 7755 7740 5740 cd3f 80f1 e03e 2522 f23d
00000090: 7c36 7140 ef84 cf3f 13d2 d83e 2486 e73d
000000a0: 1e84 6c40 356e dd3f 7fa4 fd3e 6e67 a63d
000000b0: d271 7740 0a42 cf3f a87d e63e 518c 573d
000000c0: 65b4 7740 ace5 cb3f 5a2f 0d3f 29ef 293c
3.7349517 1.6050166 0.55673087 0.017730692 3.719278 1.7446485 0.37278128 0.02774155
3.7292309 1.6987942 0.45550457 0.11829102 3.86463 1.6221023 0.53801656 0.1564708
3.73334 1.6855981 0.42767346 0.026481465 3.686953 1.6293365 0.4773943 0.060547583
3.7989323 1.7328306 0.38393643 0.12909779 3.7976127 1.7836378 0.5206532 0.056453455
3.8645914 1.603526 0.4393425 0.11822919 3.7689505 1.6212443 0.42347774 0.11304882
3.6955638 1.7299258 0.49539563 0.081251964 3.866322 1.6192029 0.45017743 0.05262405
3.8703854 1.5929465 0.5515038 0.010371962

fc1.weight f4 [64, 7]
00000000: f754 afbe 1fff 763d fdaf 3b3e cba3 a4be
00000010: 8ad7 1dbe 305c a53e cec5 62be 23f2 0dbd
00000020: 1531 8cbe 9264 28be 487e 733e 9d07 033e
00000030: 14b9 a8be cc37 9e3d c2bd 13be 06d7 223d
00000040: 6b91 0dbe cbf7 0a3e e745 73be d5c8 bbbe
00000050: e2f2 a13e df5b 803e 9f42 af3e e2e6 1e3e
00000060: 3040 0cbe f020 133d 6212 3f3c 2b6a 8fbe
00000070: 278b 6abe b093 26bd a82d b9bd 3867 713d
00000080: 7e6e 0dbe 10ad 7dbe 5c37 cfbd 1d80 9a3d
00000090: a243 813e abd9 f0bd 0696 123e 5c62 9f3d
000000a0: fd68 083e 093a 023d 6242 f73d 1d72 a5be
000000b0: be33 d13c 5390 88be fd00 253e 60f5 39be
000000c0: be01 c8bd 395e ab3e 9436 29bd b601 48be
000000d0: db8d 9b3e 2395 54be 24f0 893e 2dfd 26be
000000e0: 47c6 05bd 20fe c53e a4ba 04bc faac f2bd
000000f0: 8f33 05be d0e5 f13d 39cc 33be 2381 c03e
00000100: 1b43 023d 7af5 62bc c885 5a3c b08a 253d
00000110: d440 8abe ae0f eb3b 409b aebe 5015 f8bd
00000120: 84ac b9be b467 783e 96c6 553e 4bd2 6bbe
00000130: 8b3d bb3e eed3 4e3e 94ea 91be 5c9c 323e
00000140: 429c a43e 3e5b 9a3e 2156 193e ed22 a23d
00000150: 58d1 bc3e cb2c bbbe e32a aa3d 8665 69be
00000160: e2b5 893e 1dd4 bbbd 4e20 bb3d d8b0 4fbe
00000170: 9d9c 79be d77e 3bbe 2443 72bb 73d6 5d3e
00000180: 3672 af3e 29c5 453e 0b73 1cbe 9de9 943d
00000190: b785 44be e703 cc3d d656 ba3e 4dda ccbb
000001a0: 620e 9dbe 4eac 4e3e d9ba b83e 59c6 473e
000001b0: e0f4 49bc 8beb 183d 4eff 75be d11c 79bd
000001c0: 5fa7 9d3d 257d c6bc 163e 853e d03e 803e
000001d0: 5999 02bd 193c a73e ab1d b2be 11c3 8f3e
000001e0: 8ea4 883d 3b0f 563d c7a0 1f3e edd7 933e
000001f0: c9c8 a1be d920 b1be f41b 863e 341e 62be
00000200: eb94 fcbb 8b7f ab3e c1e3 bcbe 5c43 843e
00000210: ebb4 7d3d 2617 103c 70c7 273e d78a 903e
00000220: cb5b 483d 5f4a 4bbe 0708 073e e8a9 8abe
00000230: fc84 cabd 0888 bebe b80f 5bbd 7336 22be
00000240: 1e2d 223e cba8 93be 4f19 a1be 9fb8 a63e
00000250: d66b 78be cf86 acbe f276 703e 6785 433e
00000260: b658 613d 882a 903e 338e 193e b9f1 593e
00000270: 2a92 cabd 5341 93be db45 a93d d69a 303e
00000280: 81de 9abe a30e 1ebe ce85 29be f301 65be
00000290: 1b25 8dbe d9e9 dfbd 1f91 3dbe 5f96 a83e
000002a0: 0da1 d8bc f538 3b3e 55e2 3d3e a322 373e
000002b0: f958 dc3d 4846 693d 15e7 3c3d 8a5c a9be
000002c0: 80f2 b3bc 5a44 ae3e 01f3 343e d3db 3f3e
000002d0: 3874 a9be cbcf 923e 4cbe 67bd 1390 f53d
000002e0: 53f2 debc 58c3 983e 872c d33c 9953 51be
000002f0: 6e0f 7bbd 10e1 a53e 621d 8dbe 31c2 6bbe
00000300: b21e c7bb 9e07 99be cf4c 2a3e b2dd 413e
00000310: 5655 1d3e 63c1 523e ec29 86be 1dc0 1fbe
00000320: 0d78 9c3e 5124 b43e c3c2 adbe bc3f 9d3e
00000330: 6cce 313e 767b e33d a3c0 16be 011f b4be
00000340: 0341 ecbd b4b7 f8bd 6aa9 843e 6642 61be
00000350: c24d 123e 5c14 b23e 94e6 8ebe 9364 a03d
00000360: f3ae 33bd 8fd4 b83e 0893 aabe c3af a93e
00000370: 6501 9cbe f397 9a3e 9a14 183e 803d c93b
00000380: 3c20 ae3e 63ea d5bd 15dd 95be cd1f 8fbe
00000390: 97e5 4dbe b20b 483e 43cc 703e 8f3d 643d
000003a0: e71c 343d 4794 2b3c 5c7c a4be 93a1 633e
000003b0: 9919 993e 4703 bcbe 668e 58bd 54a9 ce3d
000003c0: ad0f ba3e 0c83 c13e a05a 7d3d fb02 843e
000003d0: 8ff6 65be d818 aa3c c037 eb3d 73b7 a6be
000003e0: 5ebc 663d e51b 9bbe 5d88 0d3d a971 1c3d
000003f0: 4d0a 7a3e 865e 73be c43f b5be 5a13 1abe
-0.3424451 0.060301896 0.18328853 -0.32156214 -0.15414253 0.32296896 -0.22145769 -0.034654748
-0.27381197 -0.16444615 0.23778641 0.12795873 -0.32953703 0.07725486 -0.14427856 0.039755844
-0.13825004 0.13571088 -0.23757134 -0.3667666 0.31630617 0.25070092 0.34230515 0.15517762
-0.1369636 0.035920084 0.011662098 -0.28010687 -0.22904645 -0.04066819 -0.09041911 0.058936328
-0.1381168 -0.2477305 -0.10117981 0.07543967 0.25246912 -0.11760267 0.14315042 0.077824324
0.133213 0.031793628 0.120732084 -0.32313624 0.025537368 -0.2667261 0.16113658 -0.1816001
-0.09765957 0.33470324 -0.041311815 -0.19531903 0.30381665 -0.20760016 0.26941025 -0.16307516
-0.032659795 0.38670444 -0.008101139 -0.11849399 -0.1300795 0.118114114 -0.17558374 0.37598523
0.031802278 -0.0138524715 0.01333756 0.040415466 -0.27002585 0.0071735 -0.3410282 -0.1211344
-0.3626443 0.2425831 0.20876536 -0.23029439 0.3657039 0.20198032 -0.2849928 0.17442459
0.32150465 0.30147737 0.14974262 0.07916818 0.36878467 -0.36557612 0.08308961 -0.22792634
0.26896578 -0.09171317 0.09137021 -0.20282304 -0.2437615 -0.18310104 -0.0036966288 0.21663837
0.34266824 0.19313492 -0.1527826 0.07271121 -0.19191633 0.09961682 0.36394376 -0.0062516094
-0.30675036 0.20182917 0.36080053 0.19509257 -0.012326449 0.037334006 -0.24023172 -0.060818497
0.07697939 -0.024229595 0.2602393 0.25047922 -0.031884525 0.32663038 -0.3478826 0.2807851
0.06672011 0.05226062 0.15588675 0.28875676 -0.315985 -0.34595373 0.26193202 -0.22081834
-0.007708182 0.33495745 -0.36892512 0.2583264 0.061940115 0.0087945815 0.16384673 0.28230926
0.048915666 -0.19852589 0.13186656 -0.27082753 -0.09888646 -0.3721316 -0.053481787 -0.15841083
0.15837523 -0.28839716 -0.3146462 0.3256273 -0.24259886 -0.336966 0.23482874 0.19093858
0.055016242 0.2815745 0.14995651 0.21283616 -0.0989116 -0.28760776 0.08265277 0.17246565
-0.30247882 -0.15435271 -0.16554949 -0.22364025 -0.27567372 -0.10933275 -0.1851239 0.32927224
-0.026443982 0.18283446 0.1854337 0.17884307 0.10759158 0.05695179 0.046118814 -0.33078414
-0.021966219 0.34036523 0.17670824 0.187362 -0.3309648 0.28674158 -0.056577966 0.119903706
-0.027215159 0.29836535 0.025778068 -0.20442046 -0.06129401 0.32398272 -0.2756148 -0.23023297
-0.006076657 -0.29888624 0.16630863 0.18932226 0.15364584 0.20581584 -0.2620386 -0.15600629
0.3056034 0.35183957 -0.33937654 0.30712688 0.173639 0.11107533 -0.14721923 -0.35179904
-0.115358375 -0.121444136 0.25910503 -0.21997985 0.14287475 0.34781158 -0.27910292 0.07831683
-0.043868016 0.3609967 -0.333153 0.33141908 -0.30469814 0.30194053 0.14851609 0.0061413646
0.34008968 -0.10445096 -0.29270235 -0.2795395 -0.20107113 0.19535711 0.2351542 0.05572277
0.043972876 0.010472364 -0.3212613 0.22229604 0.29902342 -0.3672125 -0.052870177 0.100908905
0.36340085 0.37795293 0.061854005 0.25783524 -0.22457336 0.0207638 0.11485243 -0.32561836
0.056331985 -0.3029472 0.034553874 0.038194332 0.24417992 -0.23766527 -0.35400212 -0.15046445

fc1.bias f4 [64]
00000000: c7d7 983e bcd6 463e cd05 063e c065 a6bd
00000010: 90e9 90bd d510 a7bd c6b2 3fbe eff9 02be
00000020: 3b64 863e a31e 04bd 4842 a3be cb9b a43e
00000030: c69b 6c3e 5ce0 433e 23f6 0e3e 94c4 b93e
00000040: 8b0c 9ebe bdd9 fc3c dc3e c7bd f4e7 5fbe
00000050: 9d53 5cbe 00ac b4bd 540c 65be 4cb2 5c3d
00000060: a3f5 7a3d 1d68 e33d f650 013e ac59 4e3e
00000070: 14d4 963e e160 80be 4166 1fbe b30c 453e
00000080: a93c a73e 06ec 9c3d 3c35 343c 70bf babd
00000090: ab8f 72be 7e87 403d 0552 bc3e a6cb 763e
000000a0: 0c9f 38be d706 8ebe 99b5 27bd 8521 bd3c
000000b0: 1a26 b93e 9ef0 b3be 597f eabc 0bc4 f53d
000000c0: cc6b 14bc cf27 633e 39c1 82bd 6fc3 e8bd
000000d0: 503b 2fbe a07d 08be eda7 7a3e 1ba4 19bd
000000e0: 8a12 83bd 0202 13be 29aa 7abe a0b9 a73e
000000f0: 9d4a 32bd c442 87be 39ef abbe f661 b7bd
0.29852125 0.19417852 0.1308815 -0.08124876 -0.070757985 -0.08157507 -0.1872054 -0.12790655
0.26248345 -0.03225578 -0.31886506 0.3215011 0.23106298 0.19128555 0.13961081 0.3628279
-0.30868945 0.030865544 -0.09728786 -0.21865827 -0.21516271 -0.08821869 -0.22367984 0.053880975
0.061269414 0.111038424 0.1262854 0.20151395 0.29458678 -0.25073913 -0.1556635 0.19243126
0.32663468 0.076622054 0.01099902 -0.09118545 -0.23687617 0.047004215 0.36781326 0.24101123
-0.18029422 -0.27739593 -0.04094467 0.023087272 0.36161882 -0.35144514 -0.028625177 0.12000283
-0.009058904 0.22183155 -0.063845105 -0.11365401 -0.1711247 -0.13329172 0.24478121 -0.03751002
-0.064000204 -0.14356235 -0.24478973 0.32758808 -0.043528188 -0.26418126 -0.3358095 -0.089542314

fc2.weight f4 [64, 64]
00000000: 047a c339 62d9 a5bd ced6 4d3d 97b5 803b
00000010: b07d f53c e0bd b93c 685b 1d3d 47ea cd3d
00000020: 1722 c5bd ccc2 61bd 9203 223d 0080 d6bd
00000030: b09a c6bd c77a a5bc 2531 6e3d 39ff 14bd
00000040: 0065 263c d9b6 013d 0f84 a1bd 6bd6 bc3c
00000050: 3eab b5bd cc1e a4bd bc71 fa3c 46ac 4dbd
00000060: 1e8a c4bd 6ec5 5cbc 411e d4bd f2a7 cf3d
00000070: c278 8abc 2e21 17bd 96dd d63c b050 fb3d
00000080: 661c aebc 8bb6 38bd d766 d23d d854 c93c
00000090: f1cb 19bd 4538 393c 9c86 913d 8ea2 c4bd
000000a0: 03ae eebd a946 873d 280e 4cbd 6dd3 ed3d
000000b0: 77fe c8bd 1e07 363d 9bee 573d ec56 443d
000000c0: 8554 37bd 488f a63d a556 e6bd 5bdc 953c
000000d0: fe69 ba3d d468 6e3d b2e0 dabc 2dc4 df3d
000000e0: 1992 c1bd 9469 99bd 2049 593d 2b42 f03d
000000f0: 3ed6 94bd 1483 96bd 4bff 963d e8cb e3bd
00000100: b8c0 92bd 78bc c43d 9866 cebb 9486 153d
00000110: f2fa 8bbd d1fa c3bd 5114 a93c a37a 9b3d
00000120: 1db3 bebd 7b4e 9a3d 51f7 6fbd 176d b4bd
00000130: c8ae 82bd 7449 c0bd 1abb e63d 28d1 68bb
00000140: 3dd6 bcbc b244 e03d dd1a fb3d 9e5c dbbd
00000150: 5c6f bb3d 586b bcbd dcc3 fe3d 0d03 613d
00000160: 4fe6 263b fc77 28be 4ccf c7bc 53f4 d4bd
00000170: 8826 fcbc b60a 57bd c088 3c38 5331 353c
00000180: 65c4 a03d 2713 e43d fe99 cbbd 5031 923d
00000190: 80ed 9bba 2069 cebd 0e3e 7ebd 5b6c a8bd
000001a0: 414c 41ba 8752 353d c290 bcbd 1ee8 d53d
000001b0: 0331 16be bcbd 07be 8911 f6bd eee7 123d
000001c0: 5ed2 893d 6091 e83d d4ff 633d 82e6 8dbd
000001d0: 5d44 a6bd 60db a13b b568 3b3d 2825 85bc
000001e0: f516 0bbd 623a b53d 2915 a1bd 3080 cdbb
000001f0: 01f8 cc3d ec03 ea3d e25f b13d d7b7 a3bd
00000200: dff4 8cbd 280d 053c 3f02 9f3d 8999 1f3d
00000210: 422c cfbd 52fb d93d b6bd 6ebb 506e 313d
00000220: 2a86 dc3d 1df8 acbd 9ba4 38bd 7e03 0abe
00000230: c1d0 c13d bc46 19bc fc0f d4bd a750 85bd
00000240: 94d9 eb3c 6736 a23d e2c5 17bd 4e88 47bd
00000250: bcfd 6f3d e532 8d3d 1a37 c23d d575 97bd
00000260: e488 d83d af8c 68bd e7f7 4c3d cf30 203d
00000270: d4de 073e 960d ba3b 7086 0fbd 765b 17be
00000280: 36c7 e4bd 14ce b53c 240a d73a 2571 8abd
00000290: c608 63bd 3e2c aabd a8d8 3e3d 423f 79bd
000002a0: 8058 b2bc 73ef 8b3d 93a2 e3bd bf13 7fbd
000002b0: 8726 b1bd be38 bbbb 86b4 e43d f194 a93d
000002c0: bf34 5cbd fb54 93bd 9585 cf3d 722a 2fbd
000002d0: 42b8 2c3d 7856 bf3c fb41 fbbd e9a3 c4bc
000002e0: 8b73 20bc f0ac dcbd 8243 de3d f3a4 c2bb
000002f0: 17ac 0b3d 8c4b c83d f718 60bd 6327 fcbd
00000300: 5a19 06bd 290b 713c fdb3 ad3d 90aa d7bd
00000310: 1834 87bc 64b9 de3d cf42 17bd e4a2 74bd
00000320: aed2 293d 7666 483d 258e abbd 357b e93d
00000330: 4658 883d 0fe6 d73c c93c 2dbd 8841 96bc
00000340: a6e4 81bb 5b97 0e3d 6241 393d 668d 9cbd
00000350: b4cf 59bd 6c4a e83d a2dd ae3d d108 b5bc
00000360: f3d9 2cbc 6c82 7abd c03f cdbb ff6c e8bd
00000370: 3348 4d3d f594 503d 2c7b e63d f399 ca3d
00000380: 16fc 12bc 7768 b9bb 0b2c 973d eb0c b23d
00000390: cc3a cebd 28cd 043e d5d5 813d 6c17 ae3b
000003a0: a05a 313b 1308 273c 9cc0 fabc 84b1 28bd
000003b0: d378 98bc 4ade b23c 8584 05bd dc03 aabd
000003c0: a9ba 86bd 597d debd d1e4 c2bd 84cd b7bc
000003d0: dc3b b4bd 1a1e f83d 64bd c9bc b324 07bd
000003e0: 7de3 ad3d 1b33 553d 06eb 2f3d c217 64bd
000003f0: 18af 13bd 6590 9f3d 018b 3cbd 16d2 bcbc
0.00037284207 -0.08098103 0.05025368 0.003927897 0.029967159 0.022673547 0.03841725 0.100544505
-0.09625643 -0.055117413 0.039554186 -0.10473633 -0.09697473 -0.020200146 0.058152337 -0.03637621
0.010155916 0.031668518 -0.07886516 0.023051461 -0.088705525 -0.080136865 0.03057181 -0.05021312
-0.09596656 -0.013474805 -0.10357333 0.10139455 -0.016903285 -0.036896877 0.026228707 0.12271249
-0.021253776 -0.04509596 0.102735214 0.02457659 -0.03754801 0.01130492 0.07105753 -0.09601317
-0.11654284 0.06605274 -0.049818188 0.11612592 -0.0981416 0.04444038 0.052717786 0.047934458
-0.04475834 0.081327975 -0.11246995 0.01829355 0.09102248 0.05820544 -0.026718471 0.109260894
-0.09451694 -0.074908406 0.053048253 0.117313705 -0.07267426 -0.0734922 0.07372912 -0.111228764
-0.071656644 0.0960626 -0.006298851 0.036505297 -0.068349734 -0.09569324 0.02063957 0.075917505
-0.09311507 0.075345 -0.05858547 -0.0880987 -0.06380993 -0.0938901 0.112661555 -0.0035525057
-0.023051376 0.109506026 0.12260983 -0.10711025 0.091520995 -0.09200162 0.12439701 0.05493455
0.0025466864 -0.1645202 -0.024390839 -0.10398164 -0.030780092 -0.05250045 4.495005e-05 0.011059123
0.07849959 0.111364655 -0.09941481 0.07138312 -0.0011896342 -0.10078645 -0.0620709 -0.08223792
-0.00073737284 0.044268157 -0.09207298 0.104446635 -0.14667134 -0.13255972 -0.12015063 0.035865717
0.067295775 0.11355853 0.0556639 -0.069287315 -0.08118508 0.0049394816 0.045754153 -0.016253069
-0.03395744 0.08849026 -0.07865364 -0.0062713847 0.100082405 0.11426529 0.08660866 -0.07994049
-0.06882643 0.0081208125 0.077641 0.038964782 -0.101158634 0.10643639 -0.0036428994 0.043318093
0.10767777 -0.08445761 -0.045078855 -0.13477895 0.09463645 -0.009355243 -0.10354611 -0.06509524
0.028790273 0.07920533 -0.03705395 -0.048713975 0.05859159 0.06894473 0.09483166 -0.073955216
0.10572985 -0.05677479 0.050041106 0.039109048 0.13268596 0.005677889 -0.03504032 -0.14780983
-0.11170809 0.022192992 0.001640622 -0.06759862 -0.05542829 -0.0830922 0.04659334 -0.060851343
-0.021770716 0.06832781 -0.11114993 -0.06227469 -0.08649927 -0.0057135513 0.111672446 0.082803614
-0.05376124 -0.07193943 0.101329006 -0.04276509 0.04216791 0.023356661 -0.12268444 -0.02400394
-0.009793173 -0.10775173 0.1085272 -0.0059400736 0.034099665 0.097800344 -0.05471131 -0.123122
-0.03273902 0.014712133 0.08481596 -0.10530579 -0.016504332 0.10875204 -0.036928948 -0.059725657
0.041460685 0.04892584 -0.08376721 0.11400453 0.06657462 0.026354818 -0.042294297 -0.018341795
-0.0039640246 0.034812313 0.04522837 -0.07644157 -0.053176597 0.1134232 0.08538367 -0.02209893
-0.01055001 -0.061159536 -0.006263703 -0.11348914 0.050117683 0.050923306 0.11253962 0.09892645
-0.008971235 -0.005658205 0.073814474 0.0869387 -0.10069808 0.12968886 0.06339613 0.0053128507
0.0027062073 0.010194796 -0.030609421 -0.041184917 -0.018612301 0.021834511 -0.032597084 -0.08301517
-0.06578571 -0.10863752 -0.095162995 -0.022436865 -0.0880048 0.121151164 -0.024626441 -0.032993983
0.084906556 0.05205069 0.042948745 -0.05568672 -0.036055654 0.07791213 -0.046031002 -0.023049396

fc2.bias f4 [64]
00000000: 9778 f33d c3d8 bebd 6ff9 d43b 9ae7 b1bd
00000010: 8b25 5b3d 68ff bc3d 2371 8bbd 6a8d b33d
00000020: 6b8c 61bd 3294 cdbd f1a4 433d 57d4 063d
00000030: 0b33 5fbd 0800 a03d 1366 263e fe38 c93d
00000040: 5a09 0cbe 47f8 e73d 4085 dc3d de4f c63d
00000050: a656 0f3d 5ca3 b93b 73d5 0e3e 64e5 8f3d
00000060: 839f 753d 4833 753d dff4 b9bd 6c53 873d
00000070: 7a9b aabc c19f a5bc 6a53 afbd 734c 7ebd
00000080: 1f07 90bd e1d5 0cbd 8558 823d 5951 e7bc
00000090: 2fbf 91bd a896 443e 766b 6abd f911 4b3d
000000a0: fdad a23c df55 cb3d 42a0 56bc 2b73 c5bd
000000b0: c892 b3bd 1ddd 763d a9eb 2f3c 4391 debd
000000c0: 1ffe 853d ac32 a3bd 9fb7 cc3d 9f32 eabd
000000d0: 95c9 503d ffd1 c5bd 0f04 a83c f416 8f3d
000000e0: 233a b33d 885a 3c3d a2ac 09bd 058c 003e
000000f0: 472c 4dbc 20f8 c93d ce80 8abd 9156 ccbd
0.11888235 -0.09318688 0.0064994614 -0.086867526 0.0535026 0.092284024 -0.068086885 0.08767207
-0.055065554 -0.10038032 0.047764722 0.032917347 -0.054492038 0.07812506 0.16249876 0.098253235
-0.13675442 0.11326652 0.10767603 0.09683202 0.034994744 0.005665226 0.13948612 0.07026175
0.059966575 0.05986336 -0.090799086 0.06607708 -0.02082609 -0.020217778 -0.08560832 -0.062084626
-0.07032608 -0.03438366 0.0636454 -0.028237032 -0.071165435 0.19198096 -0.05723139 0.049577687
0.019858355 0.09928488 -0.013099732 -0.09641107 -0.08768231 0.060269464 0.010737338 -0.1086755
0.065426104 -0.07968649 0.099959604 -0.114354365 0.050973494 -0.09659194 0.020509748 0.069868
0.08751323 0.045984775 -0.0336119 0.12553413 -0.012522764 0.09861779 -0.06762849 -0.09977449

fc3.weight f4 [1, 64]
00000000: 768d 8e3c 4148 cdbd 8b30 33be c6d0 6bba
00000010: 5aca 4fbe b16a 3dbb 065f a63d 8e19 c536
00000020: 3759 af3d d495 bdbc 23f4 073e 8a76 e2bd
00000030: b8e7 2639 3ac4 fdbd 2045 573e c8cc 16bd
00000040: cbba 4abe f165 cfbd 9819 183e 808b a53d
00000050: 7a40 983d 9df5 883d 6379 db3d 82b4 d7bd
00000060: 05d4 09bd 029d a13b 8f16 603d e39e 8d3d
00000070: 8fdd 593a bfbf d93d b5f7 9bbd 784d d1bd
00000080: 399f 66bd 6394 f03a 9b23 42bc 5606 c63d
00000090: 60b8 513e 8835 973e 2f99 fe3d 9d38 d6bd
000000a0: 4d15 8e3c 62c4 c3bc 7470 5dbd 7953 9a3c
000000b0: b14a 00bd 4015 3a3d 2363 343e 2e56 72be
000000c0: b676 133d e4a9 763d b198 ce3d 997e b1bc
000000d0: c9d4 813d 3e6f bc3d 3162 3bbd 0d20 d13c
000000e0: 584f 023e 248e 96bd 5d98 233e 8e29 1f3e
000000f0: 8b8d b5bd 2aa3 683d ce29 cc3d 7408 e0bd
0.017401438 -0.10023547 -0.17498986 -0.0008995648 -0.20292035 -0.0028902704 0.08123593 5.8740325e-06
0.08561938 -0.023142733 0.13276725 -0.11057766 0.00015917316 -0.12390943 0.21022463 -0.03681639
-0.19797818 -0.10126866 0.14853513 0.08083248 0.07434173 0.06687472 0.10716512 -0.10532476
-0.033649463 0.004932047 0.054709014 0.06915071 0.0008310908 0.10632276 -0.07615606 -0.10219854
-0.05630419 0.001835477 -0.011849309 0.09669177 0.2048049 0.2953303 0.12431561 -0.10460017
0.017344141 -0.023897354 -0.05406232 0.018838631 -0.03132123 0.04543042 0.17615943 -0.23665687
0.036001883 0.060220614 0.10087717 -0.021666812 0.06339414 0.09200905 -0.04574794 0.025527978
0.1272558 -0.0735133 0.1597609 0.15543196 -0.08864888 0.05679623 0.09968911 -0.10939112
