agent_weights/30000_simple_agents_bs_policy.pth (torch, 62482 bytes, 11 tensors)

actor.0.weight f4 [64, 45]
2.1354215 0.022979487 -0.027719209 -0.031242477 -0.10139734 -0.097992636 1.4028729 4.0564117
5.6731954 -6.3301344 3.4273865 2.0939457 -1.9158677 3.7908013 -0.97525513 1.5880767
4.463329 8.392681 -9.807931 -6.7896824 8.878996 7.2629104 6.4293427 5.0251656
4.0376205 -4.575843 -8.559296 0.33925086 9.549683 -0.08135353 -6.572989 0.33934358
5.495918 3.6701157 9.936511 7.0412564 -1.5422341 -1.4654663 -6.3495774 4.9759717
-0.40433177 4.595304 3.7173293 4.545233 8.201092 2.5607483 -0.14354463 -0.090375416
0.053164095 -0.08481373 0.004688205 -3.2451272 -15.441223 11.497352 -1.3278803 -0.8940694
-12.564746 -4.045308 -4.655783 0.1347253 -1.1080453 8.385324 -9.388008 4.2764306
-3.8296344 8.472091 -9.823177 -1.0026306 4.829021 -1.1225944 -5.63465 -1.0716166
5.9200773 -7.5298815 0.015672754 0.21381521 4.997019 4.1745944 -12.638919 0.6488338
-0.37190935 11.070926 -5.552821 -4.5583177 -8.51171 -1.6903238 0.2272295 5.4247875
-2.9004257 -0.8137363 -2.6011178 -0.102436304 0.01724649 -0.018257678 -0.12725022 0.12548119
5.6970773 -3.5527868 -7.3400397 -4.378233 2.7429838 5.492248 -3.236617 -2.9665844
3.5873592 -4.9339786 7.444782 -2.2018323 0.7484091 -7.8075943 1.4178036 2.0598996
7.0158343 0.8821466 -4.0364428 9.2632885 5.58581 2.222375 -10.94256 -0.12953603
3.5689578 -5.0764656 -0.47342888 2.7274914 4.639041 -6.5509663 -8.469795 1.4556762
9.797462 5.242921 -9.754977 3.0526927 -3.945962 0.6098773 4.2549386 -1.6721573
-0.07005565 0.023932014 0.008284953 -0.100046985 0.11015793 -5.555041 0.1405714 -2.9335127
-6.929508 7.1821933 -0.013623779 4.7888165 1.4705791 -6.948775 0.71706164 0.9391166
-6.3771496 -2.8898308 -4.0004363 -6.8289676 1.0130628 -1.4213619 1.9598132 2.6214454
1.1998214 -7.168706 -0.16144988 -6.1709347 -0.14310896 -4.516883 3.0169406 4.510236
-2.2581265 7.067365 -3.462867 4.7403655 -11.789591 4.6278687 -5.0609713 10.254301
-6.3828907 -3.147082 -11.599569 0.96068585 -4.9331875 0.14015973 -0.11498256 0.049583517
-0.09987317 -0.07873721 -2.0481017 -0.7940665 -0.52231735 -5.195203 -3.466298 0.072312735
-4.0652976 -2.3161557 -0.9470832 1.2008524 0.15581982 0.18129136 1.1845863 -6.110966
-1.0397846 -1.9042425 0.12285492 -0.85926706 -1.244542 -3.539508 -0.5253251 -1.3422245
-5.4326806 -0.12361511 -1.719138 -0.6660571 -1.0892812 -1.5217896 -2.5456192 -4.346842
-2.992545 1.3717344 -1.9451891 -1.167237 -1.0765442 -3.7782109 -0.5182189 0.29520386
-3.02571 1.777547 -0.105905265 0.014738462 -0.06511945 -0.011963518 0.052642204 -1.4154274
1.4184592 -5.225068 4.470696 3.0951362 -5.1506343 4.007637 -1.3061758 6.9376698
15.989412 1.9657401 -2.3012848 -5.0116034 -1.1603565 0.53984207 9.216874 3.6524847
3.0511508 4.7414336 -0.9621792 -0.07457088 11.356277 -11.213508 0.055361632 1.4064765
00000000: bfaa 0840 7a3f bc3c 6513 e3bc 39f0 ffbc
00000010: 69a9 cfbd 5db0 c8bd 5791 b33f 20ce 8140
00000020: d18a b540 7690 cac0 4d5a 5b40 3503 0640
00000030: 273b f5bf 7d9c 7240 52aa 79bf 1946 cb3f
00000040: 97d3 8e40 6c48 0641 49ed 1cc1 1445 d9c0
00000050: 5e10 0e41 c369 e840 2dbd cd40 28ce a040
00000060: 3034 8140 4e6d 92c0 e0f2 08c1 4ab2 ad3e
00000070: 80cb 1841 ae9c a6bd ed55 d2c0 71be ad3e
00000080: 8fde af40 2de3 6a40 f3fb 1e41 f951 e140
00000090: ed67 c5bf 6694 bbbf bd2f cbc0 293b 9f40
000000a0: 9304 cfbe bb0c 9340 b9e8 6d40 8c72 9140
000000b0: ac37 0341 4de3 2340 5dfd 12be bf16 b9bd
000000c0: 98c2 593d d2b2 adbd 849f 993b 2ab0 4fc0
000000d0: 400f 77c1 27f5 3741 fbf7 a9bf bbe1 64bf
000000e0: 3309 49c1 2a73 81c0 2dfc 94c0 6ef5 093e
000000f0: 6ed4 8dbf 492a 0641 4835 16c1 85d8 8840
00000100: bb18 75c0 af8d 0741 bc2b 1dc1 3356 80bf
00000110: 5787 9a40 2cb1 8fbf 0e4f b4c0 bc2a 89bf
00000120: 4671 bd40 caf4 f0c0 2664 803c 60f2 5a3e
00000130: 94e7 9f40 4796 8540 0339 4ac1 f919 263f
00000140: e76a bebe 8322 3141 b6b0 b1c0 bddd 91c0
00000150: f72f 08c1 885c d8bf daae 683e dc97 ad40
00000160: 93a0 39c0 0651 50bf b778 26c0 20ca d1bd
00000170: 8348 8d3c 2091 95bc e24d 02be 247e 003e
00000180: 754e b640 dc60 63c0 9be1 eac0 7c1a 8cc0
00000190: 0c8d 2f40 7fc0 af40 bc24 4fc0 85dc 3dc0
000001a0: 4b97 6540 27e3 9dc0 a73b ee40 d2ea 0cc0
000001b0: bd97 3f3f d0d7 f9c0 977a b53f 65d5 0340
000001c0: b781 e040 5cd4 613f 8a2a 81c0 6e36 1441
000001d0: f5be b240 643b 0e40 ba14 2fc1 18a5 04be
000001e0: ce69 6440 6872 a2c0 4565 f2be 388f 2e40
000001f0: 0673 9440 84a1 d1c0 4884 07c1 9953 ba3f
00000200: 68c2 1c41 02c6 a740 6314 1cc1 515f 4340
00000210: a48a 7cc0 eb20 1c3f 7528 8840 4009 d6bf
00000220: 5679 8fbd 120d c43c 9dbd 073c 6fe5 ccbd
00000230: 7b9a e13d e5c2 b1c0 f3f1 0f3e acbe 3bc0
00000240: 88be ddc0 87d4 e540 4536 5fbc fc3d 9940
00000250: f03b bc3f 5d5c dec0 5a91 373f f269 703f
00000260: 9c11 ccc0 fdf2 38c0 9303 80c0 e786 dac0
00000270: 0bac 813f 30ef b5bf 29db fa3f c3c5 2740
00000280: bf93 993f 0a66 e5c0 1e53 25be 4c78 c5c0
00000290: 288b 12be 4e8a 90c0 8e15 4140 da53 9040
000002a0: 2585 10c0 db27 e240 9d9f 5dc0 13b1 9740
000002b0: 2aa2 3cc1 8017 9440 7af3 a1c0 9e11 2441
000002c0: a440 ccc0 cb69 49c0 d697 39c1 82ef 753f
000002d0: acdc 9dc0 0886 0f3e fa7b ebbd 1618 4b3d
000002e0: 4e8a ccbd f940 a1bd 1914 03c0 f147 4bbf
000002f0: 97b6 05bf 1a3f a6c0 d4d7 5dc0 b318 943d
00000300: eb16 82c0 e53b 14c0 0b74 72bf 88b5 993f
00000310: 3b8f 1f3e 71a4 393e 86a0 973f 098d c3c0
00000320: a917 85bf 38be f3bf 5c9b fb3d edf8 5bbf
00000330: 274d 9fbf 4d87 62c0 b57b 06bf 03ce abbf
00000340: 85d8 adc0 eb29 fdbd b70c dcbf b882 2abf
00000350: 916d 8bbf 00ca c2bf 6deb 22c0 5419 8bc0
00000360: db85 3fc0 fe94 af3f f5fb f8bf 0668 95bf
00000370: 33cc 89bf 35ce 71c0 fea9 04bf f624 973e
00000380: 3ca5 41c0 a986 e33f dce4 d8bd 9779 713c
00000390: 595d 85bd a202 44bc 5a9f 573d ba2c b5bf
000003a0: 1290 b53f c233 a7c0 f10f 8f40 b616 4640
000003b0: ffd1 a4c0 903e 8040 c530 a7bf 6401 de40
000003c0: a2d4 7f41 5f9d fb3f 4048 13c0 0e5f a0c0
000003d0: 9086 94bf 1733 0a3f 5178 1341 4fc2 6940
000003e0: 0e46 4340 d3b9 9740 6051 76bf 9eb8 98bd
000003f0: 50b3 3541 876a 33c1 e1c2 623d 6c07 b43f

actor.0.bias f4 [64]
2.2304442 2.7061546 -2.4363492 -1.701185 -4.8007107 1.8393278 5.610488 2.3095431
6.202935 1.0864468 -0.45158598 -4.9364147 -1.3774836 0.22124338 0.38178506 1.5518204
-3.4836426 -5.2039156 0.7287767 -0.2744491 -0.12235583 6.9447064 3.5808926 -5.430871
-1.2508612 -5.7248783 -1.3349496 -1.222596 -5.6907616 -0.7528924 1.5837421 -0.89972156
6.8193383 -5.226034 -4.209382 -2.6197314 -0.81707287 -3.8141663 4.233409 0.20315082
-2.4752228 -7.38338 -2.339106 1.3954376 -1.4030226 -1.8511156 -2.7128975 -2.5497205
1.1871549 -1.9577636 -3.2557206 3.2759118 3.9315486 0.009155709 -0.7528339 1.6911922
1.7257798 -5.81792 -0.09044026 2.1640816 1.249302 -4.5737085 1.0099831 -1.0753452
00000000: 99bf 0e40 a331 2d40 25ed 1bc0 6ec0 d9bf
00000010: 6c9f 99c0 186f eb3f 1e89 b340 8ecf 1340
00000020: 727e c640 b010 8b3f 4736 e7be 1cf7 9dc0
00000030: 6251 b0bf a08d 623e 5579 c33e 0da2 c63f
00000040: 00f4 5ec0 7a86 a6c0 1c91 3a3f 9884 8cbe
00000050: b295 fabd 093b de40 582d 6540 b2c9 adc0
00000060: 381c a0bf 3432 b7c0 a1df aabf 077e 9cbf
00000070: b81a b6c0 8ebd 40bf 10b8 ca3f 2754 66bf
00000080: 0538 da40 ac3b a7c0 42b3 86c0 aea9 27c0
00000090: b02b 51bf 4d1b 74c0 1678 8740 c506 503e
000000a0: 0d6a 1ec0 a644 ecc0 eab3 15c0 b39d b23f
000000b0: 3f96 b3bf 5bf1 ecbf 1da0 2dc0 9f2e 23c0
000000c0: b1f4 973f ff97 fabf ba5d 50c0 8aa8 5140
000000d0: 7e9e 7b40 d401 163c b9b9 40bf fc78 d83f
000000e0: 5ae6 dc3f 672c bac0 be38 b9bd 5080 0a40
000000f0: 21e9 9f3f d25b 92c0 2047 813f e9a4 89bf

actor.2.weight f4 [64, 64]
-1.0865116 -2.8571298 9.667171 0.36643907 -1.3025907 -8.505126 -1.3112609 -6.777704
-1.6525992 -4.577749 5.4007688 1.7149733 1.867058 -1.0958955 0.94742084 1.8576605
-1.6215665 -5.760132 4.502301 11.54325 3.754749 5.3227124 7.1031847 -3.1443255
-8.633241 6.9999194 6.041047 0.977532 -1.4096617 -10.233115 -1.1462221 -3.5949147
6.173142 -4.0327616 1.9622612 -6.0590506 -1.0556631 2.6397595 3.0637288 1.0739906
-5.08947 -5.4249177 -8.100979 3.806185 -18.192118 -3.9254894 -1.0079637 -0.23541848
1.6436726 -3.190737 -4.005732 -1.5459467 -2.5273726 -2.3776484 -6.689449 1.4821182
2.1553838 0.35548285 2.6303337 1.8427805 1.5057527 -5.5888457 0.31633773 1.9794313
0.38051373 4.9640746 -1.7760258 2.0584383 2.814262 -2.2047253 -1.9462856 -3.6670167
-2.9279683 12.395607 1.3682809 -4.4970384 -3.900959 2.7046087 -4.457123 -1.765639
7.505237 11.269015 -3.8756738 5.121306 -6.0052023 -5.3690004 -4.001848 -0.1076933
-3.7326066 0.58818775 1.4853208 -0.6295439 7.0511527 9.88875 1.2989347 -2.699797
1.9251515 1.4043473 3.9425054 1.9964916 6.0622497 2.8187156 -6.201862 -11.46221
-9.910659 -7.4068913 5.1852984 1.5468416 4.496587 1.3485421 4.5970373 -5.252736
-4.299629 2.4269562 1.1051538 3.1752832 4.1068773 6.497628 -0.086664245 -3.2931657
-3.964363 3.1789985 -4.732215 -11.297855 1.7683787 0.6089339 -3.8649304 -1.770896
2.6004193 0.34327868 -9.1513405 6.91675 -0.7234382 -3.0036294 -0.6726867 2.0248008
-3.580903 1.2710043 3.958164 0.46582842 5.223727 3.6795723 -4.334612 -2.1796355
4.015518 5.997147 -1.2501963 9.258813 -10.555193 -1.6152577 5.550207 -1.367756
0.873957 0.07861982 -2.3468065 0.15567653 0.095241144 -0.8980833 -4.505963 1.2476023
3.5728703 1.8657843 1.270804 4.0378933 1.8833914 -0.071332514 2.2013104 4.493455
-2.3044357 -4.2517705 5.62982 -0.8596769 -0.23103745 -0.015005457 5.470237 2.3646789
7.7234173 6.156223 -0.38067132 7.7728634 -7.7011285 2.1730633 -3.220494 -7.370996
-0.23985833 -0.8881157 -4.500738 -2.8570547 -6.1598916 -6.8826466 -0.71209735 -6.5200305
4.1689796 4.3359604 10.413501 -5.2531705 -3.9197905 0.3981618 3.0376575 7.148122
4.4992666 5.127897 -1.3623469 -3.7635562 -8.640412 -0.63808924 4.285393 3.1202993
-0.40883973 -5.133217 1.6964724 1.3733103 2.5580595 6.349998 3.167905 -0.6343824
-1.593516 1.3619728 -0.37853846 -0.51372343 -3.744042 -4.99663 -0.16921745 -3.0074553
4.348346 -3.8080099 0.49969783 -5.3275228 -4.2606764 1.3434342 -1.3038605 2.65331
-3.4981055 0.4171098 -7.2322025 -4.3902717 -6.1369476 -3.786248 -4.2301517 -2.0952783
1.1432593 -5.628113 -1.3248552 -0.97005856 6.5849395 0.22444303 0.2589116 5.375896
1.1083872 -3.5699465 -1.3858706 2.5525658 4.7505426 -4.362079 5.0102954 0.36333084
00000000: d012 8bbf 37db 36c0 bbac 1a41 e79d bb3e
00000010: 4bbb a6bf ff14 08c1 66d7 a7bf f3e2 d8c0
00000020: 5f88 d3bf eb7c 92c0 19d3 ac40 3f84 db3f
00000030: c2fb ee3f 4e46 8cbf 2c8a 723f d2c7 ed3f
00000040: 7e8f cfbf 0053 b8c0 da12 9040 27b1 3841
00000050: cf4d 7040 a953 aa40 4a4d e340 a13c 49c0
00000060: c121 0ac1 57ff df40 4250 c140 8a3f 7a3f
00000070: cb6f b4bf d7ba 23c1 68b7 92bf 1513 66c0
00000080: 618a c540 620c 81c0 602b fb3f bee3 c1c0
00000090: f81f 87bf d2f1 2840 2214 4440 8678 893f
000000a0: f0dc a2c0 ed98 adc0 9c9d 01c1 8998 7340
000000b0: 7589 91c1 383b 7bc0 f404 81bf 8b11 71be
000000c0: dd63 d23f 0935 4cc0 f52e 80c0 95e1 c5bf
000000d0: 79c0 21c0 642b 18c0 f70f d6c0 0db6 bd3f
000000e0: cff1 0940 d901 b63e 6357 2840 3be0 eb3f
000000f0: 81bc c03f d3d7 b2c0 05f7 a13e 015e fd3f
00000100: b2d2 c23e b3d9 9e40 d054 e3bf 74bd 0340
00000110: de1c 3440 381a 0dc0 e31f f9bf 67b0 6ac0
00000120: d563 3bc0 6854 4641 d423 af3f bde7 8fc0
00000130: 50a9 79c0 4f18 2d40 c0a0 8ec0 7500 e2bf
00000140: e72a f040 e34d 3441 0a0b 78c0 bde1 a340
00000150: 9e2a c0c0 dace abc0 240f 80c0 4e8e dcbd
00000160: 07e3 6ec0 7993 163f fe1e be3f ca29 21bf
00000170: 0ba3 e140 5238 1e41 7e43 a63f 79c9 2cc0
00000180: 5d6b f63f a7c1 b33f 0252 7c40 098d ff3f
00000190: f3fd c140 d665 3440 a775 c6c0 3665 37c1
000001a0: 0f92 1ec1 4105 edc0 f7ed a540 e8fe c53f
000001b0: 0ae4 8f40 079d ac3f ee1a 9340 6a16 a8c0
000001c0: 9096 89c0 4053 1b40 ae75 8d3f d737 4b40
000001d0: 8a6b 8340 92ec cf40 067d b1bd 3ac3 52c0
000001e0: 20b8 7dc0 b674 4b40 4e6e 97c0 04c4 34c1
000001f0: 3c5a e23f 18e3 1b3f 055b 77c0 b8ac e2bf
00000200: 456d 2640 39c2 af3e e46b 12c1 0456 dd40
00000210: 3f33 39bf 773b 40c0 3235 2cbf 5696 0140
00000220: 842d 65c0 45b0 a23f 8f52 7d40 1081 ee3e
00000230: c628 a740 1d7e 6b40 24b5 8ac0 267f 0bc0
00000240: 207f 8040 a1e8 bf40 6f06 a0bf 1924 1441
00000250: 12e2 28c1 c4c0 cebf 4c9b b140 a112 afbf
00000260: a5bb 5f3f 6e03 a13d 1432 16c0 ab69 1f3e
00000270: ca0d c33d cae8 65bf d930 90c0 6fb1 9f3f
00000280: e8a9 6440 05d2 ee3f b5a9 a23f 6c36 8140
00000290: f812 f13f c816 92bd 45e2 0c40 62ca 8f40
000002a0: e07b 13c0 810e 88c0 7c27 b440 c913 5cbf
000002b0: 1595 6cbe 73d9 75bc 2e0c af40 e656 1740
000002c0: 3c26 f740 c7ff c440 5ae7 c2be 4cbb f840
000002d0: a56f f6c0 7813 0b40 931c 4ec0 33df ebc0
000002e0: 6c9d 75be 8d5b 63bf 0c06 90c0 fcd9 36c0
000002f0: d51d c5c0 a43e dcc0 034c 36bf 17a4 d0c0
00000300: 4868 8540 30c0 8a40 b39d 2641 f919 a8c0
00000310: d9dd 7ac0 dddb cb3e fb68 4240 6abd e440
00000320: fef9 8f40 bb17 a440 6261 aebf 1bde 70c0
00000330: 213f 0ac1 d159 23bf f121 8940 fcb2 4740
00000340: 7153 d1be 5043 a4c0 0226 d93f a2c8 af3f
00000350: 3fb7 2340 2f33 cb40 f5be 4a40 e366 22bf
00000360: 55f8 cbbf 2055 ae3f cbcf c1be 6183 03bf
00000370: 629e 6fc0 65e4 9fc0 5747 2dbe 267a 40c0
00000380: a725 8b40 6fb6 73c0 65d8 ff3e 117b aac0
00000390: 7657 88c0 a7f5 ab3f e7e4 a6bf d5cf 2940
000003a0: f6e0 5fc0 6a8f d53e 346e e7c0 1b7d 8cc0
000003b0: e061 c4c0 e351 72c0 675d 87c0 0a19 06c0
000003c0: 5256 923f 8019 b4c0 db94 a9bf c255 78bf
000003d0: d3b7 d240 65d4 653e 1090 843e 5707 ac40
000003e0: a2df 8d3f 017a 64c0 3564 b1bf 3d5d 2340
000003f0: 7204 9840 2796 8bc0 5754 a040 8006 ba3e

actor.2.bias f4 [64]
3.8640862 -3.313077 0.92161256 2.197183 -0.4840935 3.9711568 -1.3507355 2.4529636
-2.8691988 2.5314064 -1.0405191 -1.9551439 1.9494247 -1.7276653 2.4989955 1.2559463
-2.9092014 -4.9370065 0.40138847 -6.093633 3.9146316 -0.4393666 3.0560205 -2.9213784
-3.863752 2.4968534 0.8191086 -1.9553254 1.8285105 -1.0083176 1.7998314 6.0318
2.6555035 1.4266595 -4.7918005 -0.73548406 -7.8393884 1.8571603 1.9821122 3.1299655
2.2932312 -6.5401473 -1.9368582 1.8473761 4.2801003 2.1536813 -2.7584028 -0.5436797
2.4438639 0.8837642 3.2732987 -4.067998 -4.110242 -1.9267316 -1.3123182 -3.516353
1.1727096 3.8647468 3.3417253 1.9423054 -1.2654395 -2.1055465 -2.4380426 1.7376283
00000000: 304d 7740 7409 54c0 cdee 6b3f a59e 0c40
00000010: 1adb f7be 6f27 7e40 e7e4 acbf 5bfd 1c40
00000020: f4a0 37c0 9002 2240 bb2f 85bf 2842 fabf
00000030: c086 f93f 2324 ddbf 8bef 1f40 d9c2 a03f
00000040: 5b30 3ac0 f5fb 9dc0 ca82 cd3e 0bff c2c0
00000050: 5389 7a40 a9f4 e0be d795 4340 ddf7 3ac0
00000060: b647 77c0 72cc 1f40 1ab1 513f 1a48 fabf
00000070: a20c ea3f 8d10 81bf e060 e63f 8104 c140
00000080: c5f3 2940 c79c b63f 6e56 99c0 af48 3cbf
00000090: 45dc fac0 6eb7 ed3f dab5 fd3f 5b51 4840
000000a0: 4dc4 1240 e348 d1c0 f8ea f7bf d276 ec3f
000000b0: 95f6 8840 ead5 0940 ac89 30c0 982e 0bbf
000000c0: 4468 1c40 5f3e 623f ba7d 5140 0a2d 82c0
000000d0: 1a87 83c0 249f f6bf 0bfa a7bf ed0b 61c0
000000e0: 591b 963f 0358 7740 d4de 5540 779d f83f
000000f0: ecf9 a1bf 46c1 06c0 e408 1cc0 9b6a de3f

actor.4.weight f4 [2, 64]
5.595359 -9.445562 -2.619573 -2.763524 1.6077942 -3.4964478 0.5306301 -3.909602
-2.546748 8.856142 1.2936631 1.8962936 3.7933772 3.4190743 4.1940165 3.2993398
3.3340747 4.187148 3.1727571 -5.91995 -1.5605085 4.0006533 -0.32796326 1.8330529
-1.4990891 -5.959802 4.766404 -0.38516653 6.3963084 -0.41236463 0.94668156 -3.9812083
7.01495 4.416245 3.0506356 1.8576494 -16.24617 -0.8694093 -1.8135923 -2.3061311
-9.555383 -1.8685106 6.358837 -0.13422254 0.2939014 2.4217327 -5.4199824 1.7796506
2.1942565 -1.8122536 -3.5198107 1.0112395 -6.1834006 -7.8519573 6.1102324 3.2668881
4.5056424 -2.026789 9.751108 -0.18480988 7.436235 0.9697623 3.849054 -3.4157157
-5.4793043 9.429235 2.7632985 2.6534624 -1.6894416 3.454242 -0.4329704 3.9165154
2.4019775 -8.765591 -1.3643402 -1.953129 -3.9086137 -3.3949 -4.174918 -3.1728215
-3.1413863 -4.1376734 -3.2312675 5.823298 1.583286 -4.1267576 0.30791077 -2.0358562
1.5366229 6.0585485 -4.859567 0.20909907 -6.3222833 0.5807997 -0.7805139 4.0057364
-6.969116 -4.384154 -2.896896 -2.0378199 16.247602 0.71180344 1.9494253 2.267182
9.462025 1.8520766 -6.2947206 0.12060122 -0.46718425 -2.4523432 5.471022 -1.7411729
-2.415246 1.8564254 3.4057722 -1.0773709 6.3786798 7.8513966 -6.212913 -3.2859697
-4.5262246 2.0552464 -9.91349 0.39872673 -7.4320326 -0.9306268 -3.9518316 3.487471
00000000: 2e0d b340 0621 17c1 16a7 27c0 94dd 30c0
00000010: 33cc cd3f cdc5 5fc0 60d7 073f eb36 7ac0
00000020: ebfd 22c0 c2b2 0d41 c196 a53f c0b9 f23f
00000030: b1c6 7240 1dd2 5a40 6235 8640 6228 5340
00000040: 7b61 5540 1efd 8540 740e 4b40 3b70 bdc0
00000050: bebe c7bf 5a05 8040 cdea a7be 7aa1 ea3f
00000060: 27e2 bfbf b3b6 bec0 6286 9840 8c34 c5be
00000070: 8fae cc40 7521 d3be b959 723f 1ecc 7ec0
00000080: 787a e040 e151 8d40 9d3d 4340 75c7 ed3f
00000090: 28f8 81c1 9c91 5ebf cb23 e8bf a797 13c0
000000a0: d9e2 18c1 5b2b efbf 987b cb40 a271 09be
000000b0: 3f7a 963e abfd 1a40 7f70 adc0 97cb e33f
000000c0: b36e 0c40 edf7 e7bf 9444 61c0 4c70 813f
000000d0: 6bde c5c0 3c43 fbc0 0687 c340 b214 5140
000000e0: 392e 9040 e9b6 01c0 8a04 1c41 cd3e 3dbe
000000f0: a3f5 ed40 5842 783f e756 7640 169b 5ac0
00000100: 7656 afc0 26de 1641 e2d9 3040 54d2 2940
00000110: 9f3f d8bf 4d12 5d40 4cae ddbe 30a8 7a40
00000120: 00ba 1940 dc3f 0cc1 b3a2 aebf 2200 fabf
00000130: ba26 7ac0 0b46 59c0 ee98 85c0 820f 4bc0
00000140: 790c 49c0 d267 84c0 16cd 4ec0 7558 ba40
00000150: 1ea9 ca3f 660e 84c0 7ba6 9d3e 784b 02c0
00000160: 0fb0 c43f a1df c140 9381 9bc0 111e 563e
00000170: 2550 cac0 4aaf 143f c2cf 47bf fe2e 8040
00000180: 0003 dfc0 fd4a 8cc0 be66 39c0 a46b 02c0
00000190: 17fb 8141 c038 363f c586 f93f 8319 1140
000001a0: 7464 1741 d910 ed3f 5a6e c9c0 c6fd f63d
000001b0: c632 efbe 31f3 1cc0 9d12 af40 c1de debf
000001c0: 6493 1ac0 599f ed3f 2cf8 5940 4ae7 89bf
000001d0: 251e cc40 a43e fb40 2fd0 c6c0 544d 52c0
000001e0: d5d6 90c0 2889 0340 a89d 1ec1 e925 cc3e
000001f0: 36d3 edc0 8f3d 6ebf cfea 7cc0 ba32 5f40

actor.4.bias f4 [2]
35.87739 -35.926174
00000000: 7382 0f42 67b4 0fc2

critic.0.weight f4 [64, 45]
0.6667084 -0.014945739 -0.087516725 0.07910721 -0.11146208 -0.015741225 -21.814615 4.83163
6.2458067 20.358982 -9.31781 1.2053304 -2.08667 0.45440876 -5.984165 6.640539
-0.14219965 7.7240477 3.5361898 -10.498019 13.48981 12.112643 -3.1033008 -4.9140673
-12.892257 9.662759 -3.6744027 9.855596 8.127284 0.09038183 -3.7523174 5.445725
4.5923676 5.6363573 3.1508439 14.466456 -17.39612 5.0852942 1.988254 -3.6388276
3.651435 -2.4740539 7.848792 -9.535146 7.44804 5.9989495 -0.09730781 0.1252019
-0.045119345 0.0056212367 0.0084866155 -1.7472844 4.792149 14.10962 11.1033945 8.362912
2.6018596 -6.9975743 9.87572 9.377637 7.7676687 5.659717 7.9971457 -5.879331
0.4106989 18.796 13.428111 5.69321 3.4343123 10.885593 8.105933 2.4538684
-4.2764773 5.6068354 -0.090004385 14.116794 -3.7951558 12.732949 -0.20731036 9.709785
6.090921 -4.437046 17.76231 8.654778 0.61439335 4.0505104 18.015978 7.877525
1.3613693 4.7065716 -6.0225487 -0.038322683 0.087211706 -0.029330032 -0.124704644 0.061710488
-2.7780626 0.39365605 -1.7804091 0.60413677 1.7762753 -3.038423 -5.284856 -0.43155625
2.564482 -0.6824237 -0.1447876 -0.10631055 -0.72135633 -7.82045 0.48285535 -0.25319222
-4.210194 -0.46460417 0.21163116 1.5848778 -3.8924434 -0.18184814 -1.7253437 0.09567815
-3.343104 -1.4520979 -2.9645288 1.2561975 -2.1212206 -2.3220713 -2.3728383 -3.9852545
-2.0374663 -1.6629875 -0.9854892 -0.5829769 -0.12781903 2.3262432 -2.4933157 5.066418
-0.09852887 0.11132546 0.009452558 -0.025953427 0.12517315 3.9292867 -0.9541286 3.6203294
-1.145978 1.4456055 3.3677857 12.444452 -7.917452 -3.4411433 3.6763968 -6.372929
2.9318602 -2.046533 3.6241322 9.2353945 -1.6450502 0.46900806 0.8273239 8.202074
1.139174 3.1891656 4.1106772 2.98736 0.026386924 7.430114 4.5663986 5.5759134
4.423867 3.006282 3.921125 4.720632 2.4915533 0.7528942 4.594166 1.8907709
-1.6833501 2.486028 1.5033722 5.4567633 5.063779 -0.13827968 0.08260137 -0.003025297
0.013081454 -0.04248742 0.49809277 3.325614 5.025251 4.7697244 2.7154536 1.4547497
5.920646 -1.4795955 -1.0919254 -0.3201367 -1.0793252 -0.046041496 -0.8160802 3.3587134
4.010296 0.69484913 0.7336073 -0.042744193 -1.2012619 -0.14350368 6.3956866 1.2164705
0.8456858 -0.038262602 1.2253536 2.7537973 2.2093494 1.6627828 1.5051707 4.483524
0.8685073 2.449477 -0.41949177 1.7456707 1.4150134 0.096419625 3.604888 2.2297282
1.5760242 -3.515472 -0.06532801 0.135996 -0.12461869 0.14273465 0.041306682 8.932668
3.9752347 -7.758929 -8.140506 -10.29688 -3.4997258 -4.640122 2.9573362 -4.793013
-16.590996 -9.880942 -8.0234 20.39402 -23.059593 -10.599031 -12.219022 -3.0931156
-1.9135166 -3.7630024 0.6910306 -0.99552333 -5.5206075 -8.136623 0.08310522 5.2520075
00000000: 67ad 2a3f f9de 74bc f83b b3bd f602 a23d
00000010: 3b46 e4bd bef3 80bc 5584 aec1 b79c 9a40
00000020: a6dd c740 32df a241 c015 15c1 4448 9a3f
00000030: 008c 05c0 44a8 e83e 487e bfc0 4c7f d440
00000040: c99c 11be 662b f740 ef50 6240 e3f7 27c1
00000050: 43d6 5741 63cd 4141 7b9c 46c0 0a40 9dc0
00000060: af46 4ec1 a99a 1a41 6a29 6bc0 85b0 1d41
00000070: 5b09 0241 1c1a b93d f825 70c0 6143 ae40
00000080: adf4 9240 0a5d b440 6da7 4940 9b76 6741
00000090: 412b 8bc1 bbba a240 1b7f fe3f 8de2 68c0
000000a0: 1cb1 6940 e656 1ec0 4e29 fb40 f58f 18c1
000000b0: 5856 ee40 65f7 bf40 5149 c7bd ed34 003e
000000c0: 10cf 38bd 5a32 b83b 720b 0b3c 04a7 dfbf
000000d0: 4959 9940 01c1 6141 81a7 3141 7dce 0541
000000e0: de84 2640 21ec dfc0 f302 1e41 cd0a 1641
000000f0: be90 f840 671c b540 9ee8 ff40 7b23 bcc0
00000100: 2047 d23e 355e 9641 8bd9 5641 c72e b640
00000110: c6cb 5b40 642b 2e41 e7b1 0141 2e0c 1d40
00000120: e7d8 88c0 326b b340 3854 b8bd 63de 6141
00000130: d5e3 72c0 29ba 4b41 2b49 54be 485b 1b41
00000140: d3e8 c240 48fc 8dc0 3619 8e41 f879 0a41
00000150: e248 1d3f c89d 8140 b920 9041 af14 fc40
00000160: 5941 ae3f 3c9c 9640 b8b8 c0c0 3ff8 1cbd
00000170: 0d9c b23d 8945 f0bc 2665 ffbd 23c4 7c3d
00000180: c7cb 31c0 498d c93e 72e4 e3bf b5a8 1a3f
00000190: fd5c e33f 8675 42c0 8a1d a9c0 f1f4 dcbe
000001a0: 7920 2440 52b3 2ebf 3343 14be 58b9 d9bd
000001b0: cfaa 38bf 2041 fac0 d138 f73e 69a2 81be
000001c0: e9b9 86c0 99e0 edbe d7b5 583e 47dd ca3f
000001d0: cb1d 79c0 6636 3abe 10d8 dcbf e8f2 c33d
000001e0: 6af5 55c0 58de b9bf d7ba 3dc0 14cb a03f
000001f0: 14c2 07c0 d19c 14c0 95dc 17c0 690e 7fc0
00000200: d965 02c0 c6dc d4bf 0549 7cbf f93d 15bf
00000210: fee2 02be 2be1 1440 7c92 1fc0 1920 a240
00000220: 81c9 c9bd 9afe e33d e7de 1a3c 489c d4bc
00000230: 642d 003e 6f79 7b40 c641 74bf 7ab3 6740
00000240: 68af 92bf 9a09 b93f cd89 5740 7a1c 4741
00000250: c45b fdc0 b13b 5cc0 164a 6b40 09ef cbc0
00000260: 99a3 3b40 66fa 02c0 c8f1 6740 2dc4 1341
00000270: 0191 d2bf d321 f03e 80cb 533f b23b 0341
00000280: 74d0 913f 4a1b 4c40 ab8a 8340 e830 3f40
00000290: 6429 d83c 7ec3 ed40 f01f 9240 e26d b240
000002a0: 5290 8d40 ed66 4040 b6f3 7a40 6b0f 9740
000002b0: 9c75 1f40 adbd 403f 6803 9340 c804 f23f
000002c0: 0478 d7bf 151b 1f40 806e c03f ce9d ae40
000002d0: 7a0a a240 3099 0dbe e82a a93d 1044 46bb
000002e0: 9853 563c 4a07 2ebd 0406 ff3e dcd6 5440
000002f0: dbce a040 95a1 9840 fec9 2d40 3d35 ba3f
00000300: ef75 bd40 6363 bdbf 36c4 8bbf f5e8 a3be
00000310: 5427 8abf 0296 3cbd a2ea 50bf 29f5 5640
00000320: 5854 8040 a2e1 313f b0cd 3b3f 8914 2fbd
00000330: f3c2 99bf a1f2 12be 77a9 cc40 4eb5 9b3f
00000340: dd7e 583f 3fb9 1cbd 63d8 9c3f 373e 3040
00000350: fb65 0d40 11d6 d43f 6fa9 c03f 0779 8f40
00000360: 7f56 5e3f 3bc4 1c40 a0c7 d6be 2372 df3f
00000370: 291f b53f a777 c53d 7cb6 6640 deb3 0e40
00000380: 29bb c93f 7efd 60c0 b1ca 85bd 8942 0b3e
00000390: 1538 ffbd 0829 123e 3231 293d 35ec 0e41
000003a0: 3f6a 7e40 2549 f8c0 833f 02c1 05c0 24c1
000003b0: 82fb 5fc0 e17b 94c0 ff44 3d40 5d60 99c0
000003c0: 5cba 84c1 5718 1ec1 d95f 00c1 f426 a341
000003d0: 0c7a b8c1 a295 29c1 1d81 43c1 9bf5 45c0
000003e0: 1dee f4bf 08d5 70c0 62e7 303f 9eda 7ebf
000003f0: d1a8 b0c0 9c2f 02c1 1233 aa3d 7210 a840

critic.0.bias f4 [64]
0.6789834 6.1788106 -6.048031 4.7888484 4.925 -3.7408655 4.024185 -9.464401
-9.942549 9.224632 -3.9805846 -5.3856034 -5.808525 -5.462564 3.852309 -13.548627
10.764083 5.330219 5.7651377 5.5446343 4.202046 0.6964104 -6.940113 3.7974157
-10.232898 -4.278227 4.69582 -4.6375175 14.164761 4.9439483 10.587274 8.388302
3.325507 15.114527 1.2792006 5.2238674 -9.152129 -6.8092213 5.3591294 4.2076135
-9.08281 7.1564693 7.4161654 7.7773023 -5.552462 -10.943998 -9.858064 -5.862708
-6.731263 3.1948764 5.310475 1.2751999 12.223798 11.735365 5.5221453 5.2812
-5.3090987 -4.4605055 -8.123735 9.479017 0.6078798 10.430086 -9.70722 -8.153298
00000000: dbd1 2d3f d1b8 c540 7889 c1c0 3f3e 9940
00000010: 9a99 9d40 576a 6fc0 20c6 8040 306e 17c1
00000020: ae14 1fc1 1898 1341 e6c1 7ec0 dd56 acc0
00000030: 70df b9c0 53cd aec0 3b8c 7640 2dc7 58c1
00000040: af39 2c41 2791 aa40 027c b840 a56d b140
00000050: 2977 8640 f447 323f 6815 dec0 dc08 7340
00000060: f3b9 23c1 3ce7 88c0 2844 9640 8b66 94c0
00000070: dca2 6241 d334 9e40 7965 2941 7c36 0641
00000080: 1bd5 5440 1ad5 7141 d8bc a33f ec29 a740
00000090: 1f6f 12c1 24e5 d9c0 fd7d ab40 c5a4 8640
000000a0: 3153 11c1 cc01 e540 3a51 ed40 a9df f840
000000b0: c5ad b1c0 9e1a 2fc1 a1ba 1dc1 4e9b bbc0
000000c0: 8266 d7c0 db78 4c40 69ef a940 c039 a33f
000000d0: ad94 4341 0ec4 3b41 6ab5 b040 97ff a840
000000e0: 23e4 a9c0 76bc 8ec0 d2fa 01c1 0eaa 1741
000000f0: 039e 1b3f a2e1 2641 c650 1bc1 e973 02c1

critic.2.weight f4 [64, 64]
1.654691 1.8084625 -2.6742826 0.040266436 0.4960808 0.8088727 0.66634804 -1.0115504
-3.4458404 0.117580324 -1.235427 -0.3029796 0.37214297 -0.7675776 0.9173352 2.1645603
6.417974 0.31782264 2.0433257 2.3191357 0.2800445 3.3052268 -1.044007 1.0715629
-0.8400951 1.687928 -1.5422432 -0.937053 4.776147 0.31282124 2.0327742 0.5894175
-1.8893155 0.6087697 6.3662715 -0.07012969 -1.6344135 0.5458112 0.13757944 0.77520233
-3.3266807 3.0680041 1.3066944 -0.04921315 1.0770113 -0.46826243 0.50159854 -0.63839024
-1.8713567 0.2569389 0.38682464 -4.220314 1.6586573 0.30526292 3.2390804 2.5600748
-1.0788033 2.8669884 -1.8507488 0.44047782 1.8129964 3.3610373 -3.6546044 -5.2693157
1.4135234 1.8224177 -0.79536986 1.6642889 0.13491477 1.2058969 -0.118231736 -3.8548677
-2.2985656 -0.09121622 -0.40893558 1.9532008 0.75167084 -0.7331988 -0.26009175 1.79927
1.3307055 -1.5122846 -1.1693403 1.7962068 2.0189948 -0.018747872 -2.2102327 0.42441288
1.4077703 1.1660268 0.8689148 2.3400269 1.4006407 1.4317429 2.4232552 1.1966599
1.7963885 3.331505 2.454765 -0.8127008 0.0074315723 -1.3427794 0.6324422 0.16207868
-1.3463142 0.9577622 0.7380975 1.4175768 2.3999007 -3.115568 -2.7866824 0.04285305
-2.9997718 -0.16507152 0.61186445 1.4605429 2.0711029 -1.856683 2.538647 0.642248
-0.31461227 -1.8414023 -0.08017289 2.3252742 0.44979116 3.266744 -3.7718997 -2.6137135
-0.8416273 3.5044374 -4.164983 0.29132742 1.3781172 -0.57848245 0.682406 1.4600686
1.540326 -1.4205372 -0.15470363 3.5892005 0.19506387 0.20675676 -1.2383875 1.5969654
-4.2111306 1.6479982 0.66393495 2.6926565 -1.2271446 3.8265603 0.074789196 0.26499802
-0.26625842 1.1688293 5.6224504 1.2366834 -0.17351668 1.3428761 3.5302396 1.1671085
-3.44466 2.9810314 1.5222021 0.012188437 -1.3008708 -2.153534 0.2903574 0.7149419
-2.2024794 2.5838218 1.5446936 1.764623 1.9306498 2.2549138 -1.3849066 -1.1201528
-1.5341612 0.9458255 -0.26698253 -0.040185157 1.1325297 0.09050421 2.220712 3.3328104
-0.8664262 -4.3382835 -1.1026096 1.1674674 3.5336373 3.9920912 1.126531 3.18571
4.4609957 -0.2902561 2.9882722 -3.0186882 -3.5129185 -1.583217 -1.9152911 0.97989243
-4.095173 0.06353405 1.8657641 0.14765768 -2.0205255 2.304247 -1.3518565 0.99260867
-0.32555825 1.6143088 -2.437778 -0.17546418 1.5295429 1.4239428 0.25509283 -1.706924
1.4643223 0.8704663 0.5498755 -1.8041282 0.27076676 -1.9861989 -0.5973413 -2.2344193
0.6812804 0.36715865 0.7325707 -0.9441451 1.4048035 0.60194796 -1.2083385 -1.7681055
-0.12270499 2.020352 -1.3977852 -0.4272254 1.6235013 0.31852233 2.5981693 1.7929988
0.7830131 -0.99533784 -0.8192135 -1.9518715 1.1795545 0.83149034 0.64062786 0.5097636
2.6864238 0.7229835 0.31257254 -0.57704955 -0.4280605 1.3875034 -0.60705566 3.6861956
00000000: eacc d33f b37b e73f 7227 2bc0 6bee 243d
00000010: 4dfe fd3e 4812 4f3f c995 2a3f 7c7a 81bf
00000020: a688 5cc0 f4cd f03d 7922 9ebf 2420 9bbe
00000030: 8689 be3e f77f 44bf 7bd6 6a3f 2888 0a40
00000040: 0b60 cd40 a6b9 a23e d9c5 0240 b86c 1440
00000050: fe61 8f3e d688 5340 05a2 85bf f928 893f
00000060: 7910 57bf 060e d83f 3a68 c5bf b5e2 6fbf
00000070: 32d6 9840 1b2a a03e f918 0240 11e4 163f
00000080: 17d5 f1bf 55d8 1b3f 7fb8 cb40 28a0 8fbd
00000090: 7634 d1bf 48ba 0b3f a0e1 0c3e a973 463f
000000a0: 56e8 54c0 2e5a 4440 c341 a73f ba93 49bd
000000b0: 82db 893f 18c0 efbe c368 003f 8b6d 23bf
000000c0: 9e88 efbf 7f8d 833e e10d c63e d00c 87c0
000000d0: e24e d43f 6c4b 9c3e 184d 4f40 44d8 2340
000000e0: 3a16 8abf bd7c 3740 56e5 ecbf 4f86 e13e
000000f0: 4410 e83f 3c1b 5740 0ae5 69c0 3c9e a8c0
00000100: 56ee b43f fc44 e93f 5c9d 4bbf 6b07 d53f
00000110: 1927 0a3e d45a 9a3f 7b23 f2bd 27b6 76c0
00000120: b31b 13c0 92cf babd 0160 d1be 7c02 fa3f
00000130: 806d 403f ebb2 3bbf bf2a 85be 7b4e e63f
00000140: 8f54 aa3f 8b92 c1bf f1ac 95bf 1bea e53f
00000150: 3637 0140 2395 99bc 7474 0dc0 a54c d93e
00000160: d131 b43f 5e40 953f 3371 5e3f 00c3 1540
00000170: 3248 b33f 5a43 b73f 9d16 1b40 272c 993f
00000180: 0ff0 e53f 6137 5540 df1a 1d40 290d 50bf
00000190: 8c84 f33b 32e0 abbf bbe7 213f f4f7 253e
000001a0: 0654 acbf e72f 753f f5f3 3c3f 2873 b53f
000001b0: f997 1940 7765 47c0 0159 32c0 ae86 2f3d
000001c0: 43fc 3fc0 8208 29be 26a3 1c3f 12f3 ba3f
000001d0: f38c 0440 caa7 edbf 3179 2240 5d6a 243f
000001e0: dc14 a1be 12b3 ebbf af31 a4bd 4bd1 1440
000001f0: 074b e63e 5512 5140 ce66 71c0 1547 27c0
00000200: e374 57bf b448 6040 8a47 85c0 de28 953e
00000210: 2566 b03f 6d17 14bf 29b2 2e3f 87e3 ba3f
00000220: 6729 c53f 2ad4 b5bf a16a 1ebe 76b5 6540
00000230: d3be 473e 0bb8 533e 7b83 9ebf 5d69 cc3f
00000240: 95c1 86c0 9bf1 d23f a4f7 293f 7c54 2c40
00000250: 1313 9dbf 5de6 7440 142b 993d d2ad 873e
00000260: 0653 88be 339c 953f 1deb b340 a44b 9e3f
00000270: 5bae 31be 5de3 ab3f 72ef 6140 d063 953f
00000280: 4f75 5cc0 38c9 3e40 85d7 c23f 03b2 473c
00000290: ef82 a6bf 80d3 09c0 baa9 943e 6f06 373f
000002a0: 6cf5 0cc0 565d 2540 85b8 c53f 2bdf e13f
000002b0: 881f f73f 8250 1040 9f44 b1bf 2b61 8fbf
000002c0: 655f c4bf 9f21 723f efb1 88be 3199 24bd
000002d0: bcf6 903f 455a b93d 2520 0e40 c44c 5540
000002e0: 1cce 5dbf 38d3 8ac0 5022 8dbf 926f 953f
000002f0: 1d27 6240 6c7e 7f40 2b32 903f ace2 4b40
00000300: 7ac0 8e40 739c 94be da3f 3f40 3032 41c0
00000310: a8d3 60c0 dba6 cabf 4228 f5bf 3bda 7a3f
00000320: a80b 83c0 241e 823d 5cd1 ee3f 9333 173e
00000330: 4a50 01c0 c878 1340 a209 adbf 9a1b 7e3f
00000340: 92af a6be aca1 ce3f 8e04 1cc0 e2ac 33be
00000350: 10c8 c33f c243 b63f 879b 823e 7c7c dabf
00000360: ea6e bb3f e1d6 5e3f a4c4 0c3f aced e6bf
00000370: f1a1 8a3e c43b febf 5ceb 18bf ba00 0fc0
00000380: 6468 2e3f 38fc bb3e c189 3b3f 7eb3 71bf
00000390: 9ad0 b33f 4319 1a3f d6aa 9abf 4851 e2bf
000003a0: c14c fbbd 724d 0140 a0ea b2bf 4abd dabe
000003b0: e4ce cf3f 5c15 a33e 6848 2640 fc80 e53f
000003c0: 8c73 483f 76ce 7ebf fab7 51bf edd6 f9bf
000003d0: a4fb 963f 8ddc 543f 3000 243f de7f 023f
000003e0: 5eee 2b40 7215 393f 8209 a03e 85b9 13bf
000003f0: bf2a dbbe b699 b13f 0068 1bbf a1ea 6b40

critic.2.bias f4 [64]
0.55282164 -0.10973723 0.5399433 -1.8242992 0.19833441 -2.9881856 -2.856537 -2.6104672
1.413933 1.3039935 2.4486485 -2.2212121 -0.7007033 0.3036012 1.1136191 1.9686805
-0.1508878 -1.7040899 0.4550514 -1.6229804 -0.67680407 -2.4155307 2.440884 -2.0047152
0.64880484 2.206206 -0.51860666 -1.9223603 1.7563446 -1.7991824 0.7085256 -1.8796864
-0.31833133 1.0743272 -0.8207658 -3.1748 -0.24881847 1.193328 0.5947089 -2.4117918
2.1249142 -2.5702672 0.028776543 -0.57581437 -0.3184595 -0.37728378 2.2140784 -0.5921607
1.1113998 1.4633306 -1.0789169 1.6435231 2.9534721 0.044331577 -2.1005375 -0.20659271
-0.50869745 1.4906578 0.9888201 -1.9369748 -0.0005443935 -2.5734282 -0.22958341 0.2623676
00000000: b885 0d3f eabd e0bd b939 0a3f a382 e9bf
00000010: 2d18 4b3e 6f3e 3fc0 81d1 36c0 e511 27c0
00000020: c2fb b43f 42e9 a63f a8b6 1c40 5728 0ec0
00000030: 4b61 33bf 9e71 9b3e 128b 8e3f b9fd fb3f
00000040: 5582 1abe 9e1f dabf 7ffc e83e d2bd cfbf
00000050: 0843 2dbf 0e98 1ac0 7237 1c40 414d 00c0
00000060: 1318 263f 7b32 0d40 68c3 04bf e70f f6bf
00000070: e6cf e03f 9c4b e6bf ef61 353f 9099 f0bf
00000080: 53fc a2be 8e83 893f b51d 52bf ec2f 4bc0
00000090: 45ca 7ebe f9be 983f d83e 183f cc5a 1ac0
000000a0: 98fe 0740 427f 24c0 c9bc eb3c 9268 13bf
000000b0: 200d a3be 572b c1be 76b3 0d40 d897 17bf
000000c0: 5942 8e3f 6b4e bb3f f319 8abf f75e d23f
000000d0: b005 3d40 0795 353d 356f 06c0 0a8d 53be
000000e0: ff39 02bf e0cd be3f 5023 7d3f caee f7bf
000000f0: a1b5 0eba 0cb3 24c0 ea17 6bbe 0c55 863e

critic.4.weight f4 [1, 64]
-0.013798552 0.21500222 0.39917988 0.43283147 -0.15626271 0.031203791 -0.26498586 0.6090273
0.28683233 -0.33853132 -0.33718777 0.1505075 -0.28024405 -0.15600623 -0.09228116 -0.73225504
0.02459877 0.61758345 0.16110466 0.639118 -0.14367442 0.4592762 -0.28098947 0.083943024
0.19811158 0.3945564 -0.005983093 0.36709166 1.6998479 0.055272166 -0.14275931 -1.4277997
-0.32007796 -0.085541636 0.36462682 0.36896652 0.08970146 0.54720336 -0.17518182 -1.2477622
-0.4889412 -1.0872068 -0.1871108 0.46921003 -0.1312757 -0.3575334 0.32377452 0.11898811
-0.76070005 0.44841045 0.33399463 1.5923505 -0.5063054 0.16639678 0.20316412 0.18458103
0.5747017 -0.041909274 -0.13309707 0.17713614 -0.09186062 0.2934823 0.17410748 0.0036966975
00000000: 5213 62bc 8b29 5c3e 4e61 cc3e 169c dd3e
00000010: 5503 20be 189f ff3c 3aac 87be 37e9 1b3f
00000020: b0db 923e fa53 adbe e0a3 acbe a31e 1a3e
00000030: 267c 8fbe 19c0 1fbe e8fd bcbd 1175 3bbf
00000040: 5c83 c93c f319 1e3f 9ff8 243e 3d9d 233f
00000050: 631f 13be 4026 eb3e dadd 8fbe 52ea ab3d
00000060: c3dd 4a3e 4c03 ca3e d20d c4bb 70f3 bb3e
00000070: 9e94 d93f 1165 623d 7f2f 12be 24c2 b6bf
00000080: 42e1 a3be 7430 afbd 5eb0 ba3e 2ee9 bc3e
00000090: 66b5 b73d 8515 0c3f dd62 33be acb6 9fbf
000000a0: 8056 fabe 9829 8bbf f999 3fbe 4c3c f03e
000000b0: 236d 06be 9e0e b7be c6c5 a53e 0ab0 f33d
000000c0: 3dbd 42bf 0e96 e53e 5801 ab3e 24d2 cb3f
000000d0: 3b9d 01bf eb63 2a3e 410a 503e cf02 3d3e
000000e0: a71f 133f 0fa9 2bbd 994a 08be 2d63 353e
000000f0: 6c21 bcbd 5043 963e 3b49 323e 4b44 723b
