agent_weights/30000_simple_agents_play_policy.pth (torch, 103666 bytes, 11 tensors)

actor.0.weight f4 [64, 100]
0	0xbf428b0e	-0.7599343
1	0x408245a6	4.071002
2	0xbfa1b9a8	-1.2634783
3	0x40902bed	4.505362
4	0xc0691c95	-3.6423695
5	0xbf47c3fa	-0.7803341
6	0x40827190	4.0763626
7	0xbf904e34	-1.1273866
8	0x408caf41	4.3963933
9	0xc0639d95	-3.556493
10	0x40c7566c	6.2292995
11	0xc0bc063a	-5.87576
12	0xbf38ac25	-0.7213767
13	0xc0bc17d5	-5.877909
14	0x3fbf6274	1.495192
15	0x405ebdec	3.480342
16	0x40f85cac	7.7613125
17	0xc12a443d	-10.64166
18	0xc12325c1	-10.196717
19	0x411a87de	9.658171
20	0x4007ae5b	2.1200168
21	0xbf94cbeb	-1.1624731
22	0xc03da72d	-2.9633286
23	0x40176d29	2.3660376
24	0x41037da7	8.218177
25	0x40227cfa	2.538878
26	0x3e425656	0.18978247
27	0xbd0ff284	-0.03514339
28	0xc09ba31b	-4.8636603
29	0x41217b02	10.092531
30	0xbf8b866d	-1.0900398
31	0x3fad892f	1.355749
32	0x3f693831	0.91101366
33	0x40bc8738	5.891506
34	0xc03abe01	-2.917847
35	0x409ca3fc	4.8950176
36	0x3dce4b0e	0.10072909
37	0xbe2afb80	-0.16697502
38	0xc06255c7	-3.5364854
39	0x4051e73a	3.279738
40	0x408eaf64	4.45891
41	0xbfe1255e	-1.7589529
42	0xbf6138ce	-0.879773
43	0x402995c5	2.6497662
44	0xc0cfa13a	-6.488431
45	0xbe8ea786	-0.27862185
46	0xc1051d65	-8.319676
47	0x414243a1	12.141511
48	0x4044de2d	3.0760605
49	0xc0a961d1	-5.2931905
50	0xbf55809d	-0.83399373
51	0xc0955ca4	-4.6675587
52	0xc021baf4	-2.5270357
53	0x40c4294a	6.13004
54	0x405e7530	3.4759026
55	0x3f72e846	0.9488567
56	0x3fa7ad1a	1.3099701
57	0xc09fc253	-4.992471
58	0xc06d3d55	-3.7068684
59	0x408c5a17	4.3859973
60	0xbed5b192	-0.41737038
61	0xbf147f0e	-0.5800637
62	0x3ffa6470	1.9561901
63	0x40578a33	3.36781
64	0x4049abd8	3.1511135
65	0x3fb723db	1.4307817
66	0x3f6353d6	0.887998
67	0x40a68197	5.203319
68	0x4022a494	2.541295
69	0xbfa911a4	-1.3208508
70	0x3fcde01a	1.6084015
71	0xbd877990	-0.06614983
72	0xbb0f6f9a	-0.0021886588
73	0x3d9f36a7	0.07774096
74	0xbda5eb47	-0.08101516
75	0xbd8ab200	-0.06772232
76	0xc10ede70	-8.929306
77	0x4106c8d5	8.424031
78	0xc0054662	-2.0824208
79	0x4018e606	2.3890395
80	0xc0be4734	-5.946192
81	0x3caa9447	0.020822657
82	0x409d234e	4.9105597
83	0xc0ef4222	-7.476823
84	0x401e31aa	2.4717813
85	0x3f52b3cf	0.82305616
86	0xc044fb7c	-3.0778494
87	0xbc661c33	-0.014044809
88	0x408b7ad5	4.358744
89	0x3fbd895b	1.4807543
90	0xc07bf994	-3.937108
91	0x4013e7b4	2.311017
92	0x40152b60	2.3307724
93	0x3d7f85da	0.06238351
94	0xc0209d9f	-2.5096204
95	0x40ca5c40	6.323761
96	0x4065fcc8	3.5935535
97	0xc0c5c196	-6.179881
98	0xc052013d	-3.2813256
99	0xc08238c2	-4.0694284
100	0x3fdc7d31	1.7225705
101	0xc090faf9	-4.5306363
102	0x41044440	8.266663
103	0x3f54ba51	0.83096796
104	0x409cb926	4.897601
105	0x3fcb3771	1.5876294
106	0xc0900f98	-4.5019035
107	0x41037b1e	8.217558
108	0x3f5520d1	0.832532
109	0x409f3a8d	4.9758973
110	0x3f07296f	0.527976
111	0x3f9971a2	1.1987803
112	0x413f9908	11.974861
113	0xc014f66d	-2.3275406
114	0xbfb6d2ec	-1.4283118
115	0x40382e3f	2.8778226
116	0xc0b87868	-5.764698
117	0xc05c88b1	-3.445843
118	0xc0a407d3	-5.125955
119	0x407680c9	3.8516104
120	0xc0103f73	-2.2538726
121	0xbfcd6d4d	-1.6048981
122	0x40cf7343	6.48282
123	0x3fa7de03	1.3114628
124	0xbfd2a51f	-1.6456641
125	0x3fbdee52	1.4838355
126	0xc0b59b95	-5.675242
127	0x3fbbab8b	1.4661726
128	0x41128421	9.157258
129	0x408b6ef2	4.357293
130	0x3e9f6162	0.31128985
131	0x4028ae74	2.6356478
132	0x40ecb68d	7.397284
133	0xc05ac984	-3.4185495
134	0x3f816797	1.0109738
135	0xc01e4cb8	-2.4734325
136	0xbf91e672	-1.1398451
137	0x3f5aa4f6	0.8540796
138	0x40cfc455	6.4927163
139	0xc03a1a5b	-2.9078586
140	0xbfba466e	-1.4552743
141	0x40894f1f	4.2909083
142	0xbffb94df	-1.9654807
143	0xc09a2d9d	-4.818068
144	0x400c4bf2	2.1921353
145	0xbf0b70ed	-0.54469186
146	0x3f1369ea	0.5758349
147	0xc06e9499	-3.7278197
148	0x411faa43	9.979068
149	0xc0f724a6	-7.7232237
150	0x4106646e	8.399519
151	0x3fbacef4	1.4594407
152	0xc08905d0	-4.2819595
153	0xc1054348	-8.328926
154	0xbf189d4a	-0.59615004
155	0x4099f4b7	4.8111224
156	0xbfd6bc69	-1.6776248
157	0xc04646e9	-3.098078
158	0x4093cd20	4.6187897
159	0x401eb2a6	2.4796538
160	0x409842ba	4.7581453
161	0xc09ae028	-4.839863
162	0x411bb2df	9.73117
163	0x3f5bb122	0.8581716
164	0x401b3e36	2.425672
165	0x3f7f4b05	0.99723846
166	0xbd359a5c	-0.04433666
167	0xc0c15b6e	-6.042411
168	0x40ca7270	6.3264694
169	0x40a768f0	5.2315598
170	0x405d8ff4	3.4619112
171	0xbdba3627	-0.0909236
172	0x3c5369c0	0.012903631
173	0x3d5decb7	0.054180827
174	0xbd2d1060	-0.042251945
175	0x3da4394b	0.0801874
176	0x3ff31c83	1.8993076
177	0xbf0c654a	-0.54842055
178	0x409bf726	4.8739195
179	0xbfa26843	-1.2688068
180	0x3f04d7f8	0.5189204
181	0xbbbdffb3	-0.005798304
182	0x405344de	3.3010783
183	0xc00a15a6	-2.1575713
184	0x4077f3d0	3.8742561
185	0x3fae8004	1.3632817
186	0x40895890	4.292061
187	0xbc33179a	-0.01093092
188	0x3eced94a	0.40400153
189	0x3fafb4eb	1.3727087
190	0x40ea3ab5	7.3196664
191	0xbf3632a7	-0.7117104
192	0xc04cab84	-3.1979685
193	0x3d731d9d	0.059354413
194	0xbf720221	-0.945345
195	0xc0a5c980	-5.180847
196	0x405c1ce7	3.439264
197	0x40291e37	2.6424692
198	0x40aecd62	5.462571
199	0x4036d43d	2.856704
200	0x40726753	3.7875564
201	0xc184574e	-16.54263
202	0xc07433e8	-3.815668
203	0xc10c22b1	-8.75847
204	0xbfd0c1f7	-1.6309193
205	0x406f6b31	3.7409174
206	0xc184ecb3	-16.615576
207	0xc067a7e2	-3.6196218
208	0xc10a3cb7	-8.639823
209	0xbfbe21d6	-1.4854076
210	0xbfbff8ed	-1.4997841
211	0x3ecd043b	0.4004229
212	0xc0050478	-2.0783978
213	0x3f861e60	1.047802
214	0x41167f0f	9.40602
215	0x40c0b375	6.0219064
216	0xc0bc9079	-5.892636
217	0xc0dd4fe2	-6.9160013
218	0x3fe8278f	1.8137072
219	0xbfb92669	-1.4464847
220	0xc006019a	-2.0938478
221	0xbf5501e1	-0.8320599
222	0x3fe1e499	1.7647887
223	0xc0b29864	-5.5811024
224	0xc0409a33	-3.0094116
225	0xbfe9cfce	-1.8266542
226	0xc15b2942	-13.697573
227	0x40aee86c	5.465872
228	0x3ff85d23	1.9403423
229	0xc0924787	-4.5712314
230	0xc0dfa01a	-6.9882936
231	0x3f815161	1.010296
232	0x3dc9f787	0.09861665
233	0x40f0f213	7.52955
234	0x3faf23aa	1.3682759
235	0x3fbcc65e	1.4748037
236	0x4056bf8a	3.3554406
237	0xbc82d18e	-0.015969064
238	0xc0c558b9	-6.1670804
239	0xc043888b	-3.055209
240	0x3f58d951	0.847066
241	0xc0a9438f	-5.289497
242	0xbf6b3ad6	-0.9188665
243	0xc03f11c6	-2.9854598
244	0xbfcb8ea6	-1.5902908
245	0xc07a4c5d	-3.9109108
246	0xc02dd1a1	-2.7159197
247	0x3f80bb48	1.0057154
248	0xbfead026	-1.8344772
249	0xc0ae6fb0	-5.4511337
250	0xc01b217c	-2.4239187
251	0x4007b490	2.1203957
252	0xc0f8bb40	-7.7728577
253	0xbe48307b	-0.19549744
254	0x4039ff60	2.9062119
255	0xc0141467	-2.3137453

actor.0.bias f4 [64]
0	0x3fca7456	1.5816753
1	0x405b7b3a	3.4293962
2	0xbf41eaf0	-0.7574911
3	0x405b11f7	3.4229715
4	0x3f021ed0	0.50828266
5	0xbec814c8	-0.39078355
6	0x3f9b7d6e	1.2147653
7	0xc0629428	-3.5402927
8	0xc008580f	-2.1303747
9	0xbee026f4	-0.4377972
10	0x3fb5876d	1.4181954
11	0xc06e5287	-3.723787
12	0xc0748bb7	-3.8210275
13	0x40c5c015	6.1796975
14	0xbff5ecae	-1.9212854
15	0xbcfd48fc	-0.03091859
16	0xbfe8c80d	-1.8186051
17	0xbfb71377	-1.4302815
18	0xc0a15a75	-5.042292
19	0xbf8264f6	-1.0187061
20	0xbe01b19d	-0.1266541
21	0x409a20c6	4.8165007
22	0xbf3c7486	-0.736153
23	0x3f8f847c	1.1212306
24	0x3f787bac	0.9706371
25	0x3fa87cf0	1.3163128
26	0xbf2b287f	-0.6685867
27	0xbfb95864	-1.44801
28	0x3faed9a9	1.3660175
29	0xbed12608	-0.40849328
30	0x4087e5f3	4.24682
31	0x408623a5	4.191851
32	0x3db91c37	0.09038585
33	0x4018559b	2.380225
34	0x4020ab38	2.5104504
35	0xbfab5848	-1.3386316
36	0xc02fd401	-2.7473147
37	0xbe517c9d	-0.20457692
38	0xc002a09d	-2.041053
39	0xbf9a4404	-1.2052007
40	0xbf2f0a0d	-0.6837471
41	0x3ea993e4	0.33120644
42	0x3da30417	0.079597645
43	0xbfe422d8	-1.7823133
44	0xbfa9298e	-1.3215806
45	0x40535319	3.3019469
46	0xc054de37	-3.326063
47	0x404bc999	3.1841795
48	0x40890ec5	4.283053
49	0x404d85c6	3.21129
50	0xbefd5555	-0.49479166
51	0x3fc8ecea	1.56973
52	0xbfdff1df	-1.7495688
53	0xc09efe96	-4.9685774
54	0x40825531	4.0728993
55	0x40645a61	3.5680163
56	0x3f644c07	0.8917851
57	0x405d3fd7	3.4570215
58	0x4023b7c1	2.5580904
59	0x3fe54b4d	1.7913605
60	0xc0ee5034	-7.4472904
61	0x3e47575a	0.19466916
62	0xbfff73fa	-1.9957268
63	0x3fa9f146	1.3276756

actor.2.weight f4 [64, 64]
0	0xc10a4fb4	-8.644459
1	0x40b5649b	5.668531
2	0x3fb8a0a5	1.4424025
3	0x40c2cf6e	6.087821
4	0xbfd7f13f	-1.6870497
5	0x40eb1682	7.3464975
6	0x3fda9759	1.7077438
7	0xbf25db91	-0.64788157
8	0x403dec9e	2.967567
9	0x3f9b1db4	1.211844
10	0x3fdb7337	1.7144536
11	0x3e9fb589	0.31193188
12	0xc0a5a9c8	-5.1769753
13	0x3ff8dfa5	1.9443251
14	0xc05829fb	-3.3775623
15	0x4062461c	3.5355291
16	0xbdd809f1	-0.10548771
17	0x3fb59b0a	1.4187939
18	0xc08999a4	-4.300005
19	0xbf9a2c65	-1.2044798
20	0x3f092f4a	0.5358778
21	0xbf99e5d3	-1.2023262
22	0xbeaa48a9	-0.3325856
23	0x409e104e	4.9394903
24	0x401f571b	2.4896915
25	0xc02f9b27	-2.7438447
26	0xc006f2d7	-2.1085718
27	0xc09bbcdb	-4.8668036
28	0xbf6696b6	-0.90073717
29	0x406b6450	3.6779976
30	0x410699c1	8.412538
31	0x3fac7857	1.3474225
32	0x3f51fbae	0.8202466
33	0xbecdcbe3	-0.40194616
34	0x4099052d	4.781882
35	0xbf245397	-0.6419005
36	0x40ea2232	7.316674
37	0x406ccc7c	3.6999807
38	0xbf960dd6	-1.1722972
39	0x3f3b8dd8	0.7326331
40	0xc04f255f	-3.236656
41	0xc0b13dcf	-5.538795
42	0x40cd2ab1	6.4114614
43	0xc09309f0	-4.594963
44	0x400c69bf	2.1939542
45	0x40ef0316	7.4691267
46	0xc0a44720	-5.1336823
47	0x40323135	2.7842534
48	0xc01036f9	-2.2533553
49	0xbfe9f9f2	-1.8279402
50	0x4018f897	2.3901727
51	0x411f493c	9.9553795
52	0x403a1d25	2.9080288
53	0x3e94f242	0.29091078
54	0xbe527e4a	-0.20555988
55	0xc09b31bc	-4.849821
56	0x405b4cff	3.4265745
57	0x400b7e25	2.1795743
58	0x40c2b718	6.0848503
59	0xbecd0ff7	-0.40051243
60	0xc0b0ec96	-5.52888
61	0x41293bc0	10.577087
62	0x3f4eafc2	0.80736935
63	0xbfc5702c	-1.5424857
64	0xc115889b	-9.345851
65	0x3f115144	0.56764627
66	0xbf937c52	-1.1522315
67	0xbf347138	-0.7048526
68	0x3fa01513	1.2506431
69	0xbfbb01a5	-1.4609877
70	0x4055eab3	3.34245
71	0x4060a841	3.5102694
72	0x3fbf15f2	1.4928572
73	0xbf8a0c65	-1.0785033
74	0x3fde8302	1.738373
75	0x40d3be46	6.6169767
76	0x40e617fa	7.190427
77	0xbfdd2566	-1.7277038
78	0x4028b746	2.6361861
79	0x405397a7	3.3061311
80	0xbfae3855	-1.3610941
81	0x40acc584	5.399111
82	0xbfa1ad3b	-1.2630991
83	0x40330981	2.797455
84	0xc05b7448	-3.4289722
85	0xc059a15e	-3.400474
86	0xbfdad1d5	-1.7095286
87	0xc119e977	-9.619498
88	0x3f2f5219	0.68484646
89	0x40adc213	5.4299407
90	0x40e557ea	7.1669817
91	0x3cf513db	0.029916694
92	0x401c7fea	2.4453073
93	0xbf0f003d	-0.5585974
94	0x3e8b4b90	0.27206087
95	0xc052c89c	-3.2934942
96	0xbf0cdc36	-0.55023515
97	0xc0852f4d	-4.162024
98	0xc0f305ce	-7.5944586
99	0x3f62a19f	0.88527864
100	0x3fc59153	1.5434974
101	0xc03bf079	-2.9365523
102	0x402f8d49	2.7429984
103	0x407cbddb	3.9490879
104	0xbe9419f4	-0.2892605
105	0xbf5ca852	-0.86194336
106	0xbfe260fd	-1.7685848
107	0xc08cd06d	-4.4004426
108	0x4101191d	8.068631
109	0x3fb6c870	1.4279919
110	0xc011d09a	-2.278357
111	0xc0ac1fb9	-5.3788724
112	0xc01d7b9f	-2.4606702
113	0xc03f0306	-2.9845595
114	0xc0527ca5	-3.2888577
115	0x3f2655ad	0.6497448
116	0xbfb54941	-1.416298
117	0x3f158899	0.58411556
118	0xc0c21e51	-6.0662007
119	0xc0c8d48c	-6.2759457
120	0xc0ab15cd	-5.346411
121	0xc07df954	-3.9683428
122	0xc01e5354	-2.473836
123	0x4093ba39	4.6164823
124	0x3fc4ceea	1.5375645
125	0x40426002	3.0371099
126	0x4104253d	8.259091
127	0xc04c653a	-3.1936784
128	0xbe8e42dc	-0.27785385
129	0x3f01af6a	0.50658286
130	0xbff54e27	-1.9164475
131	0x3f951466	1.164685
132	0xc0e4847d	-7.141173
133	0x3ff26eee	1.8940103
134	0x40233dca	2.5506463
135	0xc06f7ab5	-3.7418644
136	0xc0ac142c	-5.3774624
137	0xc0a9ce50	-5.3064346
138	0x4095cb0d	4.6810365
139	0xc09ee4c1	-4.965424
140	0xbfe77fd8	-1.808589
141	0x3f2fc096	0.6865324
142	0xc067c479	-3.6213667
143	0x40a20228	5.062763
144	0x3d3295c8	0.043599874
145	0x402f3d84	2.7381296
146	0xc0046aec	-2.069026
147	0xc05fc6e0	-3.4965134
148	0xc09ad8c5	-4.838961
149	0x3f80b61a	1.0055573
150	0x405464df	3.3186567
151	0x40cbb68e	6.3660345
152	0x405f0e48	3.4852467
153	0x4027d9b8	2.6226635
154	0x3f30706f	0.6892156
155	0xc04a846d	-3.1643326
156	0xc00f7e51	-2.2420847
157	0x3fff322a	1.9937184
158	0x40492391	3.1427958
159	0x3fe4b6a4	1.7868237
160	0x405dffd0	3.4687386
161	0xc009ff05	-2.1561902
162	0x3f39ddd5	0.72604114
163	0xc0806c75	-4.0132394
164	0xc0359e31	-2.8377802
165	0x3f32a5a1	0.6978398
166	0xc0dc1026	-6.8769712
167	0x4051d5dc	3.278678
168	0x40114a8e	2.2701755
169	0xc08753e0	-4.2289886
170	0x4090dea3	4.5271773
171	0x3f53548a	0.8255087
172	0xc068bce9	-3.6365302
173	0x3f2550f5	0.64576656
174	0xc028596f	-2.6304586
175	0x402d0257	2.7032678
176	0x40534c3b	3.3015277
177	0xbea0d0e3	-0.31409368
178	0x406bb55b	3.682944
179	0xbdb0443c	-0.08606765
180	0xbef693a9	-0.4815953
181	0xbf965522	-1.174473
182	0x40813490	4.0376663
183	0x405b5c59	3.4275115
184	0xbf33bd1f	-0.7021045
185	0x4019ee13	2.405156
186	0x4045357b	3.0813892
187	0x40154fe3	2.333001
188	0xc0209001	-2.5087893
189	0x40740640	3.8128815
190	0xbe9b9e7e	-0.30394357
191	0xbfabbb5d	-1.3416554
192	0x400b92f2	2.1808438
193	0xbfa68cf6	-1.3011768
194	0x3fdcd62b	1.7252859
195	0xbfd158c1	-1.635521
196	0x402d41e3	2.7071464
197	0xc0813cb2	-4.038659
198	0xc056ecf0	-3.3582115
199	0x3fa3c521	1.2794534
200	0xbfbe0773	-1.4846023
201	0x3fb4b8d8	1.411891
202	0xbdeda9e2	-0.11604668
203	0x4052b730	3.2924309
204	0x3f10eda1	0.5661259
205	0x3fcae224	1.5850263
206	0xc060061a	-3.5003724
207	0xc008b52d	-2.136058
208	0x3f94fce0	1.1639671
209	0x3a3be1f7	0.0007167155
210	0xbd72434c	-0.05914621
211	0x40787a25	3.882455
212	0xc0896389	-4.2934003
213	0x3e4279af	0.18991731
214	0xc0347fab	-2.8202922
215	0x3d8ccbe6	0.06874828
216	0xc00ae45b	-2.1701877
217	0xbfcb7aaa	-1.5896809
218	0x3fd633e6	1.6734588
219	0x4089cccb	4.306249
220	0x4020c14a	2.5117974
221	0x3f6a0519	0.9141403
222	0x3f34ec49	0.7067304
223	0x3fe8ecc2	1.8197253
224	0xc027043d	-2.6096337
225	0x40b82796	5.7548323
226	0xbf2c3c60	-0.67279625
227	0xbfbf1c7d	-1.4930569
228	0xbff91f8a	-1.946275
229	0x3f596280	0.84915924
230	0xbcefcebd	-0.029273385
231	0xc001c76c	-2.0277967
232	0x3f741fc3	0.95360965
233	0xbfe8fcaf	-1.8202113
234	0x3fc32ff0	1.5249004
235	0x403b5cd2	2.9275403
236	0xc039a779	-2.9008467
237	0x3fce0408	1.609498
238	0xc080d59f	-4.026077
239	0x3f9b8e19	1.215274
240	0xbf80a2c3	-1.0049671
241	0x3f999a21	1.2000161
242	0xc0accabf	-5.3997493
243	0xbf37e10a	-0.7182776
244	0xc0c38c67	-6.110889
245	0xc0914030	-4.5390854
246	0x3fe77dca	1.8085263
247	0x40a065ac	5.012411
248	0x3ef876ef	0.4852824
249	0x3cfda47a	0.030962218
250	0x401264ae	2.287395
251	0x3fbe7c13	1.4881614
252	0xc0addbab	-5.433065
253	0x3de94fe1	0.11392189
254	0xc01bea59	-2.4361784
255	0x40d1604b	6.5430045

actor.2.bias f4 [64]
0	0x40939cd4	4.612894
1	0xc0321a37	-2.78285
2	0x4082c925	4.087054
3	0xbfa8678b	-1.3156599
4	0x404c283a	3.1899552
5	0x3f391f6c	0.7231357
6	0x3eb4c010	0.35302782
7	0x3e3adaeb	0.18247573
8	0x4001f4a3	2.0305564
9	0x40609aa5	3.5094388
10	0xbf244563	-0.64168376
11	0x40711192	3.7666974
12	0xc0435e2b	-3.0526226
13	0xc0469808	-3.1030293
14	0x400fc229	2.2462256
15	0x3f53896d	0.8263157
16	0x3f93c695	1.1544977
17	0xc04e8036	-3.2265754
18	0xc02d216d	-2.7051651
19	0x4021d931	2.5288813
20	0xc03e124f	-2.9698675
21	0xc036ca6b	-2.8561046
22	0x3fcfba38	1.6228704
23	0x4006283a	2.0962052
24	0x403e5651	2.9740183
25	0x40376483	2.8655097
26	0xc03679da	-2.8511872
27	0xbf78a6c6	-0.97129476
28	0x3fe6c415	1.802859
29	0xbfffd642	-1.9987261
30	0x4050f3d5	3.2648823
31	0xbd847a0f	-0.06468593
32	0xc017d1e9	-2.372187
33	0xbfda01ea	-1.7031834
34	0x3f3f01b7	0.7461199
35	0xbfdf8a7e	-1.746414
36	0xc07f0b18	-3.985052
37	0x3fe6abaa	1.8021138
38	0xc0419371	-3.024624
39	0xbf12cb68	-0.57341623
40	0x3fcae668	1.5851564
41	0xc01a4b4a	-2.4108453
42	0x3fc404d7	1.5313977
43	0xbfb2f8d4	-1.3982186
44	0xc038002a	-2.87501
45	0xbff8e715	-1.9445521
46	0x3ecf335a	0.40468866
47	0x403c5ea5	2.9432766
48	0x4006aa65	2.10415
49	0xc023ec1f	-2.5612867
50	0xc0367f2e	-2.8515124
51	0xc05e2347	-3.4709032
52	0xc02cdd36	-2.7010016
53	0xc09ff6d6	-4.9988813
54	0xc068554a	-3.6302056
55	0xc05aeef0	-3.4208336
56	0x40bd42a2	5.914384
57	0x3e8790d5	0.26477686
58	0x4081cee3	4.0565047
59	0x3ed3deae	0.4138083
60	0xc0ae3e54	-5.4451084
61	0x3fe934d3	1.8219246
62	0x400f650f	2.2405431
63	0xc0a7b1c5	-5.2404504

actor.4.weight f4 [52, 64]
0	0xc0150f76	-2.3290687
1	0xc19c1da5	-19.514475
2	0x41829e03	16.327154
3	0xc1582817	-13.509788
4	0x40693bf7	3.644285
5	0xc1724ed1	-15.144242
6	0xc0ff3521	-7.9752355
7	0x40ee7962	7.452317
8	0x4156e999	13.432031
9	0x419fe657	19.98747
10	0xc119b77d	-9.607297
11	0x4169bb99	14.6083
12	0xc19026af	-18.018888
13	0xc0a0d4c8	-5.0259743
14	0x40c28458	6.0786552
15	0xc12873c6	-10.528265
16	0x40b1acef	5.55236
17	0xc1c076b4	-24.05796
18	0x3ff09b98	1.8797483
19	0x412ded50	10.870438
20	0xc1880eef	-17.007292
21	0x4135fdde	11.374479
22	0x41094579	8.579461
23	0xc038043a	-2.875258
24	0xbe7928ec	-0.24332017
25	0x41ad33aa	21.650227
26	0xc0f07119	-7.513806
27	0x40be667c	5.9500103
28	0x41126aeb	9.151103
29	0x406f28d1	3.7368662
30	0x40e7537b	7.2289405
31	0x419f01af	19.875822
32	0x40f7d6ae	7.744956
33	0xc1aec6a3	-21.84699
34	0xc0f45615	-7.635508
35	0x3fe53a25	1.7908369
36	0xc1bc0a03	-23.504889
37	0xc03c056e	-2.9378314
38	0xc0c8e43a	-6.2778597
39	0xc05b90cc	-3.4307127
40	0x40c90060	6.281296
41	0xc1a39f1a	-20.452686
42	0xc0ce38d6	-6.444438
43	0x40a3dadb	5.1204658
44	0x40497125	3.1475308
45	0x3ee61764	0.4493972
46	0x400981c7	2.148546
47	0x3ee3905f	0.44446084
48	0xc14c9798	-12.78701
49	0xc1a923e5	-21.142527
50	0xc1b5291f	-22.645079
51	0xc128662e	-10.524946
52	0xc133e2ec	-11.242901
53	0xc183cfef	-16.47653
54	0xc190afd9	-18.085863
55	0xc0d11813	-6.5341887
56	0x4106a913	8.416278
57	0x40ab5583	5.3541884
58	0x3f874a92	1.0569632
59	0xc13e42c7	-11.891303
60	0xc12fcc90	-10.987442
61	0x412bba89	10.733041
62	0xbeb4bb47	-0.3529913
63	0xc19b3633	-19.401464
64	0x41a1db91	20.23221
65	0xc0b70724	-5.7196217
66	0x418ec551	17.846346
67	0xc1b2c8a6	-22.347973
68	0xc07171fd	-3.7725823
69	0x4080f559	4.0299497
70	0xc072181d	-3.7827218
71	0x4166208d	14.382947
72	0x40fb8b9f	7.8607936
73	0x402f1311	2.7355387
74	0x3fd51a0b	1.6648573
75	0x41c779d3	24.934484
76	0xc190f16f	-18.117887
77	0xc1b74056	-22.906414
78	0xc0f5d05c	-7.6816845
79	0xc04fa9fe	-3.2447505
80	0x416e00f9	14.875237
81	0xc08926ba	-4.2859774
82	0xc1c7201f	-24.890684
83	0x4197335e	18.900082
84	0xc1932d65	-18.397165
85	0xc15a815a	-13.65658
86	0x419db8b3	19.715185
87	0x41377359	11.465661
88	0xc1869166	-16.820995
89	0x41945b53	18.544592
90	0x402ed60d	2.7318146
91	0x416b6e0d	14.714368
92	0x405c56d9	3.4428008
93	0xc1647c0f	-14.280288
94	0xc16c8743	-14.783023
95	0xbfe8ed74	-1.8197465
96	0xc03cee7e	-2.9520564
97	0xc0f279af	-7.577354
98	0x4124d747	10.302558
99	0xc0bde716	-5.9344587
100	0xc09ba4ed	-4.8638825
101	0xc1b942b9	-23.15758
102	0xc1b34d4f	-22.412748
103	0xc123f47b	-10.247188
104	0x41c60b66	24.755566
105	0xc0d351a5	-6.6037164
106	0xc1a98c81	-21.193605
107	0xc09408d4	-4.6260777
108	0x3fee205b	1.8603624
109	0xc1a1dbb6	-20.23228
110	0x411500b0	9.312668
111	0xc1aa8754	-21.316078
112	0x40510f9c	3.2665777
113	0xbf4ed153	-0.80788153
114	0xbffea41e	-1.9893835
115	0xc0975207	-4.728763
116	0xc2020f12	-32.514717
117	0xc191b5c1	-18.213747
118	0xbf7997ed	-0.97497445
119	0x406d064e	3.7035098
120	0x41859027	16.695387
121	0x419a87f9	19.316393
122	0x41685cb6	14.5226345
123	0xc0c790f5	-6.236445
124	0x402ddc50	2.7165718
125	0x41f35f45	30.421518
126	0x416c8cb1	14.7843485
127	0xc0c8417a	-6.2579927
128	0xc0906475	-4.512263
129	0x4076bb5d	3.8551857
130	0x41775d7d	15.460324
131	0xc1c15fd9	-24.1718
132	0x416c11db	14.754359
133	0xc1049923	-8.287387
134	0xc18d7f18	-17.687057
135	0x417bdb74	15.741077
136	0xbf9c370d	-1.22043
137	0x41a284a8	20.314774
138	0xc0619863	-3.524926
139	0x41acf489	21.619402
140	0xc13c907e	-11.785276
141	0xc0576188	-3.3653278
142	0x3ed4daa7	0.41573068
143	0x414d4bd2	12.831011
144	0x41a2a2c3	20.329473
145	0xc18bd432	-17.478611
146	0xc0db2d09	-6.8492475
147	0xc09abc5e	-4.835494
148	0xc1b20278	-22.251205
149	0xc087dd05	-4.24573
150	0x405d80d7	3.4609888
151	0xc0f8afeb	-7.7714744
152	0xc12f4dff	-10.956542
153	0x41196f20	9.58963
154	0xc036e47f	-2.8576963
155	0x4053d8b1	3.3101008
156	0x4105ae02	8.354982
157	0xc09cdbef	-4.9018474
158	0xc1522f99	-13.1366205
159	0x402a3cf3	2.65997
160	0x416ad2cd	14.676465
161	0xc1837bb6	-16.435406
162	0x40d3e747	6.621982
163	0x41260cda	10.378138
164	0xc1bb3874	-23.402565
165	0xc0c93cfc	-6.2886944
166	0xc1a63f68	-20.78096
167	0x40f3d18c	7.6193295
168	0x414c6c22	12.7764
169	0xc1703b77	-15.014518
170	0xc124f0db	-10.308803
171	0x40b4eece	5.654151
172	0x4102eea3	8.183261
173	0x40e611ce	7.1896734
174	0xc11c3f60	-9.765472
175	0xc12ee94b	-10.931956
176	0x4188cefe	17.10107
177	0xc17e69b4	-15.900806
178	0xc189b8ad	-17.215174
179	0xc1524961	-13.142915
180	0xc1a888f2	-21.066868
181	0xc0e952d7	-7.2913623
182	0xc1b945a4	-23.159004
183	0xc1919c70	-18.201385
184	0x417bdb6c	15.74107
185	0x415455e8	13.270973
186	0x4181788a	16.183857
187	0xc1850f83	-16.632574
188	0xc102d156	-8.176107
189	0x41aed482	21.853764
190	0xc0a2a77c	-5.082945
191	0xc0eefe11	-7.468514
192	0xc13a1a68	-11.631447
193	0xc0f9315f	-7.7872767
194	0xc056eb00	-3.3580933
195	0xc13a956a	-11.661478
196	0x4038db70	2.8883934
197	0xc02e5dec	-2.7244825
198	0xbf1702d1	-0.5898867
199	0x3f70ca9b	0.9405915
200	0x41049141	8.285462
201	0x400411e0	2.063591
202	0x40802870	4.004936
203	0x4003686c	2.0532484
204	0xc034fab6	-2.8278022
205	0x40e72677	7.2234454
206	0xc1039584	-8.224003
207	0x3f89b59b	1.0758547
208	0xc1103894	-9.013813
209	0xbfdeaabe	-1.7395856
210	0xc0642a9d	-3.565101
211	0xc1095356	-8.582846
212	0xc0a7d5c1	-5.244843
213	0x40d88505	6.7662377
214	0x4123af37	10.230277
215	0xc071b0f6	-3.7764258
216	0xc086ea61	-4.2161107
217	0x410e81dc	8.906704
218	0x4105fd7a	8.374384
219	0x411e8263	9.906833
220	0xc10bb92f	-8.732711
221	0xc11cb8e5	-9.79514
222	0xc0bdeb29	-5.934956
223	0xc0d76a12	-6.731698
224	0x3fea831f	1.8321265
225	0x40794eb0	3.8954277
226	0xc0298924	-2.6489954
227	0xc0402176	-3.0020423
228	0xc0f8323e	-7.756133
229	0xbeedd2eb	-0.4644998
230	0xbfcc8e37	-1.59809
231	0xc01502fb	-2.328307
232	0xbf8e6921	-1.1125833
233	0xc0f19fe4	-7.550768
234	0xc113a533	-9.227832
235	0x406d3a85	3.7066967
236	0x40de44a3	6.9458785
237	0x4074a504	3.8225718
238	0x40cd223b	6.4104285
239	0xc0ae7f97	-5.453075
240	0xc120cf51	-10.050614
241	0xc0d3f114	-6.6231785
242	0xbf1efaa5	-0.62101203
243	0xc0de453f	-6.945953
244	0xc10451ba	-8.269953
245	0x4135cf9a	11.363184
246	0x401ab8a0	2.4175186
247	0x3fb38efc	1.402801
248	0x40e7abdd	7.2397294
249	0x40d01971	6.5031056
250	0x40d95227	6.7912784
251	0xc09be5a4	-4.8717823
252	0xc03aa135	-2.9160893
253	0x4124890d	10.28346
254	0x404b23c0	3.174057
255	0xc0ff5f5c	-7.9803905

actor.4.bias f4 [52]
0	0x41789c5d	15.538175
1	0x41e838cd	29.027735
2	0x41b8f4ba	23.119495
3	0x411e08e3	9.87717
4	0x403f68e7	2.9907777
5	0x404e4e28	3.2235203
6	0x3fc537b3	1.5407623
7	0x400297af	2.040508
8	0x4036d2d0	2.856617
9	0x3f6020d3	0.87550086
10	0x40a62261	5.1916966
11	0x3f16756d	0.5877293
12	0x3f8633fa	1.0484612
13	0x3f8c35e9	1.0953952
14	0x401a4102	2.4102178
15	0x3f980634	1.1876893
16	0x3f0c0695	0.54697543
17	0x40765a51	3.8492625
18	0x408d1dd8	4.409893
19	0x40936a8d	4.6067567
20	0x3fef65a8	1.8702898
21	0x3fc56b8f	1.5423449
22	0x409b612b	4.8556113
23	0x3fa9e7a3	1.3273815
24	0x40bced4a	5.903966
25	0x3edc86b7	0.4307153
26	0x3f6ff6ad	0.9373577
27	0x3f9d3e57	1.228465
28	0x3f400eb0	0.7502241
29	0x3e76c0a2	0.24096921
30	0x3f965d8a	1.1747296
31	0x3da35140	0.079744816
32	0x3eff3d51	0.49851468
33	0x3f142b0b	0.5787818
34	0xbc37ae24	-0.011210952
35	0x3f0abea1	0.54197127
36	0x3e888ae8	0.26668477
37	0x3ec188c9	0.3779967
38	0x3f01bfbf	0.50683206
39	0x3f6bceae	0.92112243
40	0x3ed819ce	0.42207187
41	0x3f14d6fc	0.5814054
42	0x3f3453cf	0.7044038
43	0x3f1da51a	0.6158005
44	0x3d97842a	0.07398255
45	0xbd24806c	-0.040161535
46	0xbab87580	-0.0014073104
47	0xbdda40f4	-0.1065692
48	0x3d602598	0.054723352
49	0x3df6652e	0.12031017
50	0xbb82bf00	-0.003990054
51	0xbd992918	-0.07478541

critic.0.weight f4 [64, 100]
0	0x41454fce	12.331984
1	0xc043c91a	-3.0591493
2	0x41120a33	9.12749
3	0x407ea024	3.9785242
4	0x410a0db8	8.628349
5	0x414582ea	12.344461
6	0xc0443884	-3.0659494
7	0x410ff106	8.996344
8	0x407f3524	3.9876184
9	0x410a0f93	8.628802
10	0x40a0b368	5.0219
11	0x41199912	9.599871
12	0x40a3cc9c	5.1187267
13	0x41ff9012	31.945347
14	0xbff944b6	-1.9474094
15	0x41002753	8.009601
16	0xc179d5cb	-15.614696
17	0x419e7d7e	19.811275
18	0x415549eb	13.330546
19	0x40f80e1b	7.751722
20	0x411aada3	9.667392
21	0xc0a144eb	-5.039663
22	0x418d3e3e	17.655392
23	0x40bb6c88	5.8569984
24	0x419b4916	19.410686
25	0x41fca2a6	31.579418
26	0x4109bd4f	8.608718
27	0x4036f3aa	2.858622
28	0x41370725	11.439244
29	0x41ff7ae9	31.935015
30	0xc0a074f0	-5.0142746
31	0x414fdd26	12.991491
32	0x41824c26	16.287182
33	0x416e8d92	14.909563
34	0x40e342c7	7.1019015
35	0xc0fd95c9	-7.9245343
36	0x40b99fb9	5.8007474
37	0x41ba7678	23.307846
38	0x4120b41b	10.043971
39	0x41994cb5	19.162455
40	0x41a7f016	20.99223
41	0x410da19e	8.851957
42	0x4107c6f9	8.486077
43	0x4120af6a	10.042826
44	0x41971516	18.885296
45	0x41a7532b	20.91561
46	0xc07ded80	-3.9676208
47	0x40f2eb81	7.591248
48	0x40f6e743	7.71573
49	0x41aec4d5	21.84611
50	0xc10351ab	-8.207438
51	0x419f989a	19.949512
52	0x418a4506	17.283703
53	0x40fd52c4	7.916353
54	0x415298dc	13.162319
55	0x41015725	8.0837755
56	0x41172190	9.445694
57	0x40895c15	4.2924905
58	0x42146fa6	37.10903
59	0x413baec3	11.730166
60	0x406bdce0	3.6853561
61	0x40a4f87d	5.155333
62	0xbef95e75	-0.48704877
63	0x410df2fd	8.871823
64	0x41be14c7	23.760145
65	0x41a4357b	20.526114
66	0xc1217c16	-10.092794
67	0x4169863f	14.595275
68	0x3f1ffbb5	0.6249345
69	0x41bf57e3	23.917913
70	0x4062b91d	3.5425484
71	0x3c2d9f73	0.010597098
72	0xbccd39ba	-0.02505194
73	0x3bda3be7	0.006659973
74	0xbcdd535a	-0.027017284
75	0x3cf00dc7	0.029303445
76	0xbf1af021	-0.6052266
77	0x4029f157	2.6553552
78	0x41be6b2d	23.802332
79	0x41d27378	26.306381
80	0x4194bf64	18.593452
81	0x3d91de77	0.0712251
82	0xbb60c397	-0.0034296268
83	0xc0b9f741	-5.8114324
84	0x419955a1	19.166811
85	0x41ae9a7b	21.82543
86	0x41a2d4d6	20.353924
87	0xbcd75913	-0.026287591
88	0x3fcea464	1.6143918
89	0xc0c022b9	-6.0042386
90	0x41bc12c7	23.509169
91	0x411b6274	9.711536
92	0x41a685ee	20.815395
93	0x3d99ca87	0.07509332
94	0xbf044426	-0.51666486
95	0xc0d9192e	-6.7843237
96	0x418be510	17.486847
97	0x40d9b0e1	6.8028417
98	0x40c0607e	6.011779
99	0x40d029c8	6.5051003
100	0x40ab2c9c	5.3491955
101	0x40a8b051	5.271523
102	0x3fa3835c	1.2774463
103	0x4163b5a0	14.231842
104	0x4158b80e	13.544935
105	0x40ab993e	5.3624563
106	0x40addd37	5.433254
107	0x3fa014d5	1.2506357
108	0x4160c132	14.047167
109	0x415a9184	13.660526
110	0xc0474f60	-3.1142197
111	0x4123ecb3	10.245288
112	0xc0318dcd	-2.7742798
113	0x412a7df7	10.655753
114	0x40043014	2.0654345
115	0x40863eca	4.1951647
116	0x410eb757	8.919761
117	0x3f8072be	1.0035017
118	0x412ba04a	10.726633
119	0x414c8d1b	12.78445
120	0x412f986d	10.974713
121	0x40af2c5c	5.474165
122	0x412d6775	10.837758
123	0xc0f79589	-7.737004
124	0x40dd45e7	6.914783
125	0x4144a26c	12.289654
126	0x412df2da	10.87179
127	0x3f8d14cf	1.1021975
128	0x40b3f960	5.6241913
129	0x4182d4cc	16.353905
130	0x4136da05	11.428227
131	0x409ff37a	4.9984713
132	0x3e445c22	0.19175771
133	0x415fcd2b	13.98759
134	0x410e698b	8.900767
135	0x40e8809a	7.2656984
136	0x41425582	12.145876
137	0xc003cc32	-2.059338
138	0x40fbb952	7.866372
139	0x408eccb6	4.462489
140	0x40895ea0	4.292801
141	0xc00041e0	-2.0040207
142	0x41092855	8.572347
143	0x40c5e5ae	6.184287
144	0x4125d1f4	10.363758
145	0xbed2245d	-0.41043368
146	0x412a2a09	10.6352625
147	0xc08e332a	-4.4437456
148	0x410f400c	8.953136
149	0x40a62301	5.191773
150	0x40ccb730	6.3973618
151	0xc0dbaf81	-6.865174
152	0x419c4d5b	19.537771
153	0xbf23d4c3	-0.63996524
154	0x40d1ff5b	6.5624213
155	0x411dff18	9.874779
156	0x411b7657	9.716392
157	0x3f38d5e3	0.72201365
158	0x406bb30c	3.6828032
159	0x4118a3de	9.540007
160	0x41a03dae	20.030117
161	0x4050ff9b	3.265601
162	0x3f8542e0	1.0411034
163	0x407cef9f	3.9521253
164	0x4155489a	13.330225
165	0xc0bc548b	-5.88532
166	0x409dac8b	4.9273124
167	0x4002d10e	2.0440097
168	0x40c69ffd	6.20703
169	0x4165e2eb	14.3679
170	0x3fd3a6a1	1.6535226
171	0xbd104690	-0.035223544
172	0xbdc3ec38	-0.095665395
173	0x3d256137	0.040375914
174	0x3da24b63	0.07924535
175	0x3d2f24da	0.042759754
176	0x3e6b4a92	0.22977665
177	0x40365c57	2.849386
178	0x416276f0	14.154037
179	0x4183846c	16.43966
180	0x41717e19	15.093286
181	0xbd8a05d0	-0.0673939
182	0xc0ac187d	-5.3779893
183	0x412a33dd	10.637662
184	0x419b8d42	19.443974
185	0x409a8ebf	4.829925
186	0x4124b5f6	10.294424
187	0x3c093dcd	0.008376551
188	0xbfe04e75	-1.7523943
189	0xc05f1bbb	-3.4860675
190	0x41ca8ba2	25.31818
191	0x41c02423	24.017645
192	0x4191cc01	18.224611
193	0x3db1fb30	0.08690488
194	0x408bd2e0	4.3694916
195	0x416e67a3	14.900302
196	0x4183259b	16.393362
197	0xc08428e0	-4.1299896
198	0xbd47a92e	-0.048745327
199	0x40ed2daa	7.411824
200	0x4056e30a	3.3576074
201	0x3fb9ce97	1.4516171
202	0x3f9b8263	1.2149166
203	0xbf1e0d8e	-0.6173943
204	0x40176a9d	2.3658822
205	0x4053058a	3.297213
206	0x3fbb011f	1.4609717
207	0x3f8ef116	1.1167324
208	0xbf2d2e80	-0.6764908
209	0x401a14d1	2.4075205
210	0x40562b80	3.346405
211	0xbed5510d	-0.416634
212	0x3f0f0dc1	0.5588036
213	0x3fc03473	1.5016006
214	0x3fa95da3	1.3231701
215	0x3c87e850	0.016590267
216	0x3eebd9a5	0.46064487
217	0x400fd82e	2.2475696
218	0xbf5bbcde	-0.85835063
219	0x4002cc24	2.0437098
220	0x40281e44	2.6268473
221	0x3f77efbf	0.968502
222	0x4070a160	3.7598495
223	0x4011c70e	2.2777743
224	0x3fed1fce	1.8525331
225	0x3fce889e	1.6135442
226	0x3f608909	0.877091
227	0x3e036a55	0.12833531
228	0x3fd669da	1.6751053
229	0x3fdafa2e	1.7107599
230	0x3f1a78ca	0.6034056
231	0x4031b60b	2.776736
232	0x40821b3f	4.065826
233	0xbfc5f7a6	-1.5466201
234	0x40557c0e	3.3356967
235	0x4086b564	4.2096424
236	0x3f6b5780	0.9193039
237	0x40b6a613	5.7077727
238	0x3e5854ba	0.2112607
239	0x400710d8	2.110403
240	0x3ff4613a	1.9092171
241	0x3f3f2d98	0.74678946
242	0x3fc4213b	1.5322641
243	0x4094b423	4.6469893
244	0x3fe7175a	1.8054001
245	0x40b6bdd2	5.7106714
246	0x407ee837	3.9829233
247	0xbf043877	-0.5164866
248	0xc01e4de8	-2.473505
249	0x3fab13fc	1.3365474
250	0x3f75390a	0.9579016
251	0x400bf496	2.1868033
252	0x40796e9b	3.8973758
253	0x3f70adf9	0.9401546
254	0x40d87c82	6.7651987
255	0x403ea31e	2.978706

critic.0.bias f4 [64]
0	0x4058db53	3.3883865
1	0x3fdae3bf	1.7100753
2	0x4006e88a	2.107943
3	0xc088ceda	-4.2752504
4	0x402cd9b8	2.7007885
5	0xc0ea6bcd	-7.3256593
6	0xbf7fae1f	-0.9987506
7	0x40af58a8	5.4795723
8	0x3fc17707	1.5114449
9	0x40cd5569	6.416676
10	0xc07090f0	-3.7588463
11	0x40c7c5a0	6.242874
12	0x408664bc	4.1997967
13	0x4081c343	4.0550857
14	0xc06c7274	-3.6944857
15	0xc0f05f21	-7.5116124
16	0x4010ab2b	2.2604473
17	0x40daa4c9	6.8326154
18	0xc100d53b	-8.052058
19	0x402f0f38	2.7353039
20	0x40bb8a13	5.860605
21	0xc0bf5ab1	-5.9798207
22	0x409b9622	4.8620768
23	0x3faebe44	1.3651814
24	0x402742fe	2.6134639
25	0x3fcf3491	1.6187917
26	0x416bbd7c	14.733761
27	0xc0a2d996	-5.089061
28	0x3f7b1530	0.98079205
29	0x40bc399c	5.8820324
30	0xc1055963	-8.334323
31	0xc04f8d6f	-3.2430074
32	0x40a76291	5.230782
33	0xc10dc7ac	-8.861248
34	0x3ea3b8f8	0.31977057
35	0x4055bc63	3.3396232
36	0x401da203	2.4630134
37	0xc09ea2c0	-4.957367
38	0x40c41a99	6.128247
39	0x40da73d2	6.826638
40	0x402a6b1d	2.6627877
41	0x40a93b1c	5.2884655
42	0xbfce235d	-1.6104542
43	0x411a4706	9.64234
44	0x414afc70	12.68663
45	0xc14bf796	-12.747946
46	0x4183d000	16.476562
47	0x4106e44d	8.4307375
48	0x4054f907	3.3276994
49	0x4031a000	2.7753906
50	0x41871189	16.883562
51	0x3eab7e42	0.33494765
52	0xc0300f69	-2.7509406
53	0xc065abae	-3.5886035
54	0xc04489ee	-3.0709186
55	0xc159d60a	-13.614756
56	0xc0a0d199	-5.0255857
57	0x40520900	3.2817993
58	0xc077adc8	-3.8699818
59	0xc08459fa	-4.1359835
60	0xc0aa9b51	-5.3314595
61	0x40ed241d	7.4106584
62	0xbe8dc53e	-0.27689546
63	0xbf5c5d86	-0.86080205

critic.2.weight f4 [64, 64]
0	0xc064e590	-3.5765114
1	0xbf5388e5	-0.8263076
2	0xc0112a47	-2.2682054
3	0xbf00d02f	-0.5031766
4	0xbfd4c290	-1.6621876
5	0xbe869a5e	-0.26289648
6	0x3e257347	0.16157256
7	0x3fa820e6	1.313504
8	0xc00dd18d	-2.215915
9	0xbe7c490f	-0.24637245
10	0x3fd5d490	1.6705494
11	0xc02634ee	-2.5969806
12	0x3f0b267f	0.54355615
13	0xbf8d3258	-1.1030989
14	0xbf76de87	-0.964333
15	0xbfdecc24	-1.7406049
16	0xc00d7df8	-2.2108135
17	0xc08c3564	-4.3815174
18	0x3eb8b81f	0.36077973
19	0xbf87fd9a	-1.0624268
20	0x40535db8	3.3025951
21	0x3f5ae12d	0.8549984
22	0xbfb48284	-1.410233
23	0x3f8b8896	1.0901058
24	0xc0145667	-2.3177736
25	0xbe07c103	-0.13257222
26	0x401ab902	2.417542
27	0xbf38b871	-0.72156435
28	0x401d9178	2.4620037
29	0xc083db4f	-4.120521
30	0x3f8a38ec	1.0798621
31	0x405b1e9f	3.423744
32	0x409733e8	4.725086
33	0xc05b6ae3	-3.4283988
34	0xc028dc5b	-2.6384494
35	0xc00be415	-2.185796
36	0x3edd7879	0.43255976
37	0xbf620a1c	-0.88296676
38	0x408e9ff2	4.4570246
39	0xbfc7c3fa	-1.5606682
40	0xc04bda89	-3.1852133
41	0x3f68c52c	0.9092586
42	0x3fea8ece	1.832483
43	0xbfcbc26e	-1.591871
44	0x3c3f8067	0.011688328
45	0x3eb6f0c4	0.35730565
46	0xbfb7caa0	-1.4358711
47	0xbf1cf4ab	-0.61310834
48	0xbff19160	-1.887249
49	0x3fa8597c	1.3152308
50	0x3f82a842	1.0207598
51	0x3ff71f04	1.930634
52	0x401927d4	2.393056
53	0xc0564345	-3.3478558
54	0xc0784e63	-3.8797843
55	0xbf4af468	-0.79279184
56	0xbd2d3d0f	-0.04229456
57	0xc06b3857	-3.6753137
58	0x4010521a	2.255011
59	0xbc884052	-0.016632233
60	0xbf25ef89	-0.64818627
61	0xbe8ca8ca	-0.27472526
62	0x3f183e24	0.5946982
63	0x403c3813	2.9409225
64	0xbbf37114	-0.0074292514
65	0x3f673460	0.9031429
66	0x3fe43581	1.7828828
67	0xbe06755c	-0.13130707
68	0x3f2054be	0.62629306
69	0xbe8e64f6	-0.27811402
70	0xbf161ee6	-0.586409
71	0xbf200f84	-0.62523675
72	0x3f41cf04	0.75706506
73	0xbe8ddd06	-0.2770769
74	0xbe5da80d	-0.21646138
75	0x3f525595	0.8216184
76	0x3d6a59ef	0.057214674
77	0x3f65a364	0.8970244
78	0x3e659861	0.22421409
79	0x3eeee802	0.46661383
80	0x3f7218e2	0.9456922
81	0x3f2604b2	0.64850914
82	0x3e33863f	0.1753168
83	0x3f195ec3	0.5991022
84	0xbea1d031	-0.3160415
85	0x3f3a4239	0.727573
86	0x3fc055d0	1.5026188
87	0x3d18b498	0.037281603
88	0x3f9d732d	1.2300774
89	0xbf702626	-0.9380821
90	0xbe87c344	-0.26516163
91	0xbdc4752e	-0.09592663
92	0xbf8b4c1e	-1.0882604
93	0x3f339196	0.7014402
94	0xbec021ad	-0.37525693
95	0xbfb1751d	-1.3863865
96	0xbee0299f	-0.43781754
97	0x3ed95cf5	0.42453733
98	0x3ee03e0a	0.43797332
99	0xbe90a437	-0.28250286
100	0x3f571beb	0.84026974
101	0x3e292e98	0.1652168
102	0xbf67e154	-0.905782
103	0x3e484b02	0.19559863
104	0x3f9a6800	1.2062988
105	0xbdde83d9	-0.10864992
106	0xbfa1c053	-1.2636818
107	0x3f02b398	0.5105529
108	0xbecdc1f1	-0.40187028
109	0x3e51bcc9	0.20482172
110	0x3f2e8dbc	0.6818502
111	0xbe84bcd8	-0.25925326
112	0x3f4f4ef4	0.8097985
113	0xbed7b23a	-0.42128164
114	0xbf8d15c4	-1.1022267
115	0xbf1f43e3	-0.6221296
116	0xbf713402	-0.9421998
117	0x3f39dece	0.726056
118	0x3fb7132c	1.4302726
119	0x3f8f2885	1.118424
120	0xbeb46c04	-0.3523866
121	0x3dee427e	0.11633776
122	0xbfd25775	-1.643294
123	0x3e6fca39	0.23416986
124	0x3eb914f8	0.3614881
125	0x3e862e30	0.26207113
126	0xbf417940	-0.7557564
127	0xbf29d852	-0.66345704
128	0xbf9df79c	-1.2341189
129	0xbfb11eb4	-1.3837495
130	0xc02e3134	-2.7217531
131	0xbe93bc4b	-0.28854594
132	0xbfee86e3	-1.8634914
133	0xbfa01a87	-1.2508096
134	0xbe497600	-0.1967392
135	0x3f3f946f	0.74835867
136	0xbfcefd05	-1.6170965
137	0x3fc685b5	1.5509554
138	0x3f00d89b	0.50330514
139	0xbfb8d675	-1.4440447
140	0xbf76f5f1	-0.96469027
141	0xbf64af7d	-0.89330274
142	0x3ec3fed1	0.38280347
143	0x3ebe7ce1	0.3720465
144	0xbfb2af84	-1.3959813
145	0xbc77c3ba	-0.015122348
146	0xbf8e0f7c	-1.1098475
147	0xc0894a93	-4.2903533
148	0x3f61dab7	0.8822436
149	0xbf245d12	-0.64204514
150	0xbfb20724	-1.3908429
151	0xbe8b4f40	-0.272089
152	0xc0224f6a	-2.536097
153	0x3ff899b0	1.9421902
154	0x3e88b1db	0.26698193
155	0xbf0594a4	-0.5217993
156	0x4064e6c8	3.5765858
157	0xbfe5a0bf	-1.7939681
158	0x400edc30	2.2321892
159	0x4024fb34	2.5778322
160	0x401dfb66	2.4684691
161	0xbf99e7f2	-1.2023909
162	0xc010b25c	-2.2608862
163	0x3f97a9bd	1.1848675
164	0xbd7a9e6c	-0.06118624
165	0xbeae1415	-0.33999696
166	0x3fdf5af0	1.7449627
167	0x3f940e3c	1.1566844
168	0xbfffa94e	-1.9973543
169	0x3f8609a5	1.0471693
170	0x3ff6eaf5	1.9290453
171	0xbf603695	-0.87583286
172	0x3ff4b4e6	1.9117706
173	0xbf35eef7	-0.71067756
174	0xc0492f5e	-3.143516
175	0x3d1123d2	0.03543455
176	0x3fa13ed3	1.2597297
177	0x3fb400e8	1.4062777
178	0x3d7508ce	0.05982285
179	0x4016c1ea	2.3555856
180	0x3fe2cf2f	1.7719477
181	0xbe8e9a61	-0.27852157
182	0xbfb6099d	-1.4221684
183	0xbf1574c3	-0.5838129
184	0x3e3c4f1f	0.18389557
185	0xbfc0ce9c	-1.5063052
186	0x4001cef0	2.0282555
187	0xbe8d9405	-0.27651992
188	0xbf95c72c	-1.1701407
189	0x3fc3273e	1.5246351
190	0x3f8174ed	1.0113808
191	0x3ef54756	0.47905988
192	0xbf98cabe	-1.1936872
193	0xc0079849	-2.1186697
194	0xc01b0225	-2.422006
195	0x3f8268f5	1.018828
196	0xbff5a86d	-1.9192024
197	0x405f8887	3.492708
198	0x408eda23	4.464128
199	0x3edec95f	0.4351301
200	0xc00671e9	-2.1007025
201	0x3fbc08bb	1.4690164
202	0x4021035d	2.5158303
203	0xbfec240f	-1.8448504
204	0xbfa8b9fc	-1.3181758
205	0xbfe928d3	-1.8215584
206	0xbdcbbb3a	-0.0994782
207	0xc070f0d9	-3.7647002
208	0xbfc80b50	-1.5628452
209	0xbf663b14	-0.89933896
210	0x3f5f462b	0.8721644
211	0xbfddeecf	-1.7338504
212	0x3e9a331f	0.30117127
213	0xbf8cec3d	-1.1009594
214	0xc01845a6	-2.379251
215	0xbf4db08b	-0.8034751
216	0xc02e6a86	-2.7252517
217	0x3fe77276	1.8081806
218	0x3dc7b7d8	0.09751862
219	0x3eb454eb	0.35221037
220	0x3ff9a2fd	1.9502865
221	0xc020dcd7	-2.513479
222	0x4005895f	2.0865095
223	0x3fc31067	1.5239381
224	0x3f9f4ba3	1.2444957
225	0xbfee68dc	-1.862575
226	0xc0501f86	-3.251924
227	0x3ef7700d	0.48327675
228	0xbfda6887	-1.7063149
229	0xbef17a5c	-0.47163665
230	0x4001e627	2.0296724
231	0x3f922759	1.1418258
232	0xbf823730	-1.0173092
233	0x3fba048e	1.453264
234	0x3fecae0f	1.8490618
235	0xbf3e7395	-0.74395114
236	0x3fff094f	1.9924716
237	0xbe2757eb	-0.16342132
238	0xbf75b4c7	-0.9597897
239	0x3f31ecc0	0.69501877
240	0xc02218a6	-2.5327544
241	0xbf987c49	-1.1912929
242	0x3f63b80b	0.889527
243	0x40066f58	2.100546
244	0x40091e21	2.142464
245	0xbe66bd07	-0.22533046
246	0xbfbebb40	-1.4900894
247	0xbf396283	-0.7241594
248	0xbfb261ad	-1.3936058
249	0xbf86f34c	-1.0542998
250	0x3fc97220	1.5737953
251	0xc008237c	-2.1271658
252	0xbf40af78	-0.75267744
253	0xbfb8ffc1	-1.445305
254	0x3faae686	1.33516
255	0x3fd46788	1.6594095

critic.2.bias f4 [64]
0	0xc01eddff	-2.4822996
1	0x3ff3c145	1.9043356
2	0xc0050b5b	-2.078818
3	0xc0007f2a	-2.0077615
4	0xc045dd3a	-3.0916276
5	0x3fcd294b	1.6028227
6	0x405a04c4	3.4065409
7	0xc018dc4c	-2.3884459
8	0x4030f60d	2.7650177
9	0x3fd9672e	1.6984613
10	0xbfd77466	-1.6832397
11	0x3fcc7f2e	1.5976312
12	0x40282165	2.6270382
13	0x3f9949e4	1.1975675
14	0xbff08abd	-1.879234
15	0xc14bc912	-12.736589
16	0xc07b4284	-3.9259348
17	0xc012c85f	-2.2934797
18	0xbfd5dcc8	-1.6708002
19	0xc010acfc	-2.2605581
20	0xbfc2bc13	-1.5213646
21	0xbfa85972	-1.3152297
22	0x3fc202af	1.5157069
23	0xc08421b7	-4.1291156
24	0xbfbd103c	-1.4770579
25	0x401c5cd0	2.4431648
26	0xbfb9ba79	-1.4510032
27	0xbfbefa00	-1.4920044
28	0xc048fc04	-3.1403818
29	0x4014fe4f	2.3280218
30	0xbfde7ba4	-1.7381482
31	0xc011b4f9	-2.2766707
32	0xbfabba26	-1.3416183
33	0x3fbf5740	1.4948502
34	0xbffd62ae	-1.979574
35	0x400ad660	2.1693344
36	0xbff2843a	-1.8946602
37	0x3fc8dd71	1.5692579
38	0x400c62bc	2.1935263
39	0xc055932c	-3.3371077
40	0xc0084784	-2.129365
41	0x3fbe2b8f	1.4857043
42	0x402574fe	2.5852656
43	0x3fff22d6	1.9932506
44	0xc0486eb6	-3.1317573
45	0xc012a236	-2.2911506
46	0x4001eaac	2.0299482
47	0x3fc1a8c4	1.5129628
48	0x3f99587c	1.1980128
49	0x3fb1a7a8	1.387929
50	0x4061ead7	3.5299585
51	0x4007d02a	2.1220803
52	0x3ff47252	1.9097388
53	0xc012f650	-2.2962837
54	0x3fca2df5	1.5795275
55	0xbfacef07	-1.3510445
56	0xc012dd7c	-2.2947683
57	0x3fa3898b	1.277635
58	0x3fa70edf	1.3051413
59	0xbfcf7453	-1.6207374
60	0x3ff51090	1.914568
61	0xbf659059	-0.8967338
62	0xbfbe8c43	-1.4886554
63	0xbfe529e2	-1.7903407

critic.4.weight f4 [1, 64]
0	0x3f6d12fb	0.92607087
1	0x3fe3d5d7	1.7799634
2	0x3f96b7ed	1.177488
3	0x3f37e20b	0.7182929
4	0x3f4d5c37	0.80218834
5	0xbfc2a981	-1.5207978
6	0x3e89b893	0.2689863
7	0xbe5ab825	-0.21359308
8	0xbdeb956d	-0.1150311
9	0x3f255467	0.6458191
10	0xbff56711	-1.9172078
11	0x3eff8943	0.4990941
12	0xbf1b768b	-0.6072776
13	0xbf127f45	-0.5722545
14	0xbfc85df5	-1.5653673
15	0xbf186bca	-0.59539473
16	0x3ee250e3	0.44202337
17	0x3f29c53f	0.663166
18	0x3f605b3b	0.87639207
19	0x3f136e7f	0.5759048
20	0xbff39d35	-1.9032351
21	0xbe1c3ad3	-0.15256815
22	0xbfce3d93	-1.6112541
23	0x3e9af8a1	0.30267814
24	0x3fa4919d	1.2856938
25	0xbef08a3f	-0.46980473
26	0x3f6f88e9	0.93568283
27	0xbf5eca83	-0.8702776
28	0x3eeb8851	0.4600244
29	0xbf6ccc8b	-0.9249961
30	0xbfdf234d	-1.7432648
31	0xbfc2ee67	-1.5229005
32	0xbec21fe5	-0.3791496
33	0x3efbbea9	0.491689
34	0xbed3f81d	-0.41400233
35	0xbf2c55cb	-0.6731841
36	0xbf9f32b9	-1.2437354
37	0xbfaa0fb5	-1.3286043
38	0x3da25dd3	0.07928052
39	0x3f057a1d	0.52139455
40	0x3f52a641	0.82284933
41	0xbfa958c5	-1.3230215
42	0xbf7d735b	-0.99004143
43	0xbf0e88db	-0.55677575
44	0x3ed03587	0.40665838
45	0xbfd5a951	-1.6692296
46	0xbf08918b	-0.5334708
47	0x3e0e1861	0.13876487
48	0xbf351e43	-0.707493
49	0x3f839aaf	1.0281581
50	0xbe461c85	-0.19346817
51	0x3e33577d	0.17513843
52	0x3fe5b379	1.7945396
53	0x3f1051ed	0.5637501
54	0xbf51e8ed	-0.8199604
55	0xbf706ae5	-0.9391311
56	0xbef14f75	-0.47130933
57	0x3ed4c409	0.41555813
58	0xbf426e63	-0.75949687
59	0xbfe63ac5	-1.7986685
60	0xbf1c842d	-0.61139184
61	0xbe871ced	-0.26389256
62	0xbf5b07df	-0.85558885
63	0x3f06b4d3	0.52619666
